neuralq1.pt (torch, 5208 bytes, 3 tensors)

model.0.weight f4 [128, 4]
0	0x3b877d91	0.0041348417
1	0x3c272935	0.010202696
2	0xbea0c032	-0.31396633
3	0x3e4ce3aa	0.20008722
4	0xbe769154	-0.24078876
5	0xbeeab900	-0.4584427
6	0xbdd72cd3	-0.105065964
7	0x3e7e89b0	0.24857211
8	0xbe97cb06	-0.29647082
9	0xbef76870	-0.48321867
10	0xbebb1c34	-0.36544955
11	0x3e12b6b0	0.14327502
12	0xbea80294	-0.32814467
13	0x3d0b3d90	0.033994257
14	0x3dac1b00	0.08403587
15	0xbee355b8	-0.44401336
16	0xbdfbc9c8	-0.12294346
17	0xbee0d2f4	-0.43910944
18	0x3ea143bc	0.3149699
19	0x3cb132a0	0.021630585
20	0x3e56d5fc	0.20980066
21	0xbde2d016	-0.110748455
22	0x3d15c03d	0.036560286
23	0x3e4c26a2	0.19936612
24	0xbd16f49f	-0.036854383
25	0x3e4a06b7	0.19729124
26	0x3ee73112	0.45154625
27	0x3e8cbf7a	0.27489835
28	0xbe99a358	-0.30007434
29	0xbd18b0d0	-0.037277997
30	0xbd405820	-0.046959043
31	0xbed46bd4	-0.41488516
32	0x3eb7d7df	0.35906884
33	0x3e8a1c4a	0.26974708
34	0xbefa047d	-0.4883155
35	0x3ec4d9e9	0.38447502
36	0x3ce8ae80	0.02840352
37	0xbd876038	-0.06610149
38	0x3ee202d2	0.44142777
39	0xbe994b84	-0.29940426
40	0x3eb295d5	0.34879938
41	0x3eb4b08a	0.3529094
42	0x3e2e0b2d	0.1699645
43	0x3e4a9347	0.19782744
44	0xbef9be18	-0.48777843
45	0xbeff90cc	-0.4991516
46	0x3e942460	0.28934002
47	0x3ef90ef6	0.48644227
48	0x3ea49c17	0.32150337
49	0x3e4cb50a	0.19990936
50	0x3e17eaa6	0.14835605
51	0x3daae83c	0.083450764
52	0x3e098cad	0.1343257
53	0xbd7e3805	-0.062065143
54	0xbed5b29a	-0.41737825
55	0x3da20c44	0.07912496
56	0x3c1df0fa	0.009639973
57	0x3e8017b2	0.25018078
58	0x3d03a61f	0.032140847
59	0xbe957635	-0.29191747
60	0xbe5e282c	-0.21695012
61	0xbeb91490	-0.361485
62	0xbea9d4e8	-0.33170247
63	0x3e594dd4	0.21221095
64	0x3ef4e684	0.4783212
65	0x3ee5b88f	0.4486737
66	0xbea7b794	-0.32757246
67	0xbe971905	-0.29511276
68	0xbef47286	-0.47743624
69	0xbedf4586	-0.4360773
70	0x3ecaadc2	0.39585692
71	0x3d182660	0.037145972
72	0xbeca6870	-0.39532804
73	0x3da59dd0	0.08086741
74	0xbee3fdba	-0.44529516
75	0xbe409218	-0.1880573
76	0xbefb6128	-0.49097562
77	0xbed44b78	-0.41463828
78	0x3e7e6948	0.24844849
79	0x3eda2808	0.42608666
80	0x3ef56417	0.47927925
81	0x3ed0d95d	0.40790835
82	0x3e525c1b	0.20542948
83	0xbee8f133	-0.4549652
84	0x3e7d0cc3	0.247119
85	0x3ea6349a	0.32462007
86	0x3d937f9d	0.07202075
87	0x3e76b8e6	0.2409397
88	0xbec8a813	-0.3919073
89	0x3ee09b64	0.43868554
90	0x3e4989b1	0.19681431
91	0x3e8a4835	0.27008215
92	0x3c097240	0.008389056
93	0x3d1e4320	0.038638234
94	0x3b35ee00	0.0027760267
95	0x3ede3ad8	0.4340427
96	0xbe55c2dc	-0.20875114
97	0xbda61e18	-0.08111209
98	0xbe89442e	-0.2680983
99	0xbb600c00	-0.003418684
100	0x3e7a04c0	0.24415874
101	0x3de429ed	0.11140809
102	0xbcf6ab33	-0.030110931
103	0x3ea27c95	0.31735674
104	0x3e7fae9d	0.24968953
105	0xbba93858	-0.0051641874
106	0x3ef5c0cf	0.47998664
107	0xbea68926	-0.3252651
108	0xbecac783	-0.3960534
109	0x3e02f6c8	0.12789452
110	0xbd8dd494	-0.06925312
111	0xbee73c8d	-0.45163384
112	0x3eb0357c	0.34415805
113	0xbde53933	-0.111925505
114	0xbe6db1a8	-0.23212302
115	0xbd53470e	-0.051581435
116	0xbefa8fb6	-0.48937768
117	0x3db3cfe0	0.087798834
118	0xbec92da2	-0.39292628
119	0x3e8bfb3c	0.27340114
120	0xbd9e1f40	-0.07720804
121	0xbd1c5670	-0.03816837
122	0x3ebf9276	0.37416428
123	0x3dec3c00	0.115348816
124	0xbed1e50f	-0.4099507
125	0x3e408786	0.18801698
126	0x3ef9fd2f	0.48825976
127	0xbd3f3c6e	-0.04668849
128	0x3ec20805	0.37896743
129	0xbdb61f0f	-0.08892643
130	0x3eee4fdf	0.46545312
131	0x3efe809f	0.49707505
132	0xbe941cd2	-0.28928238
133	0xbeb5f4fa	-0.35538465
134	0xbcc88ae0	-0.024480283
135	0x3e8473d8	0.25869632
136	0x3e94b189	0.290417
137	0xbebf04a0	-0.37308216
138	0x3ebcefd2	0.36901718
139	0x3eadea51	0.33967832
140	0xbef5f892	-0.48041207
141	0xbefc6ec0	-0.49303246
142	0xbec5a6c4	-0.38603795
143	0x3ead4b88	0.33846688
144	0x3ee9f9e7	0.45698473
145	0xbc4e4669	-0.012590029
146	0x3efb4570	0.49076414
147	0x3de35efd	0.11102102
148	0x3d48e37d	0.049045075
149	0x3e4b0fbb	0.1983022
150	0x3efa4946	0.48884028
151	0x3db6682f	0.0890659
152	0x3ea1d514	0.31607878
153	0xbe366010	-0.17810082
154	0xbed55b11	-0.4167104
155	0xbef0212f	-0.46900317
156	0xbefe386b	-0.49652418
157	0x3ea108e7	0.31452104
158	0xbe6a8d9d	-0.22905584
159	0xbecc599e	-0.39912122
160	0xbda71078	-0.08157438
161	0x3cf1fe60	0.02954024
162	0xbeba3718	-0.36370158
163	0xbe686954	-0.2269643
164	0xbed2fc44	-0.41208088
165	0xbe94372e	-0.2894835
166	0x3c9a1e40	0.018813252
167	0xbed58d6a	-0.41709453
168	0x3e524f3a	0.20538035
169	0x3ed72245	0.42018333
170	0xbe65e946	-0.22452268
171	0x3c96d8b1	0.018413873
172	0xbd5ef330	-0.05443114
173	0xbeba716e	-0.36414665
174	0xbea82b60	-0.32845592
175	0x3e6b7ddc	0.2299723
176	0x3eb0b69f	0.3451433
177	0xbed243b0	-0.41067266
178	0xbe8e8ecf	-0.2784333
179	0xbebf9bbf	-0.37423512
180	0xbd5deb40	-0.05417943
181	0xbe1f0184	-0.15527922
182	0x3ebf705c	0.3739041
183	0xbdcb7f78	-0.09936422
184	0xbee33778	-0.44378257
185	0xbedc2fb8	-0.43005157
186	0x3ef2efc0	0.4744854
187	0x3eb31b86	0.34981936
188	0x3e52a5d6	0.20571074
189	0x3d82d1e6	0.06387691
190	0x3ebb17cc	0.36541593
191	0x3eb9dd3c	0.363016
192	0x3e8a84bc	0.27054393
193	0x3e84500e	0.25842327
194	0xbe3fa77c	-0.18716234
195	0xbc42104f	-0.011844709
196	0x3cf4dea5	0.029891321
197	0x3ebd11d0	0.36927652
198	0x3c34fe5c	0.011046972
199	0xbef261f9	-0.47340372
200	0xbd947a79	-0.07249922
201	0x3e8453bb	0.2584513
202	0xbf106356	-0.56401575
203	0xbec2dfea	-0.38061458
204	0xbe9c3712	-0.30510765
205	0xbea7b146	-0.32752436
206	0x3bce2900	0.0062915087
207	0xbed9ea1e	-0.4256143
208	0xbe57ae39	-0.21062554
209	0xbef8663d	-0.48515502
210	0xbee999a3	-0.45625028
211	0x3ef0a8bf	0.47003743
212	0x3ce6db77	0.02818082
213	0xbee9d163	-0.45667562
214	0x3e99d569	0.30045632
215	0xbde3a164	-0.11114767
216	0xbe23781c	-0.15963787
217	0xbe1f80b4	-0.1557644
218	0xbcf7b3a0	-0.030237019
219	0xbe29ae4c	-0.16570395
220	0x3ea3442d	0.31887951
221	0xbe317f82	-0.17333797
222	0xbe538d77	-0.20659433
223	0xbeeaff24	-0.45897782
224	0x3ed60a97	0.41804954
225	0xbde5b410	-0.11215985
226	0xbebeb3c9	-0.3724654
227	0x3eeb44d2	0.45950943
228	0xbd0cd867	-0.034386065
229	0x3ecd8446	0.4013998
230	0x3d992e70	0.074795604
231	0xbe086ca0	-0.13322687
232	0xbe1e92fc	-0.15485758
233	0xbec7df1a	-0.390374
234	0xbe94901c	-0.29016197
235	0x3db5c0d8	0.08874673
236	0x3db76431	0.08954657
237	0x3db2b9a8	0.08726817
238	0xbee4e25d	-0.4470395
239	0xbed3d872	-0.41376072
240	0xbe902642	-0.28154188
241	0xbea9ddb0	-0.33176947
242	0x3ec5700e	0.38562053
243	0xbe61d2cc	-0.22053069
244	0xbe5690a4	-0.20953614
245	0xbde71050	-0.11282408
246	0xbe77c798	-0.24197233
247	0xbefc70ac	-0.49304712
248	0x3a65a400	0.00087600946
249	0xbe758750	-0.23977399
250	0xbeac892c	-0.33698404
251	0xbe7861cc	-0.24256057
252	0x3ee283c2	0.44241148
253	0xbea3f73d	-0.32024565
254	0x3e5a7c2d	0.21336432
255	0xbdba06f5	-0.09083358

model.0.bias f4 [128]
0	0x3eaa859b	0.33305058
1	0x3e90ff0e	0.2831959
2	0xbec128da	-0.3772648
3	0x3c955f00	0.018233776
4	0xbebde2ac	-0.37087
5	0x3afd14ea	0.0019308601
6	0xbd58b0f0	-0.052903116
7	0xbeabe696	-0.3357436
8	0xbefc1c5f	-0.49240395
9	0xbe8faeaa	-0.28062946
10	0xbda585cc	-0.0808216
11	0x3e1b44f0	0.15163016
12	0x3dcc380a	0.09971626
13	0x3e8387ea	0.25689632
14	0x3e80fb1d	0.25191584
15	0x3dcac9b0	0.0990175
16	0xbe690275	-0.22754844
17	0xbe035bec	-0.12828034
18	0xbee8ec9a	-0.45493013
19	0xbeb12022	-0.34594828
20	0xbea059c1	-0.31318477
21	0x3cc64666	0.02420349
22	0xbdad7010	-0.0846864
23	0xbe8e020c	-0.27735937
24	0xbeefc2e4	-0.46828377
25	0xbe730003	-0.23730473
26	0xbeca1a7c	-0.3947333
27	0x3e8c1bb9	0.273649
28	0x3eb7c229	0.3589032
29	0xbe2b1a88	-0.1670934
30	0xbeaf79c0	-0.34272575
31	0xbdb60d8d	-0.08889303
32	0x3e5e0636	0.21682057
33	0xbd4b0090	-0.049561083
34	0x3ec7ded8	0.39037204
35	0x3e2195b0	0.15779757
36	0x3de3c5e0	0.11121726
37	0x3ed125a6	0.40849036
38	0x3e80e161	0.2517195
39	0x3eb29f21	0.3488703
40	0xbdff79d0	-0.12474406
41	0x3d0f78d0	0.035027325
42	0x3ec0f764	0.37688744
43	0xbe9f02b0	-0.31056738
44	0xbe05005f	-0.12988423
45	0xbeee4954	-0.4654032
46	0xbe5beb2c	-0.2147643
47	0xbe8cefb6	-0.27526635
48	0xbc824db9	-0.015906202
49	0x3da42228	0.08014327
50	0x3e09493b	0.13406841
51	0xbecb40fa	-0.3969801
52	0x3ed80ad0	0.4219575
53	0x3e6e0cdb	0.23247091
54	0xbe80d3da	-0.2516163
55	0xbed77979	-0.42084864
56	0xbd87cf08	-0.06631285
57	0x3d2fd674	0.042929128
58	0x3dbb8dc8	0.09157902
59	0x3e5f3a01	0.2179947
60	0xbeb355fe	-0.35026544
61	0xbe052dd4	-0.13005763
62	0x3a314000	0.0006761551
63	0x3d8262bf	0.063664906
64	0x3e2ceee9	0.16888012
65	0xbd19843a	-0.037479617
66	0xbe9659ec	-0.2936548
67	0xbee81d7e	-0.45335
68	0x3e721eb6	0.23644528
69	0xbd805f89	-0.06268222
70	0xbecf0e78	-0.40440726
71	0xbe364de0	-0.17803144
72	0x3ec0bc7f	0.3764381
73	0xbe591e20	-0.21202898
74	0x3ec45afc	0.38350666
75	0xbe1364c7	-0.14393912
76	0xbe77d134	-0.24200898
77	0x3de8da55	0.113697685
78	0x3dbfbf04	0.09362605
79	0x3eb2459b	0.3481873
80	0xbea81b25	-0.3283321
81	0x3ed5a139	0.41724566
82	0x3ba454a1	0.0050149714
83	0xbe5df337	-0.2167481
84	0x3e1fbb5c	0.15598816
85	0xbe281ef2	-0.16418055
86	0x3ec0f387	0.37685797
87	0xbefff00b	-0.49987826
88	0x3e6f5142	0.23370841
89	0xbe65ec19	-0.22453345
90	0x3d4f234d	0.050570775
91	0xbeaae962	-0.33381182
92	0xbd8fbe60	-0.07018733
93	0xbd39b28b	-0.045336287
94	0x3e277660	0.1635375
95	0xbeb06aca	-0.34456474
96	0x3ea3df6e	0.320064
97	0x3e75a4d3	0.23988657
98	0x3d802351	0.06256736
99	0x3eef73cd	0.46768036
100	0xbe448054	-0.19189578
101	0xbd4a38b0	-0.049370468
102	0x3da9143e	0.08255814
103	0x3ea079f0	0.3134303
104	0xbbac1dbe	-0.005252569
105	0xbebd4e1a	-0.3697365
106	0xbe83d25c	-0.2574643
107	0x3ef9f51e	0.48819822
108	0xbec8582e	-0.39129776
109	0x3e658337	0.22413336
110	0x3e9f9d75	0.31174818
111	0xbd0e5fbc	-0.03475927
112	0xbefef4ee	-0.49796242
113	0x3e05cab9	0.13065614
114	0x3eec0088	0.46094155
115	0xbed5f1fb	-0.4178618
116	0xbefdc697	-0.49565575
117	0xbefe4820	-0.49664402
118	0x3eda73c1	0.42666438
119	0xbd3eb7b5	-0.046561915
120	0xbd2e09ad	-0.042489696
121	0x3eb447bc	0.3521098
122	0xbecb68a4	-0.39728272
123	0xbe4a132f	-0.1973388
124	0xbe34871d	-0.17629667
125	0x3e50ee6a	0.20403448
126	0x3e8a348d	0.26993218
127	0x3af6f893	0.0018842391

model.2.weight f4 [1, 128]
0	0x3c10fe91	0.008849756
1	0xbd4de89b	-0.050270658
2	0x3d78e63a	0.060766436
3	0x3c9e7f6c	0.019347869
4	0x3b35a0e0	0.0027714297
5	0xbc8c1ec5	-0.017104516
6	0xbe567dde	-0.20946452
7	0x3daa91bb	0.08328577
8	0xbd7cb60d	-0.061697055
9	0xbd2de62f	-0.04245585
10	0x3c4cd122	0.012501033
11	0xbd90c866	-0.07069473
12	0x3d7f045d	0.06226002
13	0xbdc07700	-0.093976974
14	0x3d16f194	0.03685148
15	0x3ce3cd54	0.027807869
16	0xbda4e08d	-0.08050642
17	0xbda1ff9a	-0.0791008
18	0x3cfaff30	0.030639261
19	0xbb8e3850	-0.004340209
20	0x3dd5bf7f	0.104369156
21	0xbd899973	-0.06718721
22	0xbdc07962	-0.09398152
23	0x3d929aa1	0.071583994
24	0xbc00a738	-0.007852368
25	0x3c42c37d	0.011887428
26	0x3e30a307	0.1724969
27	0x3d5e8805	0.054328937
28	0xbdc44bbd	-0.095847584
29	0xbd258264	-0.040407553
30	0x3d95e105	0.0731831
31	0xbda77269	-0.08176119
32	0x3d3ff181	0.046861175
33	0xbc855520	-0.016275942
34	0x3d728dd2	0.05921728
35	0xbdafdaa2	-0.08586623
36	0x3caf9e82	0.021437887
37	0x3db9b810	0.0906831
38	0xbe217e0d	-0.15770741
39	0xb844da47	-4.6933328e-05
40	0x3bf9ba40	0.0076210797
41	0xbdac6b47	-0.08418899
42	0xbc980706	-0.018558037
43	0xbd853a17	-0.065052204
44	0xbd8e3e17	-0.069454364
45	0x3d0d8a94	0.034555987
46	0xbdaa271a	-0.08308239
47	0x3e1e63b5	0.15467723
48	0x3d260c3e	0.04053902
49	0xbd1aa51b	-0.037755113
50	0x3e9afd73	0.3027149
51	0x3d6c645e	0.057712905
52	0xbd7122bd	-0.05887102
53	0x3e555f70	0.20837188
54	0xbcbd3c04	-0.023099907
55	0xbe292f3b	-0.16521923
56	0xbde84280	-0.11340809
57	0x3d85c4ac	0.06531653
58	0xbcb11f64	-0.021621414
59	0xbd56e0ee	-0.052460603
60	0x3bf17a70	0.007369332
61	0x3c2a4568	0.010392524
62	0x3d841dbb	0.06450983
63	0x3dbeda8c	0.09319028
64	0xba0e1f6e	-0.00054215535
65	0xbd571fe9	-0.052520666
66	0xbbdd95b0	-0.006762229
67	0x3ca6c224	0.020356245
68	0xbb4ae80f	-0.0030961072
69	0x3d8075fd	0.062725045
70	0x3da0cfcb	0.07852133
71	0xbd9cb0d7	-0.07650917
72	0xbde556d9	-0.111982055
73	0xbdea4e7f	-0.11440753
74	0x3d9de01a	0.077087596
75	0xbb750b66	-0.0037390827
76	0xbc715be8	-0.014731385
77	0x3cfcf5f7	0.030879004
78	0x394d6e70	0.00019591465
79	0xbe1cd8b7	-0.15317045
80	0x3e2c48b7	0.16824614
81	0x3cb53c92	0.022123609
82	0x3e0b61e1	0.13611557
83	0x3c4b5057	0.012409291
84	0xbd7788ec	-0.060433313
85	0x3d9ec06a	0.07751544
86	0xbe7e9309	-0.24860777
87	0x3cf67c9d	0.030088717
88	0x3d512e11	0.051069323
89	0xbb720cca	-0.0036933892
90	0xbd77eb1c	-0.060526952
91	0x3d3cd3de	0.04610049
92	0xbd1a5e2a	-0.037687458
93	0x3e104b01	0.14091112
94	0xbd928f24	-0.07156208
95	0xbc813c50	-0.01577583
96	0x3d5e1d7d	0.05422734
97	0xbcdc268e	-0.026873853
98	0x3c8575b0	0.01629147
99	0xbdb28b3c	-0.08717963
100	0x3cb96a48	0.022633687
101	0xbd920d1f	-0.07131409
102	0xbca956d5	-0.020671288
103	0x3bcab580	0.0061861873
104	0xbdfaeba1	-0.12251974
105	0xbc9ce2b4	-0.01915107
106	0xbd884e11	-0.06655515
107	0x3c3dfad9	0.011595451
108	0xbd85bd6d	-0.06530271
109	0xbd40c332	-0.047061153
110	0x3dec0cd1	0.11525882
111	0x3d4142b9	0.047182772
112	0xbe0954fc	-0.13411325
113	0x3d1b90cb	0.037979882
114	0x3e17587e	0.14779851
115	0xbe052f8c	-0.13006419
116	0xbb8bb867	-0.004263926
117	0x3d785836	0.060631
118	0xbd2a5e1f	-0.041593667
119	0x3e6ead02	0.23308185
120	0x3d9451a0	0.07242131
121	0xbdf94847	-0.12171989
122	0xbd8553f9	-0.06510157
123	0x3d992ca1	0.074792154
124	0xb9fd3fb3	-0.0004830338
125	0xbd6c6893	-0.057716917
126	0x3e02d33d	0.12775894
127	0x3ce6aae8	0.028157666
