neuralq2.pt (torch, 5208 bytes, 3 tensors)

model.0.weight f4 [128, 4]
-0.17349541 -0.37931573 0.23578918 -0.42945516 0.104330495 -0.350037 0.2879055 0.48412797
0.26559153 0.04505181 0.39917725 -0.44966906 0.03522644 0.21222399 -0.48897454 0.010472659
-0.43070817 -0.3789878 -0.066221416 0.18003982 -0.07427439 0.08791353 -0.27683797 -0.041274995
-0.179483 -0.4488194 -0.3663435 0.40600425 -0.06314148 0.06562296 0.42815503 0.47275993
-0.45766854 0.023121322 -0.08877768 -0.3001119 -0.19788659 0.47331214 -0.38896716 -0.4581765
0.039027356 -0.23851117 -0.37907147 0.11429486 -0.3005383 -0.039981723 0.4888851 -0.044184744
-0.4366878 -0.04489328 -0.03159283 -0.275316 -0.16090964 0.50572073 -0.44412288 0.47861782
-0.008785129 0.41529143 -0.14018184 -0.15963024 0.50177604 -0.4418147 -0.475718 -0.21910624
-0.4496332 0.4495433 0.39997607 0.14833242 0.4107469 0.37598968 0.44169605 -0.37216333
-0.33278966 0.14073724 0.06274265 -0.39659512 0.50126255 -0.05487302 -0.23700708 -0.2148534
-0.42061996 0.1923309 -0.294325 -0.18669277 0.052523937 0.49992025 -0.15093592 -0.2829244
-0.4762721 0.28964132 -0.48567423 0.45398057 -0.3354856 -0.059913523 -0.3585223 0.1681959
-0.031324487 -0.41228285 -0.16632171 0.08054177 -0.2953831 0.3749949 -0.15222341 0.052932616
0.19399968 -0.40944496 -0.17212644 -0.101247296 -0.31600532 0.09086728 -0.28771582 0.15041627
0.40801805 -0.48710626 -0.29736423 0.11683319 0.10916796 0.15239742 0.14260033 -0.29449883
0.33793667 0.11735017 -0.25365633 -0.003455479 -0.20155686 -0.11075419 -0.19758624 0.18585223
-0.4952236 0.07324568 -0.13614142 -0.022270974 -0.4177665 -0.015740037 -0.36961305 0.34214717
0.24703926 -0.34754404 0.23983902 0.11261833 0.2935862 -0.26514575 -0.27514696 -0.0723844
0.009651425 -0.44775465 0.08051058 0.43288302 0.4226362 0.24838078 0.08338402 0.40136364
0.21635008 0.066330895 -0.4592472 -0.10556591 0.0008738637 0.08679497 0.38716328 -0.20100123
-0.49948508 -0.29500148 -0.26598954 0.23241374 -0.41864008 0.28286082 -0.25677764 0.10288292
-0.46474415 0.0405444 0.02949665 0.40155262 -0.45014495 -0.2198942 -0.43465587 0.041943915
0.22980438 0.29086155 -0.3381844 0.19310987 -0.29815412 0.39007488 -0.41972667 0.25042647
0.45836744 -0.20728862 -0.026530258 -0.48579535 -0.24260877 -0.2697305 -0.27333617 -0.25036913
-0.05384702 0.3203026 -0.26062402 0.27351698 0.06858337 -0.27016336 -0.4204206 -0.39781094
0.435148 0.022376865 0.011778119 0.08906145 0.11736826 0.052705407 -0.35475582 -0.005026516
-0.124928355 0.12982443 0.29861563 -0.23220521 -0.41390243 -0.11864452 0.16024041 -0.47999933
-0.1269908 -0.11627504 -0.31902638 -0.15299942 0.21246092 -0.21796204 -0.111088514 -0.25541565
0.2787319 -0.14835012 -0.25234702 -0.32383844 -0.27568644 0.26770878 -0.48116744 0.13124037
0.038994957 0.3123016 0.30332205 0.41205883 0.4875589 -0.021390457 -0.20197725 0.36835778
-0.14686848 0.42430088 0.23162939 0.23284794 0.071950085 -0.37995812 0.24648209 -0.32585487
0.25899518 -0.17065458 -0.08952414 0.27876493 -0.15337448 0.36280814 0.35534906 0.26841626
00000000: c8a8 31be ac35 c2be b872 713e 8ce1 dbbe
00000010: 3aab d53d 0d38 b3be 5a68 933e 9fdf f73e
00000020: 9dfb 873e 3f88 383d f660 cc3e 063b e6be
00000030: 9949 103d 3f51 593e df5a fabe 8495 2b3c
00000040: c885 dcbe b00a c2be 189f 87bd 5c5c 383e
00000050: 2c1d 98bd 020c b43d b5bd 8dbe f80f 29bd
00000060: 64ca 37be a8cb e5be 6091 bbbe cadf cf3e
00000070: 5250 81bd 5565 863d 2337 db3e 970d f23e
00000080: 8853 eabe ed68 bd3c 13d1 b5bd 44a8 99be
00000090: c8a2 4abe f855 f23e b426 c7be 1c96 eabe
000000a0: 26db 1f3d 463c 74be a815 c2be 6c13 ea3d
000000b0: 28e0 99be e0c3 23bd 264f fa3e 10fb 34bd
000000c0: 8b95 dfbe 04e2 37bd 7c67 01bd 38f6 8cbe
000000d0: 7fc5 24be ea76 013f 1364 e3be 650d f53e
000000e0: 80ef 0fbc 14a1 d43e d48b 0fbe 1c76 23be
000000f0: 6574 003f 8935 e2be 4f91 f3be 635d 60be
00000100: 5336 e6be 8a2a e63e aac9 cc3e 74e4 173e
00000110: 6b4d d23e b881 c03e fc25 e23e 318c bebe
00000120: 6863 aabe 6c1d 103e 387f 803d 840e cbbe
00000130: be52 003f 88c2 60bd fcb1 72be 8802 5cbe
00000140: 805b d7be 64f2 443e c4b1 96be 642c 3fbe
00000150: 5723 573d 8cf5 ff3e f28e 1abe 78db 90be
00000160: f0d9 f3be de4b 943e 4baa f8be 2470 e83e
00000170: c5c4 abbe e267 75bd 3c90 b7be 8c3b 2c3e
00000180: 1b4e 00bd bd16 d3be 3d50 2abe 15f3 a43d
00000190: 743c 97be 55ff bf3e 74e0 1bbe dfcf 583d
000001a0: daa7 463e c5a2 d1be ea41 30be be5a cfbd
000001b0: 73cb a1be a018 ba3d 7d4f 93be b906 1a3e
000001c0: bee7 d03e fe65 f9be 2040 98be 3d46 ef3d
000001d0: 7493 df3d 120e 1c3e d205 123e 8dc8 96be
000001e0: 0906 ad3e 4955 f03d 3edf 81be 5175 62bb
000001f0: ec64 4ebe 18d3 e2bd 0c54 4abe 0c50 3e3e
00000200: f38d fdbe d501 963d a868 0bbe 9e71 b6bc
00000210: 7ee5 d5be 40f1 80bc ec3d bdbe ea2d af3e
00000220: dcf7 7c3e 4bf1 b1be 5c98 753e 70a4 e63d
00000230: ee50 963e 2fc1 87be 10e0 8cbe 463e 94bd
00000240: 0321 1e3c 1940 e5be bbe2 a43d d8a2 dd3e
00000250: c663 d83e 8857 7e3e 3ec5 aa3d 897f cd3e
00000260: e08a 5d3e 7ed8 873d 7322 ebbe f132 d8bd
00000270: 0014 653a 90c1 b13d 443a c63e 44d3 4dbe
00000280: 82bc ffbe 6f0a 97be c82f 88be defd 6d3e
00000290: fe57 d6be 22d3 903e 5c78 83be 48b4 d23d
000002a0: f2f2 edbe e311 263d f5a2 f13c 4e98 cd3e
000002b0: 6679 e6be f22b 61be 378b debe 62cd 2b3d
000002c0: d751 6b3e ceeb 943e 8126 adbe 98be 453e
000002d0: a8a7 98be e5b7 c73e 6ae6 d6be e637 803e
000002e0: 23af ea3e 7843 54be fc55 d9bc 2bba f8be
000002f0: 6f6e 78be 1e1a 8abe b8f2 8bbe 6230 80be
00000300: b18e 5cbd b4fe a33e 8370 85be 6b0a 8c3e
00000310: 7075 8c3d da52 8abe 5e41 d7be e0ad cbbe
00000320: b8cb de3e b04f b73c 03f9 403c d965 b63d
00000330: c55e f03d a0e1 573d 8ea2 b5be 79b5 a4bb
00000340: 70da ffbd b2f0 043e 26e4 983e 34c7 6dbe
00000350: 05eb d3be e6fb f2bd 1016 243e 79c2 f5be
00000360: e009 02be 9c21 eebd 6d57 a3be e1ab 1cbe
00000370: 5b8f 593e 7131 5fbe 6082 e3bd d7c5 82be
00000380: f3b5 8e3e 18e9 17be a133 81be 27ce a5be
00000390: c626 8dbe 2011 893e 945b f6be e063 063e
000003a0: 2db9 1f3d ffe5 9f3e 074d 9b3e 60f9 d23e
000003b0: 52a1 f93e 0a3b afbc 20d3 4ebe 6499 bc3e
000003c0: b164 16be f73d d93e 4130 6d3e b16f 6e3e
000003d0: 915a 933d df89 c2be cd65 7c3e 73d6 a6be
000003e0: 049b 843e 13c0 2ebe 6f58 b7bd 47ba 8e3e
000003f0: 330e 1dbe fdc1 b93e 50f0 b53e db6d 893e

model.0.bias f4 [128]
-0.25425828 0.24070692 0.48502395 -0.01334848 0.04223895 0.023636421 0.15933913 0.16891725
0.48335722 -0.37821215 0.36991802 -0.36521208 0.38095108 0.469938 -0.3678971 0.03600828
0.10927139 -0.12606879 -0.47368872 -0.21517949 -0.35129148 -0.12858303 -0.017875955 0.12828377
0.46855533 -0.22550374 -0.17455535 -0.11306153 0.39550745 0.34220508 -0.2412536 -0.119778514
0.1744533 -0.07670766 -0.0913279 -0.47839147 0.1933876 0.18458888 -0.10028766 -0.27560925
0.22725675 -0.28819066 -0.023006313 0.492111 -0.24278703 0.4279321 0.13526414 0.36055923
-0.015952235 -0.3345716 -0.43036875 0.11363898 0.17924991 0.45059216 0.27823314 0.05188029
0.13232853 -0.47370958 -0.48254648 0.1556679 0.42957115 -0.09723453 0.14188209 0.49992177
-0.028526902 -0.47207534 0.035568662 -0.3689776 0.097272865 0.45868692 0.5098934 -0.20454402
-0.18730801 -0.3107711 -0.38234723 -0.34780663 0.51107377 0.052548587 -0.19268364 -0.08777869
-0.39023304 -0.003296554 -0.055621263 0.28996345 -0.25735375 -0.21469063 0.44894776 -0.1195642
-0.43697992 0.14755535 0.10853884 0.40381816 -0.46003786 0.36050653 -0.16962129 -0.28572515
0.31231964 0.4277166 -0.38423753 -0.3957215 -0.07244118 -0.29791802 -0.19453055 -0.32656968
0.28250712 -0.42794585 -0.40406686 0.33498874 0.18351692 0.18671274 -0.32167 0.14901155
-0.34370792 -0.14555316 0.012845431 -0.16694759 0.4628314 0.22644502 0.10757207 -0.096425235
-0.21882536 0.09101579 0.17399435 -0.25813895 0.19967383 -0.060045842 -0.44533855 -0.1836578
00000000: 242e 82be e07b 763e 0f55 f83e 95b3 5abc
00000010: c002 2d3d 2ba1 c13c cc29 233e a5f8 2c3e
00000020: 997a f73e 06a5 c1be e565 bd3e 14fd babe
00000030: 050c c33e b79b f03e 025d bcbe 6b7d 133d
00000040: aec9 df3d 2d18 01be 5487 f2be 0358 5cbe
00000050: 7adc b3be 45ab 03be 9870 92bc d25c 033e
00000060: 7ce6 ef3e 74ea 66be a3be 32be ce8c e7bd
00000070: f47f ca3e 8135 af3e 2f0b 77be 704e f5bd
00000080: e3a3 323e e818 9dbd 1f0a bbbd baef f4be
00000090: 6607 463e de04 3d3e 9e63 cdbd a81c 8dbe
000000a0: feb5 683e ba8d 93be bc77 bcbc f9f5 fb3e
000000b0: 2a9d 78be eb19 db3e af82 0a3e 389b b83e
000000c0: 43ae 82bc f84c abbe 4b59 dcbe 8ebb e83d
000000d0: 4a8d 373e 04b4 e63e 9374 8e3e 6d80 543d
000000e0: 2181 073e 108a f2be 5510 f7be 6867 1f3e
000000f0: c0f0 db3e e622 c7bd 8a49 113e bff5 ff3e
00000100: 40b1 e9bc dcb3 f1be 72b0 113d a2ea bcbe
00000110: ff36 c73d 03d9 ea3e 6088 023f fd73 51be
00000120: accd 3fbe 641d 9fbe 04c3 c3be b613 b2be
00000130: bbd5 023f 303d 573d dc4e 45be 50c5 b3bd
00000140: a0cc c7be 000b 58bb 1fd3 63bd 1776 943e
00000150: dfc3 83be dcd7 5bbe 7bdc e53e 13de f4bd
00000160: d5bb dfbe c018 173e 9d49 de3d 41c1 ce3e
00000170: 158a ebbe 5094 b83e 34b1 2dbe 914a 92be
00000180: 5ce8 9f3e acfd da3e c8ba c4be 029c cabe
00000190: 0b5c 94bd b688 98be 0433 47be 2434 a7be
000001a0: c6a4 903e b81b dbbe dae1 cebe a583 ab3e
000001b0: dceb 3b3e a031 3f3e eeb1 a4be 7c96 183e
000001c0: 7cfa afbe e30b 15be a575 523c 4ff4 2abe
000001d0: 3df8 ec3e 34e1 673e bf4e dc3d 987a c5bd
000001e0: c113 60be 7d66 ba3d 932b 323e ca2a 84be
000001f0: 4c77 4c3e a1f2 75bd 6a03 e4be ca10 3cbe

model.2.weight f4 [1, 128]
0.047229268 0.015066533 0.10009488 0.028011534 0.0127274245 -0.053422797 -0.04437845 0.10694135
0.048902214 0.020102262 0.09028728 -0.07165758 0.042429324 0.117372945 0.047053836 0.12091155
0.10558926 0.009757875 0.048497565 0.051157743 0.0021533072 -0.013863418 0.03386065 0.062358912
0.042218555 0.04470378 -0.16960724 -0.08360786 0.17255518 0.06456953 0.054180726 -0.0048441812
-0.001986079 0.038080357 0.060662203 -0.16597998 -0.02495268 0.046633285 0.023982052 -0.02728372
0.05785255 0.08382573 -0.05300457 0.09386697 0.017566524 -0.22959746 0.021672143 -0.054508086
-0.12320123 -0.04733772 -0.03946968 -0.018470366 -0.055555694 -0.0073472387 -0.074351184 0.05975033
-0.029488351 -0.0544483 0.0735491 0.043765064 0.12748313 0.005915376 0.13632956 0.1533474
-0.06974618 -0.26793316 -0.06286644 -0.012406275 0.077172816 0.03146643 0.06383256 0.123311706
0.046348132 -0.0074666217 0.010773085 -0.121587776 0.19956827 -0.06727145 0.08694022 0.03798329
-0.03723282 -0.017991818 0.077694945 0.06116763 -0.18286648 0.022848785 -0.061695017 -0.06664331
-0.14287831 -0.06743939 0.10358257 0.07493208 -0.03255648 0.16101582 -0.07555414 -0.06700651
0.12817425 -0.047007017 -0.037152562 -0.14403664 0.061721772 -0.1724671 0.023416564 -0.009035736
0.13772167 -0.058118872 -0.11286379 -0.048687667 -0.10991692 0.06613954 -0.022813378 0.14353657
0.08250225 -0.03879514 0.09176329 0.03001537 -0.02385212 -0.02509144 -0.052557956 0.008959703
-0.19924404 0.016840974 0.1155901 0.060167424 -0.06769016 0.06697711 -0.06647291 0.094813175
00000000: 7a73 413d 9fd9 763c 8bfe cc3d 7278 e53c
00000010: b086 503c ddd1 5abd 2dc6 35bd 1104 db3d
00000020: b04d 483d 80ad a43c 8ae8 b83d 36c1 92bd
00000030: 5fca 2d3d 3a61 f03d 86bb 403d 7aa0 f73d
00000040: 2f3f d83d 7fdf 1f3c 62a5 463d c88a 513d
00000050: 801e 0d3b 6423 63bc 77b1 0a3d 0f6c 7f3d
00000060: 5ded 2c3d 501b 373d 85ad 2dbe 993a abbd
00000070: 4eb2 303e 083d 843d 9cec 5d3d f0bb 9ebb
00000080: e028 02bb 26fa 1b3d ee78 783d a8f6 29be
00000090: 9069 ccbc 8b02 3f3d 0276 c43c 1c82 dfbc
000000a0: ccf6 6c3d d3ac ab3d 521b 59bd 533d c03d
000000b0: ace7 8f3c 991b 6bbe c789 b13c df43 5fbd
000000c0: ed50 fcbd 32e5 41bd f6aa 21bd 2a4f 97bc
000000d0: 5e8e 63bd 1bc1 f0bb 6f45 98bd c3bc 743d
000000e0: 8e91 f1bc 2e05 5fbd e9a0 963d ff42 333d
000000f0: f08a 023e c5d5 c13b fa99 0b3e 1a07 1d3e
00000100: 16d7 8ebd 892e 89be 1fc0 80bd b043 4bbc
00000110: c80c 9e3d f1e2 003d a5ba 823d d98a fc3d
00000120: 8ad7 3d3d 90aa f4bb 9881 303c 0303 f9bd
00000130: a05b 4c3e 9dc5 89bd b70d b23d 5e94 1b3d
00000140: 7181 18bd 9463 93bc 871e 9f3d e98a 7a3d
00000150: 5a41 3bbe 602d bb3c eab3 7cbd 4a7c 88bd
00000160: b14e 12be aa1d 8abd 1923 d43d fe75 993d
00000170: f259 05bd 55e1 243e 21bc 9abd b63a 89bd
00000180: 1c40 033e 6e8a 40bd 492d 18bd 577e 13be
00000190: f8cf 7c3d 379b 30be 18d4 bf3c a00a 14bc
000001a0: e906 0d3e 0e0e 6ebd 2125 e7bd b86c 47bd
000001b0: 1f1c e1bd 2b74 873d 1fe3 babc 40fb 123e
000001c0: f1f6 a83d a7e7 1ebd 64ee bb3d cbe2 f53c
000001d0: 8565 c3bc 908c cdbc 0347 57bd b8cb 123c
000001e0: a106 4cbe 15f6 893c 81ba ec3d 1e72 763d
000001f0: 23a1 8abd 4c2b 893d f322 88bd 692d c23d
