neuralq6.pt (torch, 5208 bytes, 3 tensors)

model.0.weight f4 [128, 4]
-0.3463385 0.32237136 0.003302157 -0.11349064 0.07516741 -0.33899492 0.10250471 0.34192196
0.16625847 -0.008563119 0.32482567 -0.31824026 0.19146474 0.32632878 -0.33547387 -0.31534147
0.29501975 0.34975243 0.2929865 -0.4191653 -0.22060609 0.10994542 -0.15784657 0.06108111
0.21455461 0.45205352 -0.08404349 0.034640603 0.23994799 0.41372246 0.027311552 -0.22708878
0.09554165 0.3797319 0.3612535 0.32721287 0.11076725 0.5201839 -0.027079735 -0.064728476
0.4191465 0.23203988 0.3404445 0.1963011 -0.29655975 -0.077049084 0.35667786 -0.016294042
0.4010241 -0.17975163 -0.17609029 -0.3753997 -0.38655037 -0.37304503 0.36084312 0.18358284
0.014335402 0.034383707 -0.42041206 0.110846385 0.307658 -0.063967496 -0.35823476 -0.37551805
-0.371813 -0.27614486 0.08418697 0.095603585 -0.49101698 -0.22987723 -0.43238473 -0.026013017
-0.1618931 -0.5353751 0.30789998 0.09963681 -0.20058084 -0.16056144 0.18640888 0.45636708
0.26764083 0.0926448 0.23075348 0.039769325 -0.053674173 -0.0045232414 0.31016928 0.23579301
0.14459197 0.2625352 -0.3547141 -0.24998242 -0.0725404 -0.4338714 -0.47334325 0.12092805
0.017481685 -0.19628656 -0.46653968 0.23076051 -0.059909225 -0.43298 0.014460623 0.3390143
-0.16117655 -0.1961898 -0.3602558 0.36891827 0.13839298 0.49277985 -0.29034027 0.22268948
0.17498887 -0.21952829 0.40699634 0.3044621 -0.00075400504 0.40825367 -0.07981238 0.12159481
0.32554767 -0.6034502 -0.54449254 -0.31662464 -0.07528949 0.03718412 0.07524288 0.21940017
0.058548428 -0.6664132 -0.29047403 0.37357998 -0.24804062 -0.33376825 0.46580476 -0.2204026
-0.21568578 -0.2383002 0.37141994 0.23707548 0.27044678 -0.66048735 0.23270154 -0.06639716
-0.44435734 -0.19259775 -0.40770638 -0.494425 0.119272165 0.6520305 0.5585934 -0.47337788
-0.42348665 0.34444785 -0.26167685 0.016309679 -0.4898194 0.20145738 -0.22593296 -0.4987563
0.2135896 0.19869462 -0.44671354 0.019577397 -0.34969646 -0.43052298 -0.23891878 0.34798175
0.09393473 -0.050985288 0.012418703 0.3505724 -0.1875332 -0.3918081 -0.14680457 0.18520224
0.31132624 0.00802183 -0.05411224 -0.4943448 -0.48954508 0.39135674 -0.45617032 0.14726949
-0.1615963 -0.22301829 0.04837638 -0.3495422 0.237952 0.3878669 0.25723544 0.11218596
-0.40090662 0.4992591 -0.42174006 -0.035742104 -0.037015665 0.086792886 -0.18608534 -0.20658909
0.16919725 -0.5007657 0.16092734 -0.22623092 -0.15275851 0.29862407 0.47358146 -0.47529
-0.39512113 0.23363094 0.30936465 -0.26360145 0.28693432 0.34569603 -0.33396783 0.21363188
0.054100037 0.22392988 -0.12601775 0.05923468 -0.13383341 0.29795498 0.46891147 0.05813384
0.4263446 0.16630721 -0.37543154 0.37459946 0.05918425 -0.020471422 0.15602385 -0.4902089
-0.037045956 -0.26820874 -0.45074767 0.08239335 0.43944964 -0.032241885 0.20398143 -0.4162019
0.19522357 0.4665361 -0.4342694 0.42139268 -0.4325816 0.09940076 -0.20423156 -0.18749666
-0.21423912 -0.42017388 0.03441876 0.16898108 -0.49421734 -0.4686596 0.34804177 -0.468812
00000000: 4853 b1be dc0d a53e 0069 583b c86d e8bd
00000010: 5ff1 993d be90 adbe fded d13d 6510 af3e
00000020: a93f 2a3e 534c 0cbc 8d4f a63e 63f0 a2be
00000030: 550f 443e 9114 a73e 3bc3 abbe 7074 a1be
00000040: d40c 973e c012 b33e 5402 963e d69c d6be
00000050: 90e6 61be 102b e13d 88a2 21be 3030 7a3d
00000060: 34b4 5b3e 8f73 e73e fe1e acbd 4ee3 0d3d
00000070: edb4 753e 6ed3 d33e 7abc df3c f689 68be
00000080: 57ab c33d 386c c23e 38f6 b83e 7288 a73e
00000090: f1d9 e23d c62a 053f 52d6 ddbc 5d90 84bd
000000a0: 5f9a d63e dd9b 6d3e be4e ae3e 2803 493e
000000b0: aed6 97be e9cb 9dbd 7b9e b63e 157b 85bc
000000c0: 0853 cd3e d010 38be 0351 34be 6434 c0be
000000d0: eee9 c5be c2ff bebe 6ec0 b83e 24fd 3b3e
000000e0: 09df 6a3c eed5 0c3d 4040 d7be 6e03 e33d
000000f0: 5985 9d3e 6401 83bd 8c6a b7be e743 c0be
00000100: 465e bebe dc62 8dbe 386a ac3d d0cb c33d
00000110: 9466 fbbe f064 6bbe 8861 ddbe 4019 d5bc
00000120: 4ec7 25be 580e 09bf 11a5 9d3e 620e cc3d
00000130: 1065 4dbe 386a 24be f8e1 3e3e f2a8 e93e
00000140: 3808 893e 8fbc bd3d a44a 6c3e 29e5 223d
00000150: 73d9 5bbd b337 94bb 82ce 9e3e b973 713e
00000160: eb0f 143e 046b 863e 169d b5be 64fb 7fbe
00000170: 1090 94bd 6424 debe 0c5a f2be 20a9 f73d
00000180: c035 8f3c 58ff 48be 4ade eebe 7c4c 6c3e
00000190: 6063 75bd 8eaf ddbe 40ec 6c3c 4893 ad3e
000001a0: 770b 25be fbe5 48be 7373 b8be dbe2 bc3e
000001b0: e4b6 0d3e a44d fc3e 7ba7 94be b608 643e
000001c0: 4830 333e 06cc 60be d361 d03e 75e2 9b3e
000001d0: 6ca8 45ba a006 d13e ac74 a3bd b306 f93d
000001e0: 2fae a63e b67b 1abf dd63 0bbf a01c a2be
000001f0: 6031 9abd 604e 183d f018 9a3d 70aa 603e
00000200: 7ad0 6f3d 0e9a 2abf 03b9 94be e045 bf3e
00000210: 5cfe 7dbe ace3 aabe f67d ee3e 38b1 61be
00000220: bcdc 5cbe f804 74be c12a be3e eac3 723e
00000230: 0078 8a3e b315 29bf 5049 6e3e 3cfb 87bd
00000240: ce82 e3be 5838 45be e4be d0be 4625 fdbe
00000250: f744 f43d 79eb 263f faff 0e3f 965e f2be
00000260: 3ed3 d8be 785b b03e 82fa 85be e09b 853c
00000270: 9cc9 fabe d84a 4e3e f85a 67be fc5c ffbe
00000280: 3bb7 5a3e 9a76 4b3e a3b7 e4be c760 a03c
00000290: 6a0b b3be 826d dcbe 20a7 74be aa2a b23e
000002a0: da60 c03d f3d5 50bd d177 4b3c 3a7e b33e
000002b0: b408 40be 129b c8be f053 16be a8a5 3d3e
000002c0: 2766 9f3e fe6d 033c cca4 5dbd c31a fdbe
000002d0: a7a5 fabe e95f c83e 288f e9be d0cd 163e
000002e0: 8079 25be e85e 64be 5026 463d 32f7 b2be
000002f0: b0a9 733e 7e96 c63e 5db4 833e c1c1 e53d
00000300: a243 cdbe e49e ff3e 50ee d7be 5066 12bd
00000310: bd9d 17bd 78c0 b13d 288d 3ebe 178c 53be
00000320: 0b42 2d3e 2e32 00bf 23ca 243e 14a9 67be
00000330: ba6c 1cbe 41e5 983e 4579 f23e 3659 f3be
00000340: 514d cabe f33c 6f3e 0b65 9e3e c5f6 86be
00000350: 0ee9 923e 12ff b03e d5fd aabe 51c2 5a3e
00000360: 0098 5d3d e04d 653e cc0a 01be 10a0 723d
00000370: a00b 09be 8e8d 983e 2a15 f03e c01d 6e3d
00000380: d749 da3e 704c 2a3e 9038 c0be 80cb bf3e
00000390: 2f6b 723d afb3 a7bc b7c4 1f3e a9fc fabe
000003a0: 80bd 17bd a852 89be 66c8 e6be d8bd a83d
000003b0: 8bff e03e 1110 04bd 82e0 503e 6a18 d5be
000003c0: b0e8 473e d2dd ee3e 8f58 debe c8c0 d73e
000003d0: 567b ddbe a092 cb3d 1422 51be 20ff 3fbe
000003e0: 8061 5bbe 0821 d7be b0fa 0c3d 6009 2d3e
000003f0: 0e0a fdbe 27f4 efbe 8832 b23e 2008 f0be

model.0.bias f4 [128]
-0.3127572 0.4543065 0.29316592 -0.16643564 0.30521125 -0.18319231 0.3268361 -0.9756447
0.4488787 0.34990507 -0.13800327 0.1748599 0.49295896 0.0017613769 0.31933895 0.3842583
-0.13143551 -0.35339236 0.85624033 -0.12764555 0.050006576 0.42538372 -0.6518978 -0.11060995
-0.2894606 0.11820459 0.18262443 -0.30674934 -0.13351941 -0.21714097 -0.30518165 -0.13401628
0.19408141 -0.1014756 0.27059072 -0.19746608 -0.1625526 -0.8108725 -0.44375348 -0.31339133
-0.40870667 -0.26317316 0.07560036 0.019246936 -0.803983 0.12263782 0.0059131384 -0.46242455
-0.4702003 0.2565389 -0.049760036 0.07172827 0.3402607 -0.12250961 -0.48207724 -0.33907038
-0.123971336 0.4379726 -0.36174613 -0.055607777 0.16545694 -0.42484206 -0.05554253 0.42373732
0.4160029 0.40384063 -0.21115792 0.35390475 0.026787058 -0.18116814 -0.48207766 -0.9395022
0.39036462 -0.0456592 0.35620198 -0.040878676 -0.48126295 0.8279958 -0.12162387 0.21061456
0.24514532 -0.8089849 0.5088248 0.20923917 -0.13743496 -0.118594944 0.010097461 -0.27289885
0.27995443 -0.246171 0.11977577 0.4118525 -0.10892173 0.35264316 -0.48398188 0.32165182
0.12284235 -0.48753655 -0.73333853 -0.43756247 0.48076922 -0.035456043 0.47222623 -0.4764945
-0.1473363 0.08888199 0.11796687 -0.13316604 0.44778842 -0.20353447 0.20459755 -0.40627182
-0.12096531 0.45651037 -0.15181613 -0.39803648 0.063381225 0.11994065 -0.2200805 -0.28481147
-0.37936187 -0.22209246 -0.21029039 -0.17001969 0.73603374 0.4681015 0.091280855 0.4519212
00000000: b621 a0be dd9a e83e d819 963e 1b6e 2abe
00000010: a644 9c3e c496 3bbe 1057 a73e dac3 79bf
00000020: 6ed3 e53e c226 b33e bb50 0dbe 790e 333e
00000030: 1e65 fc3e 00de e63a 6580 a33e 81bd c43e
00000040: 0897 06be d8ef b4be 9132 5b3f 84b5 02be
00000050: b2d3 4c3d e5cb d93e c6e2 26bf 7887 e2bd
00000060: 2e34 94be 4015 f23d e601 3b3e 400e 9dbe
00000070: 50b9 08be 345a 5ebe c540 9cbe 903b 09be
00000080: 47bd 463e 70d2 cfbd de8a 8a3e 8c34 4abe
00000090: 3074 26be 5795 4fbf a833 e3be d474 a0be
000000a0: 0042 d1be a2be 86be 5dd4 9a3d c0ab 9d3c
000000b0: d4d1 4dbf 8a29 fb3d 00c3 c13b e9c2 ecbe
000000c0: 18be f0be 1159 833e 2ed1 4bbd 45e6 923d
000000d0: a736 ae3e 52e6 fabd d4d2 f6be a29a adbe
000000e0: afe4 fdbd f23d e03e ca36 b9be fbc4 63bd
000000f0: 8b6d 293e e684 d9be 9080 63bd 19f4 d83e
00000100: 55fe d43e 33c4 ce3e c839 58be 0133 b53e
00000110: 8870 db3c 2484 39be e2d2 f6be 3783 70bf
00000120: dfdd c73e 2405 3bbd 1b60 b63e 6670 27bd
00000130: 1968 f6be 88f7 533f f015 f9bd 58ab 573e
00000140: 6007 7b3e a219 4fbf 5842 023f cb42 563e
00000150: c0bb 0cbe e8e1 f2bd d26f 253c 66b9 8bbe
00000160: 3056 8f3e 4014 7cbe 004d f53d 55de d23e
00000170: 5b12 dfbd a58d b43e 79cc f7be 8caf a43e
00000180: c594 fb3d 649e f9be 13bc 3bbf 3008 e0be
00000190: 6227 f63e 5b3a 11bd a3c7 f13e 16f7 f3be
000001a0: 54df 16be c307 b63d 9d98 f13d ae5c 08be
000001b0: 8644 e53e 576b 50be 0582 513e dc02 d0be
000001c0: a9bc f7bd babb e93e b075 1bbe 70cb cbbe
000001d0: 04ce 813d 72a3 f53d c85c 61be cfd2 91be
000001e0: b83b c2be 356c 63be 5d56 57be a419 2ebe
000001f0: b56c 3c3f 00ab ef3e 75f1 ba3d 3762 e73e

model.2.weight f4 [1, 128]
-0.08530345 -0.19348396 -0.088075556 0.1783161 0.09146804 0.03837829 0.2090656 0.95962584
0.13888568 0.13738945 0.054558743 0.022567267 -0.1445628 0.042146616 -0.010667777 -0.082555555
0.0549298 -0.05264663 0.83108556 0.046304815 -0.026107334 -0.08643242 0.5993268 -0.061292715
-0.08149697 -0.05690007 0.012207089 0.20865436 -0.08212814 0.25657406 -0.436114 0.08608227
-0.6135531 0.039446957 -0.045925997 -0.4237769 -0.03329718 1.0510911 0.08747465 0.021321245
0.09555832 -0.046324696 -0.056824557 0.014243096 0.6521681 -0.1115579 -0.013874836 0.24718565
-0.022855185 -0.031021573 -0.3071443 -0.15893522 -0.10251253 0.18844776 -0.0865934 -0.06472527
0.114590324 -0.0774542 0.03930836 -0.10638854 0.13765565 -0.06721334 0.014130712 0.0037174008
0.07941053 0.07868972 0.06889432 -0.059312116 0.15569489 0.06281594 0.0113857165 0.6576998
0.06720615 0.06883878 -0.12834077 0.07177418 0.05073472 0.77329165 -0.034130156 -0.07815645
0.28713486 0.83481836 0.10400413 0.11775676 0.06374768 -0.07996994 -0.8845527 -0.47406262
-0.008172919 -0.06306487 -0.37498534 -0.17719871 -0.28659672 -0.07559929 0.1709014 -0.11714873
-0.08184688 0.02027981 0.5865732 0.018807031 -0.16523467 -0.15279388 -0.1259959 -0.026018828
-0.0036366582 -0.054610133 0.084598295 -0.5136981 0.066047125 0.23294012 -0.102043994 -0.49327686
0.09329279 -0.15013121 0.05356299 -0.027634412 -0.7718543 -0.081302844 -0.050663333 -0.013683477
0.021199517 0.25529233 0.01915878 -0.08029022 0.67917836 0.07589614 -0.22120723 -0.030851515
00000000: 93b3 aebd a920 46be f560 b4bd 7f98 363e
00000010: 9953 bb3d 8e32 1d3d 4b15 563e 0aaa 753f
00000020: 0c38 0e3e d2af 0c3e fd78 5f3d fdde b83c
00000030: 4508 14be eea1 2c3d e6c7 2ebc e312 a9bd
00000040: 12fe 603d fea3 57bd 06c2 543f 1eaa 3d3d
00000050: 0cdf d5bc 7b03 b1bd 7b6d 193f 120e 7bbd
00000060: e2e7 a6bd 0c10 69bd 3e00 483c 7da9 553e
00000070: cc32 a8bd ad5d 833e 564a dfbe e74b b03d
00000080: d111 1dbf 2293 213d e61c 3cbd 49f9 d8be
00000090: a062 08bd 278a 863f e925 b33d e4a9 ae3c
000000a0: 15b4 c33d f7be 3dbd dec0 68bd e05b 693c
000000b0: 7df4 263f 7878 e4bd 4853 63bc 3c1e 7d3e
000000c0: cc3a bbbc f420 febc 0542 9dbe eabf 22be
000000d0: 17f2 d1bd 73f8 403e e157 b1bd af8e 84bd
000000e0: 55ae ea3d 4fa0 9ebd ce01 213d 3ce2 d9bd
000000f0: 9af5 0c3e 26a7 89bd 8084 673c a39f 733b
00000100: fda1 a23d 1328 a13d 7718 8d3d 43f1 72bd
00000110: 7b6e 1f3e a5a5 803d 288b 3a3c 045f 283f
00000120: 61a3 893d 59fb 8c3d c36b 03be 57fe 923d
00000130: 36cf 4f3d 71f6 453f 10cc 0bbd 7d10 a0bd
00000140: 5703 933e a8b6 553f 1e00 d53d 752a f13d
00000150: 258e 823d 48c7 a3bd 0c72 62bf 56b8 f2be
00000160: b5e7 05bc 2828 81bd 14fe bfbe 9473 35be
00000170: cebc 92be cdd3 9abd c700 2f3e aceb efbd
00000180: 569f a7bd d821 a63c a929 163f 3411 9a3c
00000190: 4733 29be 0076 1cbe 1205 01be 7025 d5bc
000001a0: 0055 6ebb e0ae 5fbd df41 ad3d b881 03bf
000001b0: b743 873d db87 6e3e 71fc d0bd c98e fcbe
000001c0: 4a10 bf3d ffbb 19be de64 5b3d 9061 e2bc
000001d0: 3e98 45bf 1b82 a6bd 5b84 4fbd aa30 60bc
000001e0: 9caa ad3c adb5 823e e0f2 9c3c 336f a4bd
000001f0: a2de 2d3f 6f6f 9b3d 2684 62be 51bc fcbc
