neuralq7.pt (torch, 5208 bytes, 3 tensors)

model.0.weight f4 [128, 4]
0	0x3e727e95	0.236811
1	0xbee8040e	-0.45315593
2	0x3dd43781	0.10362149
3	0x3ecf4d27	0.4048855
4	0xbcb82f4d	-0.022483492
5	0x3e577ff4	0.21044904
6	0x3e78de99	0.24303664
7	0x3eeceba9	0.46273544
8	0xbe61a914	-0.22037154
9	0xbe9b64f4	-0.3035046
10	0xbe6d0a88	-0.23148549
11	0xbe6fd120	-0.23419619
12	0xbc562b04	-0.013071779
13	0xbeb40d50	-0.35166407
14	0xbee25637	-0.44206402
15	0x3eebb167	0.46033785
16	0xbea980bc	-0.3310603
17	0xbd505350	-0.050860703
18	0x3dfc5dc8	0.12322575
19	0x3db959c0	0.090503216
20	0xbe8f874e	-0.28032917
21	0x3e39aae4	0.18131596
22	0x3dc1dfd0	0.09466517
23	0x3ed1c9e8	0.40974355
24	0x3d145062	0.03620947
25	0xbe8a7c1f	-0.27047822
26	0xbe920cfa	-0.28525525
27	0xbe425f2c	-0.18981618
28	0x3e342862	0.1759353
29	0x3ed83088	0.42224526
30	0xbe0584da	-0.1303896
31	0xbedb7442	-0.42862135
32	0x3cd63916	0.026150268
33	0x3e5c084a	0.21487537
34	0xbdfc3ec8	-0.12316662
35	0x3effc0e8	0.49951863
36	0xbea2b0d4	-0.31775534
37	0xbeb8cb08	-0.360924
38	0x3e633b1c	0.22190517
39	0x3ee453ba	0.44595128
40	0x3eeaab7b	0.45833954
41	0xbe1326cf	-0.14370273
42	0xbe83ecd9	-0.25766638
43	0x3e7c3fed	0.24633761
44	0x3e96d9f5	0.29463163
45	0x3de64ce5	0.11245135
46	0x3e00b86d	0.12570353
47	0x3e11405a	0.14184704
48	0xbdcf2d20	-0.10116029
49	0x3ebd75e3	0.37004003
50	0xbd8061da	-0.06268664
51	0x3e36f522	0.17866948
52	0xbbad939c	-0.0052971374
53	0x3e52ef5a	0.20599118
54	0xbddb60ee	-0.10711847
55	0xbb34fb0d	-0.0027615458
56	0xbc434872	-0.011919128
57	0xbea856d3	-0.32878742
58	0xbe58645d	-0.21132036
59	0x3e160b5b	0.1465277
60	0xbed1553c	-0.4088534
61	0xbd0ba80f	-0.03409582
62	0xbdfaa4f4	-0.122384936
63	0x3ec6399b	0.38715824
64	0x3d3cfe3f	0.046140905
65	0x3cf7a693	0.030230796
66	0xbeafbeca	-0.34325248
67	0x3edc7dde	0.4306478
68	0xbedef4b8	-0.4354608
69	0xbeaeec22	-0.3416453
70	0x3e303024	0.17205864
71	0xbcf50980	-0.029911757
72	0xbec05570	-0.37565184
73	0x3e9d8c1b	0.30770954
74	0xbed0ab41	-0.40755656
75	0xbe9cd2a2	-0.3062945
76	0xbe5ad400	-0.21369934
77	0xbefca708	-0.49346185
78	0x3e9e7462	0.30948168
79	0xbedcac0a	-0.43100005
80	0xbeb67aee	-0.35640663
81	0xbe74e780	-0.23916435
82	0x3ead9a42	0.33906752
83	0x3eac34fe	0.3363418
84	0x3d32f906	0.04369452
85	0xbebb58ac	-0.3659109
86	0xbcfd89d9	-0.03094952
87	0xbd4fe16c	-0.05075209
88	0xbdb6435f	-0.08899569
89	0x3eaf5fa9	0.3425267
90	0x3e05fa5d	0.13083787
91	0xbe7339bf	-0.23752497
92	0xbe936b28	-0.2879269
93	0xbe92c2e4	-0.28664315
94	0x3e6fec2c	0.23429936
95	0xbed58920	-0.4170618
96	0x3e998af8	0.29988837
97	0x3e354aa6	0.17704257
98	0x3d89af01	0.067228325
99	0xbe75e181	-0.24011804
100	0xbe271564	-0.16316754
101	0x3e90167e	0.2814216
102	0xbe4f0170	-0.20215392
103	0xbd801588	-0.06254107
104	0xbd9f4630	-0.07777059
105	0xbdb087b8	-0.08619636
106	0x3e5f88a8	0.21829474
107	0xbe2f7b20	-0.17136812
108	0xbcb49ea0	-0.022048295
109	0xbe97f870	-0.2968173
110	0xbda1ada0	-0.078944445
111	0x3e6c4e0c	0.23076648
112	0xbdbc0d74	-0.091822535
113	0x3e143d93	0.14476614
114	0xbe257e05	-0.16161354
115	0xbe619871	-0.22030808
116	0x3e9d899d	0.30769053
117	0xbe8c78ff	-0.27436063
118	0x3ddf9c51	0.10918487
119	0xbe644aad	-0.22294112
120	0xbdc9f310	-0.098608136
121	0xbe06a3d8	-0.13148439
122	0xbe4c6524	-0.19960457
123	0x3ec42d82	0.3831597
124	0x3eb5d0b8	0.35510802
125	0x3efb25fa	0.4905241
126	0xbe9d705c	-0.30749786
127	0xbe98b9bc	-0.29829204
128	0xbefd565a	-0.49479944
129	0xbdf4b918	-0.11949366
130	0x3d7c4840	0.06159234
131	0x3e8ddc06	0.27706927
132	0x3ed0e102	0.40796667
133	0xbea7e02e	-0.32788223
134	0x3ef682bc	0.48146617
135	0x3c4f1fa2	0.012641819
136	0xbed1380a	-0.40863067
137	0xbe78c648	-0.24294388
138	0x3edcbfea	0.4311517
139	0x3e82dcfe	0.2555923
140	0xbe7ac4f8	-0.244892
141	0xbe250c48	-0.16117966
142	0xbed08590	-0.407269
143	0xbdb13eb0	-0.08654535
144	0xbe2bbf11	-0.16772105
145	0xbedd81ae	-0.43263
146	0xbe5934f4	-0.21211606
147	0x3d830bc5	0.06398729
148	0x3e2cd5da	0.16878453
149	0x3ee5c981	0.44880298
150	0xbe4e0546	-0.20119199
151	0xbef9d71a	-0.48796922
152	0xbe926778	-0.28594565
153	0xbde543c0	-0.11194563
154	0xbe6e8724	-0.2329374
155	0x3ea0b644	0.31389058
156	0x3ec24d8a	0.37949783
157	0xbee4f5a2	-0.44718653
158	0xbda0df82	-0.07855131
159	0x3e13f993	0.14450674
160	0x3e832f4d	0.25622025
161	0xbe35ad33	-0.17741852
162	0x3de49780	0.11161709
163	0xbeab706e	-0.33484215
164	0xbcefb5c0	-0.02926147
165	0x3e2f37b0	0.17111087
166	0xbebcca28	-0.36872983
167	0xbe27d7e8	-0.16390955
168	0x3d4b1310	0.049578726
169	0x3eaff97b	0.34370026
170	0xbeca20c8	-0.39478135
171	0x3e5b0b1b	0.21390955
172	0x3ed8a424	0.4231273
173	0xbe39e7af	-0.18154787
174	0xbe2617ba	-0.16219988
175	0xbdbefacb	-0.09325179
176	0xbd06dea0	-0.032927155
177	0xbe585514	-0.21126205
178	0xbdb8ebf0	-0.090293765
179	0x3ea8d5da	0.32975656
180	0x3de56218	0.112003505
181	0x3ed1311a	0.40857774
182	0x3ed16fd4	0.4090563
183	0x3ebd4a85	0.36970916
184	0x3c9f8153	0.019470846
185	0xbe344271	-0.1760347
186	0x3de6fe3e	0.112789616
187	0x3e895554	0.26822913
188	0xbe31eaa5	-0.17374666
189	0xbea17619	-0.31535414
190	0xbd8c277d	-0.06843469
191	0x3e9f30bf	0.31091878
192	0x3d4a3671	0.049368326
193	0x3de31f5b	0.11089965
194	0xbecbc3bc	-0.3979777
195	0xbdaa36df	-0.08311247
196	0xbe6cc469	-0.231218
197	0xbddb37db	-0.10704013
198	0xbec73503	-0.38907632
199	0xbe344258	-0.17603433
200	0xbe586524	-0.21132332
201	0xbef79aca	-0.48360282
202	0xbd8e8320	-0.06958604
203	0xbdefbbb8	-0.117057264
204	0xbede6526	-0.43436545
205	0xbe94306a	-0.28943187
206	0xbedf38cc	-0.4359802
207	0x3ee377a8	0.44427228
208	0xbec538d3	-0.38519916
209	0xbe8e3f12	-0.27782494
210	0x3d8c7159	0.06857557
211	0xbe78102d	-0.2422492
212	0x3ecc5770	0.3991046
213	0x3ebbcd02	0.36679846
214	0x3eece44f	0.46267936
215	0x3e97bef7	0.29637882
216	0xbecb789e	-0.3974046
217	0x3ecf7a3c	0.40522945
218	0xbc934120	-0.01797539
219	0xbe006924	-0.12540108
220	0x3e1fae04	0.15593725
221	0x3e506e3b	0.2035455
222	0x3d794c31	0.060863677
223	0xbbb3aa39	-0.0054829386
224	0x3ea80376	0.3281514
225	0xbedc8ac0	-0.43074608
226	0xbd8ef214	-0.069797665
227	0xbe739692	-0.23787907
228	0x3de4eeba	0.11178346
229	0xbf0798c0	-0.52967453
230	0xbda94dcd	-0.082667924
231	0xbe4be677	-0.19912134
232	0xbe4e8fb0	-0.20172
233	0xbeb720a6	-0.35767096
234	0x3e27b358	0.16377008
235	0xbc151f40	-0.009101689
236	0x3eb03ee3	0.3442298
237	0x3e82bb4c	0.2553352
238	0xbee27939	-0.4423311
239	0xbe8ab52b	-0.27091345
240	0x3c821e16	0.015883487
241	0xbeb3d93c	-0.35126674
242	0x3efbfb57	0.49215195
243	0x3ece15c9	0.40250996
244	0xbe2dbc74	-0.1696642
245	0xbde0f398	-0.10983962
246	0xbea4ac12	-0.3216253
247	0xbe980256	-0.29689282
248	0x3d187fd0	0.037231266
249	0xbe5110e8	-0.20416605
250	0xbefe60b4	-0.49683154
251	0x3ebead5a	0.37241632
252	0xbed83882	-0.42230612
253	0x3ebcb583	0.36857232
254	0xbec52b41	-0.38509563
255	0x3dd0ebdb	0.10201236

model.0.bias f4 [128]
0	0xbdf3bade	-0.119008765
1	0x3d527ab4	0.05138655
2	0x3de0fea8	0.10986072
3	0x3ec16d6c	0.37778795
4	0xbe9776e0	-0.29582882
5	0xbed5a5b6	-0.4172799
6	0x3ec8cc0e	0.3921818
7	0x3ebf4520	0.37357426
8	0x3eaa2770	0.33233213
9	0x39c64800	0.00037819147
10	0xbef4b8d6	-0.4779727
11	0x3eccc043	0.39990434
12	0x3e38a144	0.18030268
13	0x3c98cfa6	0.018653702
14	0x3ef81c65	0.48459163
15	0x3ebf31e2	0.37342745
16	0x3e1660a1	0.14685299
17	0xbd0ca970	-0.034341276
18	0x3e27d723	0.16390662
19	0x3e580c28	0.21098387
20	0xbdd3fc08	-0.103508055
21	0x3e952891	0.29132512
22	0x3e386f80	0.18011284
23	0xbd02ce40	-0.031934977
24	0x3dfc19a0	0.12309575
25	0xbebe1ab6	-0.37129754
26	0xbed959f2	-0.42451435
27	0xbd29c2a0	-0.041445374
28	0x3ecf0135	0.40430608
29	0x3e98ae8a	0.29820663
30	0xbd83b1d0	-0.064303994
31	0xbda1793b	-0.07884451
32	0xbe7d6df8	-0.24748981
33	0xbe99e3e7	-0.30056688
34	0xbe8fb372	-0.28066593
35	0xbeb4fd26	-0.35349387
36	0x3ef47fb3	0.47753677
37	0x3ee201f0	0.44142103
38	0xbab39400	-0.0013700724
39	0xbeb0096a	-0.34382182
40	0xbef580c8	-0.47949815
41	0xbee8d35c	-0.45473754
42	0x3e7f246d	0.24916239
43	0xbea1041e	-0.31448454
44	0x3d6dfc60	0.05810201
45	0xbe49d6cd	-0.19710846
46	0x3ef4617f	0.47730634
47	0x3ebbe500	0.3669815
48	0xbcad7b49	-0.021176951
49	0x3eee847e	0.4658546
50	0xbe7f9ae4	-0.2496143
51	0xbed91a82	-0.42403036
52	0x3ea5709f	0.32312486
53	0x3ec32e1a	0.3812111
54	0xbef652d0	-0.48110056
55	0x3cbadc2b	0.022810062
56	0x3e33de03	0.1756516
57	0xbde16ae8	-0.11006719
58	0xbe2bedb0	-0.1678989
59	0xbed6fceb	-0.41989836
60	0x3eff6c60	0.4988737
61	0xbecdec3c	-0.40219295
62	0xbeaa1a9c	-0.33223426
63	0x3c3b1cd4	0.011420447
64	0xbd20fdd7	-0.03930458
65	0xbe0beac8	-0.1366378
66	0x3ee66a04	0.45002759
67	0x3ec7cde6	0.39024276
68	0x3ea4fca4	0.32224
69	0xbdf6ac48	-0.12044579
70	0xbe964112	-0.2934652
71	0xbe925120	-0.28577518
72	0xbdaa7e16	-0.0832483
73	0xbe598e10	-0.21245599
74	0xbe8ef19a	-0.27918702
75	0xbe9121a5	-0.2834598
76	0xbc9654c4	-0.018350966
77	0x3e71338c	0.2355482
78	0xbef0493e	-0.4693088
79	0xbe043458	-0.12910593
80	0x3e6f9925	0.23398264
81	0x3d8de7a0	0.069289446
82	0x3edcbb0d	0.43111458
83	0x3ecaa475	0.39578596
84	0xbe4e846c	-0.20167702
85	0xbeb82939	-0.3596895
86	0x3c965437	0.018350704
87	0x3e5c4e23	0.21514182
88	0x3ec4f800	0.3847046
89	0xbe2edb15	-0.1707576
90	0x3ec62a8d	0.3870434
91	0x3ea7f879	0.32806757
92	0xbee55730	-0.4479308
93	0x3d4fe152	0.05075199
94	0xbed2859e	-0.41117567
95	0x3d118746	0.035529397
96	0xbe073a3c	-0.13205808
97	0x3e7a6bf5	0.24455245
98	0xbe4eb808	-0.2018739
99	0xbd1cc829	-0.038276825
100	0x3dd65629	0.104656525
101	0x3e55dd1a	0.20885125
102	0xbeb26aae	-0.34847015
103	0x3e0d1aa0	0.13779688
104	0xbec707b2	-0.3887306
105	0x3dfc172e	0.12309109
106	0x3e2aa89f	0.16665886
107	0x3d9eeb3d	0.07759712
108	0x3e056e5c	0.1303038
109	0xbe004c2c	-0.12529057
110	0x3e517c5b	0.20457594
111	0x3e24c0e5	0.16089208
112	0x3eda9850	0.4269433
113	0xbd9f0e96	-0.07766454
114	0x3f0970d9	0.53687817
115	0xbe951077	-0.29114124
116	0x3e78ed70	0.24309325
117	0x3ec15fc1	0.37768367
118	0x3e853af7	0.2602155
119	0xbe9fb505	-0.31192794
120	0x3d767af0	0.060175836
121	0xbe5f91f0	-0.21833014
122	0xbd544d8c	-0.051831767
123	0xbe31af88	-0.17352116
124	0x3ea811db	0.32826123
125	0x3e8500ef	0.25977275
126	0x3e99d3be	0.3004436
127	0x3e264aae	0.16239426

model.2.weight f4 [1, 128]
0	0xbcd67b20	-0.026181757
1	0x3d0869a5	0.033303875
2	0x3d9d0db9	0.07668633
3	0x3c8c0a19	0.017094659
4	0xbc84a4c4	-0.016191848
5	0x3c23c3f8	0.009995453
6	0x3afca4d8	0.0019275201
7	0xbda56638	-0.08076137
8	0xbd8757a0	-0.0660851
9	0x3cab8dd4	0.020941652
10	0x3c93f3f8	0.01806067
11	0x3d893ae6	0.06700687
12	0x3e23b634	0.15987474
13	0xbd9391a1	-0.07205511
14	0xbd8d4958	-0.06898755
15	0x3d1d0631	0.038335983
16	0x3c529135	0.012852003
17	0xbd517831	-0.051140014
18	0x3cce6c73	0.025198197
19	0x3d979b91	0.07402719
20	0x3db055bd	0.08610103
21	0x3d7c1c0c	0.061550185
22	0x3e37487b	0.17898743
23	0xbd8861ba	-0.06659265
24	0xbd1fe94a	-0.03904084
25	0xbdb3b199	-0.087741084
26	0x3d04a4b2	0.03238363
27	0xbd28209e	-0.04104673
28	0xbdb22cb2	-0.08699931
29	0xbcbb6bd9	-0.022878574
30	0x3d934de7	0.07192593
31	0xbd22c510	-0.039738715
32	0xbba86fe0	-0.0051402897
33	0xbc015e53	-0.007896024
34	0x3cfc5dec	0.030806504
35	0xbdad6bcb	-0.084678255
36	0x3cebfbf9	0.028806673
37	0xbcb2ac3c	-0.021810643
38	0x3d21a486	0.039463542
39	0x3dac61df	0.08417105
40	0x3ce4fa6e	0.027951445
41	0x3daad901	0.083421715
42	0x3d1be3cc	0.03805904
43	0xbd65749b	-0.056019407
44	0xbd838001	-0.06420899
45	0x3c4ce627	0.0125060445
46	0x3d70da2e	0.058801822
47	0xbd622403	-0.055210125
48	0x3d93e1cc	0.07220802
49	0xbd3d63a6	-0.04623761
50	0x38e38800	0.000108495355
51	0xbd098f1f	-0.033583757
52	0x3d2f77f5	0.04283901
53	0xbd8f2ed3	-0.06991353
54	0x3d0bce62	0.03413237
55	0xbc47e908	-0.012201555
56	0x3db89f35	0.09014741
57	0x3e8adf2b	0.2712339
58	0x3d22e356	0.039767586
59	0x3d61c1de	0.055116527
60	0xbbe58579	-0.0070044366
61	0xbbef30b0	-0.007299505
62	0xbda9cb2e	-0.082907066
63	0xbbc360e4	-0.005962478
64	0x3d29e438	0.041477412
65	0x3d1b40b6	0.03790351
66	0xbd0ca262	-0.034334548
67	0x3d890f12	0.066923276
68	0xbb24ef89	-0.0025167188
69	0x3c510598	0.012757681
70	0xbd6d8e0e	-0.057996802
71	0xbd9d6d57	-0.076868705
72	0xbc1a2249	-0.009407588
73	0xbd862c16	-0.065513775
74	0xbd82dbb5	-0.06389562
75	0xbdc35ed2	-0.0953957
76	0x3d82694d	0.06367741
77	0x3cf0498f	0.02933195
78	0x3d7dbf42	0.061949976
79	0xbd8a783f	-0.06761216
80	0x3db9dc47	0.09075218
81	0xbd13e936	-0.03611108
82	0xbcdebe02	-0.027190212
83	0xbcc6fb8d	-0.02428987
84	0x3d426e86	0.047468685
85	0xbc8b7611	-0.017024072
86	0x3d888ff5	0.066680826
87	0xbcb8a00e	-0.022537258
88	0xbc705539	-0.014668756
89	0xbdabcf89	-0.083891936
90	0x3e0c71be	0.13715264
91	0x3d503545	0.05083205
92	0xbdaa59b7	-0.08317893
93	0x3caa3391	0.020776542
94	0xbdc119b0	-0.094287276
95	0x3d865446	0.06559043
96	0x3daffaa9	0.085927315
97	0x3da732a1	0.081639536
98	0xbd1c85f3	-0.03821368
99	0xbd544fa8	-0.05183378
100	0xbd98e3c1	-0.074653156
101	0xbd993d07	-0.07482343
102	0x3cb03400	0.02150917
103	0xbb422380	-0.002962321
104	0x3ea82b62	0.32845598
105	0xbceb5e9e	-0.02873164
106	0xbd631809	-0.055442844
107	0x3ceece73	0.029151177
108	0xbc7e8fd5	-0.015537222
109	0xbbd99abe	-0.006640761
110	0x3d0bd6a9	0.034140263
111	0x3d30550b	0.043049853
112	0xbd553d69	-0.05206052
113	0x3d5e5862	0.054283507
114	0xbe37b443	-0.17939858
115	0x3ef9ee37	0.48814556
116	0x3ce9eeaa	0.028556187
117	0xbd44071a	-0.047858335
118	0x3a899218	0.001049581
119	0x3c1cc81a	0.009569192
120	0xbd443158	-0.04789862
121	0xbd825345	-0.06363539
122	0x3e31b5f4	0.17354566
123	0xbb89d871	-0.00420671
124	0xbd8040e4	-0.06262377
125	0x3d2aac1a	0.041668035
126	0xbd019cb4	-0.031643584
127	0x3cb4e33d	0.022081012
