neuralq5.pt (torch, 5208 bytes, 3 tensors)

model.0.weight f4 [128, 4]
0	0xbef74977	-0.48298237
1	0xbd07884f	-0.03308898
2	0x3ce91925	0.028454373
3	0x3e36ac9b	0.17839281
4	0xbe8f03a2	-0.2793246
5	0xbee015d8	-0.43766665
6	0x3ed3b65c	0.41350067
7	0xbef61cf2	-0.4806896
8	0x3da81bfb	0.08208462
9	0x3efe274d	0.4963936
10	0xbef7c5ff	-0.48393247
11	0xbebfb641	-0.37443736
12	0x3e8a5d26	0.27024192
13	0x3dfcf920	0.12352204
14	0xbe8992b2	-0.26869732
15	0x3e8ecba2	0.27889735
16	0xbeb0c2c2	-0.34523588
17	0x3e8b522e	0.27211136
18	0x3d0d7136	0.034531794
19	0xbcf6ee93	-0.030143058
20	0xbdb95189	-0.09048755
21	0xbd4bbfa0	-0.049743295
22	0x3e6b47a1	0.22976543
23	0x3ed9cc30	0.42538595
24	0xbefd8536	-0.49515694
25	0xbedc9a38	-0.4308641
26	0xbeb5d27e	-0.35512155
27	0xbeb9b328	-0.36269498
28	0x3e3c12cc	0.18366545
29	0x3e64c7a2	0.22341779
30	0x3e32553a	0.17415324
31	0x3e21c207	0.15796672
32	0xbe02cc24	-0.12773186
33	0x3e2945e0	0.16530561
34	0x3e97acc8	0.2962401
35	0x3e8a3f1e	0.2700128
36	0xbe465cfc	-0.19371408
37	0xbec01ff2	-0.37524372
38	0x3ee092d6	0.43862027
39	0x3dacfd50	0.08446753
40	0xbe001b12	-0.12510327
41	0x3e4bea5c	0.1991362
42	0xbeae496f	-0.340404
43	0x3eecf6fb	0.4628218
44	0xbe82dda0	-0.2555971
45	0xbc0d3e40	-0.008620799
46	0xbce65340	-0.028115869
47	0xbe2e3b28	-0.17014754
48	0x3eccfecd	0.40038148
49	0x3eaa40a4	0.33252442
50	0xbe11d720	-0.1424222
51	0x3dfde83e	0.12397812
52	0x3ee0d767	0.4391434
53	0xbdf0b242	-0.1175275
54	0xbd3f8e1e	-0.046766393
55	0x3ed591fd	0.41712943
56	0xbda9d035	-0.082916655
57	0xbec9c30d	-0.39406624
58	0x3ddb037f	0.10694026
59	0x3ec9f27f	0.39442822
60	0xbd728320	-0.05920708
61	0xbec9ba48	-0.39399934
62	0xbd456d10	-0.048199713
63	0xbec6ede0	-0.3885336
64	0xbeda7e2e	-0.42674392
65	0xbea2b940	-0.3178196
66	0xbd7a4f20	-0.061110616
67	0x3e29394c	0.16525763
68	0xbe9e5f6c	-0.30932176
69	0xbeb6c967	-0.35700533
70	0x3cb7c42c	0.02243241
71	0xbef3a5c6	-0.47587413
72	0xbeac3e04	-0.33641064
73	0x3e96e7c0	0.29473686
74	0x3de912d8	0.11380547
75	0xbea21e3c	-0.31663692
76	0x3e98c86e	0.29840416
77	0x3e7153ce	0.23567125
78	0x3e13c78a	0.14431587
79	0xbeceb40b	-0.40371737
80	0x3df0549d	0.11734889
81	0x3e026e99	0.12737502
82	0x3e109ce9	0.14122356
83	0xbe1f58f2	-0.15561274
84	0xbea8ca2b	-0.32966742
85	0x3e08e22f	0.13367532
86	0x3e9b39f3	0.3031765
87	0xbddf644a	-0.109078005
88	0x3ef037d4	0.46917593
89	0xbe693b94	-0.22776634
90	0x3ea3ab2a	0.31966525
91	0x3e370b42	0.17875388
92	0xbe03808e	-0.12842008
93	0x3e985c2e	0.29757828
94	0xbd9a6d3f	-0.07540368
95	0x3ef06251	0.4695001
96	0x3efb4dee	0.49082893
97	0xbecd5ce3	-0.4010993
98	0xbd7fcadc	-0.06244932
99	0x3eaf1de5	0.34202495
100	0x3e68c7a9	0.22732414
101	0xbebd6718	-0.36992717
102	0x3dc78105	0.097414054
103	0x3eccfb04	0.4003526
104	0xbe9887cb	-0.29791102
105	0x3ece1936	0.4025361
106	0x3e2e858d	0.17043133
107	0xbdf1041b	-0.11768361
108	0x3d70c29b	0.05877934
109	0x3ec202b4	0.37892687
110	0xbe4996d4	-0.19686443
111	0x3e55e416	0.20887789
112	0xbeee063a	-0.46489125
113	0x3e8e2e1e	0.2776956
114	0xbe993f66	-0.29931182
115	0xbdfd7158	-0.12375134
116	0x3edb444e	0.4282555
117	0xbe2ee5d8	-0.17079866
118	0xbe9636ae	-0.29338592
119	0x3ee1ea25	0.4412395
120	0x3eb42f4e	0.3519234
121	0xbe8ded12	-0.27719933
122	0x3efd3a4b	0.49458537
123	0x3e97c530	0.2964263
124	0x3b2bed00	0.0026233792
125	0x3e3152d4	0.17316753
126	0xbcab88a0	-0.020939171
127	0x3e74dc14	0.23912078
128	0x3eecfce8	0.46286702
129	0xbe126641	-0.1429682
130	0x3ee7f0e1	0.45300964
131	0xbe05e752	-0.13076523
132	0xbb61792b	-0.0034404497
133	0xbe8e74d9	-0.27823523
134	0xbec20625	-0.37895313
135	0x3ee92ff9	0.45544413
136	0x3d3034ee	0.043019228
137	0x3e4920af	0.19641374
138	0x3ee6d266	0.45082396
139	0xbecfe6e7	-0.40605852
140	0x3ec1bfa6	0.3784153
141	0x3ee85068	0.45373845
142	0xbe5a9886	-0.21347246
143	0xbdf7b1e7	-0.12094479
144	0xbdb81ba1	-0.08989645
145	0xbe568a63	-0.20951228
146	0x3f09ecc0	0.53876877
147	0x3ef0243f	0.46902654
148	0xbee54590	-0.44779634
149	0xbefcf4ee	-0.49405617
150	0xbe3bd53c	-0.18343061
151	0x3edbbf30	0.42919302
152	0xbea2e3ee	-0.31814522
153	0xbedc3eaa	-0.4301656
154	0xbe192904	-0.14957052
155	0x3e94bc7c	0.29050052
156	0xbe955128	-0.2916348
157	0x3e754953	0.23953752
158	0xbd5c32a4	-0.053759232
159	0x3e4a02a0	0.19727564
160	0xbe005a2c	-0.12534398
161	0xbebc61ca	-0.36793357
162	0xbd283c10	-0.041072905
163	0x3ef7323c	0.48280513
164	0x3e846437	0.25857708
165	0x3eca1a02	0.39472967
166	0xbeaf77dc	-0.34271133
167	0xbefdfb27	-0.49605677
168	0x3efdeecc	0.4959625
169	0x3df8e99e	0.12153934
170	0xbe5d905b	-0.21637098
171	0xbec8d84f	-0.3922753
172	0xbe21a4e0	-0.15785551
173	0xbe59ca88	-0.21268666
174	0x3e9c2510	0.30497026
175	0x3c340d40	0.010989487
176	0xbeb92f44	-0.36168873
177	0xbee93fa6	-0.45556372
178	0x3ecd7c24	0.40133774
179	0xbebd96b4	-0.3702904
180	0x3d60e0c9	0.05490187
181	0xbe7946f9	-0.2434348
182	0x3efa405c	0.48877227
183	0xbef9af39	-0.48766497
184	0xbe0b1454	-0.13581973
185	0xbeed7b5e	-0.46383184
186	0x3d1cded0	0.038298428
187	0xbead2ef2	-0.3382488
188	0x3e2086b8	0.15676391
189	0xbea8529a	-0.3287552
190	0x3d06df72	0.032927938
191	0xbeff1033	-0.49817047
192	0xbe02b4d3	-0.12764291
193	0x3e9c5d94	0.30540144
194	0xbd136b63	-0.035991084
195	0xbd38ad98	-0.045087427
196	0xbd3fdf80	-0.046844006
197	0xbeeac58e	-0.45853847
198	0xbe20f6b0	-0.15719104
199	0xbe08d700	-0.13363266
200	0xbe0227eb	-0.1271054
201	0xbebb5c3c	-0.36593807
202	0x3cfcaf52	0.030845318
203	0x3edc1cf6	0.42990845
204	0xbe33e9f8	-0.17569721
205	0xbef74304	-0.48293316
206	0x3ec5c4ae	0.38626617
207	0x3e93295e	0.28742498
208	0x3ef42187	0.4768183
209	0x3ebbbb5c	0.3666638
210	0x3efceb75	0.4939839
211	0x3e3d52d8	0.18488634
212	0x3d06f0bd	0.03294443
213	0xbe9d7674	-0.30754435
214	0x3eba9ce3	0.3644782
215	0xbe62d694	-0.22152168
216	0x3dd3844b	0.10327967
217	0x3e51d697	0.20492016
218	0x3e85e538	0.26151443
219	0xbe9c6fd9	-0.30554083
220	0x3eb91cde	0.36154836
221	0xbebdf4f1	-0.37100938
222	0xbde96602	-0.113964096
223	0xbed20fbd	-0.41027632
224	0x3e5b5d8d	0.21422406
225	0x3eb56d6d	0.35435048
226	0xbe1f0a79	-0.15531339
227	0xbeb03830	-0.34417868
228	0xbef8b785	-0.48577514
229	0x3edba433	0.42898712
230	0xbef34a0c	-0.4751743
231	0x3eddc374	0.4331318
232	0xbd95fa96	-0.07323186
233	0x3e1c185d	0.15243669
234	0x3e52131d	0.20515104
235	0xbea2cc55	-0.31796518
236	0x3eda532e	0.42641586
237	0x3d795f4c	0.060881898
238	0x3e2ca5bd	0.16860099
239	0xbe099682	-0.1343632
240	0x3e7ee417	0.24891697
241	0x3e8dbea0	0.27684498
242	0xbee86826	-0.4539196
243	0x3e05f6aa	0.13082376
244	0x3e9461e2	0.2898093
245	0x3db0bccb	0.086297594
246	0x3ecc9306	0.3995592
247	0xbe3de500	-0.18544388
248	0xbed93983	-0.4242669
249	0x3ed12bd3	0.40853748
250	0xbd7b0469	-0.061283503
251	0x3e53719b	0.20648806
252	0x3ec1131a	0.37709886
253	0x3e8b9c11	0.27267507
254	0x3ed10010	0.4082036
255	0xbe0fd5ec	-0.14046448

model.0.bias f4 [128]
0	0x3e1a1831	0.15048291
1	0xbe811668	-0.25212407
2	0xbe7360a2	-0.23767331
3	0x3e9cefcc	0.306517
4	0xbd7b4dd5	-0.061353523
5	0x3eeb96ab	0.46013388
6	0xbd212330	-0.039340198
7	0x3dbaa214	0.09112945
8	0xbe35a2d8	-0.17737901
9	0x3e3430c8	0.17596734
10	0x3e2a8b93	0.16654806
11	0xbed2018c	-0.41016805
12	0x3ecfbc02	0.40573126
13	0xbeee818f	-0.4658322
14	0x3ef20656	0.4727046
15	0x3e6aafc8	0.22918618
16	0xbc4974c0	-0.012295902
17	0x3e90171c	0.2814263
18	0xbeccb0b6	-0.3997857
19	0xbec84608	-0.3911593
20	0xbdd3e055	-0.10345522
21	0x3e4ada96	0.19809946
22	0x3d1a0037	0.03759786
23	0xbdd6c7ab	-0.104873024
24	0xbefe8b4c	-0.4971565
25	0xbeb647fd	-0.35601798
26	0xbdaca480	-0.084298134
27	0x3e813558	0.2523601
28	0xbeb746aa	-0.357961
29	0xbe1cf5d8	-0.15328157
30	0xbea36767	-0.31914827
31	0xbe3ce224	-0.18445641
32	0x3eacc9bb	0.33747658
33	0x3eaf8cfd	0.34287253
34	0x3e651ece	0.22375032
35	0xbedec522	-0.43509775
36	0x3eb30237	0.34962627
37	0xbd04b1e0	-0.032396197
38	0x3e3b6d48	0.18303406
39	0x3e3bbdd4	0.18334132
40	0x3d2b98a0	0.0418936
41	0x3e1ef502	0.1552315
42	0xbe74174f	-0.23837017
43	0xbdf23d48	-0.11828095
44	0x3e83fd02	0.25778967
45	0x3bb580ef	0.0055390517
46	0xbe1f5b84	-0.15562254
47	0xbecdb26d	-0.4017519
48	0x3e120608	0.14260113
49	0xbeca6378	-0.39529014
50	0x3e51760f	0.20455192
51	0x3e4834fc	0.19551462
52	0x3edf77c4	0.4364606
53	0x3ded1953	0.11577096
54	0xbd5b6f14	-0.05357273
55	0xbe05b464	-0.13057095
56	0xbeeba2d6	-0.4602267
57	0xbddcb664	-0.10776976
58	0x3edc080d	0.42974892
59	0x3e4fecf9	0.20305242
60	0xbde58621	-0.11207224
61	0xbe77d916	-0.24203905
62	0xbe63f19e	-0.22260138
63	0xbefb9c1d	-0.49142542
64	0xbe95c948	-0.29255128
65	0x3d824dcc	0.06362495
66	0x3eff5635	0.49870458
67	0x3e2f7d63	0.17137675
68	0x3ee371e1	0.4442282
69	0xbaac31c1	-0.0013137386
70	0xbec5af8e	-0.386105
71	0x3ee0bccb	0.43894038
72	0x3e191068	0.14947665
73	0xbeadccb2	-0.33945233
74	0xbef5a8c8	-0.47980332
75	0xbd94d862	-0.07267834
76	0x3d398740	0.045295
77	0x3ee9cc25	0.45663562
78	0xbdd97da4	-0.10619667
79	0x3e6fcb1b	0.23417322
80	0xbe1e8c3c	-0.15483183
81	0x3e1cc01b	0.15307657
82	0xbda53a92	-0.08067812
83	0x3c147086	0.009060031
84	0xbe5887a0	-0.21145487
85	0xbd28ee44	-0.041242853
86	0x3ec503e5	0.38479534
87	0xbef3e0c8	-0.47632432
88	0x3ebad56f	0.36490962
89	0xbe4df6d9	-0.20113696
90	0x3ed2211d	0.41040888
91	0xbef2ed66	-0.47446746
92	0x3e53a367	0.20667802
93	0x3e100c68	0.14067233
94	0xbe27e499	-0.16395797
95	0x3ed0b247	0.40761015
96	0x3d52e366	0.051486395
97	0x3eba3d35	0.36374822
98	0xbdddfd7c	-0.10839364
99	0x3ea3d5ad	0.3199896
100	0x3e59f4d7	0.21284805
101	0x3d109e55	0.035307247
102	0x3e9515c0	0.29118156
103	0x3e402340	0.18763447
104	0xbe5bb7bf	-0.21456812
105	0x3d18e97b	0.03733204
106	0xbec9bb7a	-0.39400846
107	0x3ed8046e	0.4219088
108	0xbedbeb1a	-0.42952806
109	0xbecfb19f	-0.40565202
110	0xbef72766	-0.48272246
111	0xbeb327be	-0.34991258
112	0xbd9645d5	-0.07337538
113	0x3efd2903	0.49445352
114	0xbd1e4701	-0.038641933
115	0x3ed1d5be	0.40983385
116	0xbd576c00	-0.05259323
117	0x3e1e3d9a	0.15453187
118	0x3e12b7d4	0.14327937
119	0xbe041c60	-0.12901449
120	0xbe71636d	-0.23573084
121	0xbba6fd00	-0.005096078
122	0xbedfe180	-0.4372673
123	0xbef5f5c4	-0.48039067
124	0x3e7169fe	0.23575589
125	0x3e9ec9fe	0.31013483
126	0x3e1c4e0c	0.15264148
127	0xbdebe5ef	-0.11518466

model.2.weight f4 [1, 128]
0	0x3d8eb457	0.06967991
1	0x3cf4f498	0.029901788
2	0xbd8b19ef	-0.06792056
3	0x3cd4b163	0.02596349
4	0xbce24550	-0.027620941
5	0x3d17297d	0.0369048
6	0xbbf95680	-0.0076091886
7	0x3d8f13f8	0.069862306
8	0x3d0b50d2	0.034012623
9	0x3d9ecef9	0.07754321
10	0x3e2afa2e	0.16696998
11	0x3d5d827a	0.05407951
12	0xbc4fb3b6	-0.012677124
13	0xbd9cafeb	-0.07650741
14	0xbe319c6a	-0.17344823
15	0xbd8dbfc1	-0.0692134
16	0xbda78f09	-0.08181579
17	0x3d8a95d0	0.06766856
18	0x3ccda3b4	0.025102474
19	0xbc4de831	-0.012567566
20	0xbbcab0a0	-0.006185606
21	0xbbe36557	-0.006939571
22	0xbd7f57e6	-0.062339686
23	0xbd04e9b4	-0.03244944
24	0xbcacbb4d	-0.021085406
25	0x3dea5b53	0.114432
26	0xbd115d9a	-0.035489656
27	0xbbcf667f	-0.006329357
28	0x3ce0a98c	0.027424596
29	0x3d8e0f2d	0.06936488
30	0x3dac4f90	0.08413613
31	0x3d0a7176	0.03379961
32	0xbcc532a7	-0.024072004
33	0xbd1da272	-0.038484998
34	0xbbfd5adb	-0.007731778
35	0x3c9a446a	0.01883145
36	0xbe9ef282	-0.31044394
37	0x3d27b91e	0.040948026
38	0x3d293546	0.04131057
39	0x3c934e4a	0.017981667
40	0x3b926630	0.004467748
41	0xbcb43bab	-0.022001108
42	0x3d00f3c0	0.031482458
43	0x3d71230e	0.05887132
44	0x3d34a3d2	0.044101544
45	0x3ec1fb1d	0.37886897
46	0x3d31a992	0.043374605
47	0x3e0c950e	0.13728735
48	0x3dfaaa6d	0.122395374
49	0x3d0cde0a	0.03439144
50	0xbca4ba7b	-0.020108452
51	0x3c442760	0.011972278
52	0x3c2e713b	0.010647113
53	0x3e15ab07	0.14616023
54	0xbcbedbaa	-0.023298103
55	0x3cad38f0	0.021145314
56	0x3c2ec7c5	0.010667746
57	0xbdd23237	-0.10263484
58	0x3d97a88e	0.07405196
59	0x3ced05d8	0.02893345
60	0xbdd36d50	-0.10323584
61	0xbd6a54b0	-0.05720967
62	0x3c13fc56	0.00903233
63	0xbd92b816	-0.07164018
64	0x3cc80cbc	0.024420135
65	0xbd26c7a1	-0.040717725
66	0x3cb4d00b	0.022071859
67	0xbd874e72	-0.06606759
68	0x3ce9842a	0.028505404
69	0xbd118b17	-0.035533037
70	0xbd86c5e5	-0.06580714
71	0xbdbc5533	-0.09195938
72	0x3da66e4d	0.08126507
73	0xbd838560	-0.06421924
74	0xbd0038fb	-0.03130434
75	0x3d146684	0.03623058
76	0x3da08d77	0.07839482
77	0xbd384b8b	-0.04499392
78	0xbd101f43	-0.035186063
79	0x3da87273	0.082249545
80	0xbda856ac	-0.08219656
81	0xbcacde1a	-0.021102
82	0x3d89db33	0.06731262
83	0x3c98a311	0.018632444
84	0xbd8713f8	-0.065956056
85	0x3c9aa517	0.01887755
86	0x3d6a57dd	0.0572127
87	0x3d8e0df1	0.06936253
88	0xbd3a9398	-0.045550913
89	0xbd48edb0	-0.0490548
90	0xbcce660f	-0.02519515
91	0x3da923b1	0.08258761
92	0xbd0fb37d	-0.035083283
93	0x3dc31fec	0.09527573
94	0xbdbc2f70	-0.091887355
95	0xbc87f6fe	-0.016597267
96	0x3c32c4f3	0.010911214
97	0x3d9d8eb7	0.07693236
98	0x3d26cc1b	0.040721994
99	0xbccc6470	-0.024950236
100	0xbe5b958e	-0.2144377
101	0xbc810dfb	-0.015753737
102	0xbcb098a6	-0.021557163
103	0x3db5b289	0.088719435
104	0x3e732d43	0.23747735
105	0xbe3934ba	-0.1808652
106	0xbd3f1a36	-0.046655856
107	0xbd5c851a	-0.053837873
108	0xbd670eee	-0.056410722
109	0xbbeecc1e	-0.0072875163
110	0x3cdee4e9	0.027208762
111	0x3cc4586c	0.023967944
112	0x3dc2267f	0.09479999
113	0x3d39101b	0.045181375
114	0xbd12deb5	-0.03585692
115	0x3d3d397a	0.046197392
116	0xbdd0117b	-0.10159584
117	0xbda81027	-0.08206206
118	0x3cce5ff4	0.025192238
119	0xbd0f6b04	-0.035014167
120	0xbcaa754d	-0.020807886
121	0x3db3a14f	0.087710015
122	0x3d1215c0	0.035665274
123	0xbd353f21	-0.044249658
124	0xbcf2aa92	-0.02962235
125	0x3db4fc39	0.0883717
126	0xbc516267	-0.012779809
127	0xbd1db83a	-0.03850577
