neuralq1.pt (torch, 5208 bytes, 3 tensors)

model.0.weight f4 [128, 4]
0.00092835724 0.017521301 0.26622275 -0.38993427 -0.11827944 -0.4546872 -0.15440542 -0.24321732
0.30672225 -0.39865285 -0.17515747 0.4605928 -0.122228205 0.16676286 0.23261613 -0.029345682
-0.35945773 0.29964957 0.114269115 -0.2363327 0.04336529 0.14342916 -0.37371075 -0.39693195
0.40127173 -0.14691338 -0.35432392 0.26218474 -0.32389754 0.1794334 -0.19126534 0.2527554
-0.15236306 -0.27480888 -0.18017548 0.033787847 -0.1750347 -0.12356043 0.21769041 -0.19600767
0.21245308 -0.3472531 -0.12279624 -0.1395059 0.2501447 -0.035643846 0.23109859 0.34067252
0.12313275 0.3347415 -0.0074766385 -0.47361416 -0.009009838 0.086787224 -0.0023512244 -0.0001128912
-0.47822005 0.36775586 0.31285164 0.44760558 0.25445104 -0.41647598 -0.2873889 0.4370693
-0.027667195 0.27917674 -0.27279454 0.30478635 -0.23017758 0.024882495 -0.3182767 0.2770623
-0.49405846 0.4340245 -0.4744047 0.29498324 0.014418059 -0.010910112 -0.013561555 -0.19507079
-0.098830104 0.4048298 -0.16850054 -0.36122656 0.09566186 -0.27191812 0.22067906 -0.31511706
0.35829014 0.39527696 0.18233201 0.27325252 0.45167008 -0.106749386 0.35831434 0.30679503
0.28543052 0.122074366 0.13201366 0.3927868 -0.09920408 -0.17624746 0.08319899 0.3799031
0.41281962 0.113370806 -0.06818581 0.021763325 -0.40678674 0.2688952 -0.33453375 -0.14718342
0.2541562 0.22534305 -0.4191774 0.020270884 0.26268825 -0.16725297 -0.49974346 -0.03317372
0.3284942 0.3790061 0.04947185 -0.3382023 -0.2229768 -0.4924063 -0.45812124 0.39621454
0.25055075 0.1831478 -0.018674351 0.31900868 0.06844324 -0.33255467 0.46209106 -0.059111062
0.13229041 0.1977291 0.17877632 0.3506805 0.36078757 -0.28934017 -0.024571272 0.12730838
0.16323571 -0.11233217 0.25786644 -0.32893512 0.013616443 -0.23926258 0.10900718 0.21497422
0.2497636 -0.08592552 -0.08867336 0.2652639 0.4569089 -0.3375308 0.1634213 -0.02030611
0.17888881 0.2384248 -0.15787767 -0.2098809 -0.27688566 0.33844507 0.18441734 0.30602935
-0.43027067 0.3943916 -0.1380851 -0.14320898 -0.10746932 0.38485527 0.32187194 -0.22903728
-0.18378909 0.077778645 0.12496088 0.48207387 0.42068383 0.19273481 0.22726707 0.2629809
0.1979401 0.4095485 -0.5087802 0.33696902 -0.38566944 -0.13450535 0.41535273 -0.37697336
0.14628741 0.07038314 -0.3273195 -0.12587163 0.45430169 -0.20869757 0.47178325 0.45687553
0.4798198 -0.16658397 -0.25846073 -0.39328638 -0.4692345 0.10767331 -0.25626436 0.33313814
0.22991122 -0.09233064 -0.25786144 0.18238658 -0.47489098 0.07489329 0.09798362 0.2866965
-0.44530916 0.18664506 0.055895973 0.4208312 0.1242698 0.34488 0.11386565 -0.49071845
0.15799046 0.5002972 0.28076193 -0.047835685 -0.49270242 -0.37165928 -0.4883392 0.26223695
-0.095040955 0.38792804 0.29188 -0.41756758 0.40722406 -0.10019055 0.32443598 -0.36152518
-0.14390878 0.073367044 -0.15170416 -0.3328754 -0.4271955 0.47413447 -0.037737988 -0.24375184
0.15130301 0.27406847 0.19982263 -0.05567165 0.469323 -0.06986214 0.063641325 -0.45167875
00000000: 005d 733a d588 8f3c 594e 883e 77a5 c7be
00000010: 7e3c f2bd c3cc e8be 741c 1ebe f60d 79be
00000020: b30a 9d3e 3a1c ccbe 7b5c 33be d2d2 eb3e
00000030: c852 fabd e2c3 2a3e ec32 6e3e 5b66 f0bc
00000040: d80a b8be ab6b 993e ed05 ea3d 3301 72be
00000050: cd9f 313d 18df 123e 0457 bfbe aa3a cbbe
00000060: 7d73 cd3e 7670 16be f269 b5be 143d 863e
00000070: e6d5 a5be 64bd 373e 10db 43be 2869 813e
00000080: 1005 1cbe c0b3 8cbe ec7f 38be 2065 0a3d
00000090: 4c3c 33be 400d fdbd 3cea 5e3e 3cb6 48be
000000a0: 4d8d 593e 29cb b1be 987c fbbd a2da 0ebe
000000b0: f712 803e 48ff 11bd 1ca5 6c3e a16c ae3e
000000c0: 062d fc3d 3d63 ab3e 97fe f4bb 8e7d f2be
000000d0: 009e 13bc 80bd b13d 0017 1abb 00c0 ecb8
000000e0: 42d9 f4be 7f4a bc3e 172e a03e 8f2c e53e
000000f0: 6847 823e 573c d5be a324 93be 8cc7 df3e
00000100: 50a6 e2bc 41f0 8e3e baab 8bbe f50c 9c3e
00000110: acb3 6bbe 60d6 cb3c 2af5 a2be 1cdb 8d3e
00000120: 3bf5 fcbe 7638 de3e 2ce5 f2be 0b08 973e
00000130: b939 6c3c 54c0 32bc 4931 5ebc a3c0 47be
00000140: 7067 cabd da45 cf3e 688b 2cbe b0f2 b8be
00000150: 5eea c33d da38 8bbe b1f9 613e 0657 a1be
00000160: ce71 b73e be61 ca3e 3eb5 3a3e c1e7 8b3e
00000170: 4d41 e73e 6c9f dabd fa74 b73e 3d14 9d3e
00000180: f323 923e 2002 fa3d 972e 073e 5a1b c93e
00000190: 822b cbbd 377a 34be 3b64 aa3d a982 c23e
000001a0: 185d d33e f42e e83d 01a5 8bbd 0049 b23c
000001b0: 5a46 d0be a2ac 893e 0248 abbe 40b7 16be
000001c0: c320 823e 54c0 663e 6c9e d6be 200f a63c
000001d0: 137f 863e 5d44 2bbe 60de ffbe 2be1 07bd
000001e0: 6430 a83e 160d c23e ffa2 4a3d da28 adbe
000001f0: 0854 64be ae1c fcbe de8e eabe a2dc ca3e
00000200: 3048 803e 198b 3b3e f4fa 98bc 1b55 a33e
00000210: f82b 8c3d 9b44 aabe 3397 ec3e 711e 72bd
00000220: 2377 073e 7f79 4a3e 2411 373e 658c b33e
00000230: 26b9 b83e 6524 94be b149 c9bc 215d 023e
00000240: 4327 273e 690e e6bd 1207 843e 2f6a a8be
00000250: 8017 5f3c 4001 75be 283f df3d 3422 5c3e
00000260: 07c2 7f3e b8f9 afbd 619a b5bd abd0 873e
00000270: f7ef e93e d6d0 acbe ea57 273e 0059 a6bc
00000280: a12e 373e a125 743e afaa 21be 05eb 56be
00000290: f5c3 8dbe ac48 ad3e e6d7 3c3e e1af 9c3e
000002a0: 704c dcbe b2ed c93e 2e66 0dbe 60a5 12be
000002b0: e018 dcbd c00b c53e 66cc a43e c088 6abe
000002c0: 3533 3cbe 694a 9f3d 7deb ff3d 63d2 f63e
000002d0: df63 d73e 465c 453e b3b8 683e 6fa5 863e
000002e0: cfb0 4a3e 57b0 d13e 6b3f 02bf 3487 ac3e
000002f0: 7776 c5be c5bb 09be 1da9 d43e a702 c1be
00000300: 5ecc 153e 0925 903d 6c96 a7be 7ee4 00be
00000310: 3b9a e83e d1b4 55be 938d f13e 97eb e93e
00000320: f1aa f53e fd94 2abe f754 84be d55c c9be
00000330: 813f f0be d383 dc3d 1535 83be 1591 aa3e
00000340: d96d 6b3e d917 bdbd 6a06 84be 8cc3 3a3e
00000350: e924 f3be a761 993d a3ab c83d e2c9 923e
00000360: 90ff e3be e21f 3f3e 2df3 643d 3077 d73e
00000370: 2a81 fe3d 1d94 b03e 6532 e93d 733f fbbe
00000380: 40c8 213e 7a13 003f 07c0 8f3e 5aef 43bd
00000390: 7e43 fcbe 204a bebe 9807 fabe ec43 863e
000003a0: d5a4 c2bd 819e c63e 4c71 953e 6bcb d5be
000003b0: ac7f d03e b430 cdbd 791c a63e d419 b9be
000003c0: d35c 13be 7641 963d 5658 1bbe a56e aabe
000003d0: 5eb9 dabe c1c1 f23e 2693 1abd 159a 79be
000003e0: 2def 1a3e b452 8c3e 4e9e 4c3e f507 64bd
000003f0: 1b4b f03e e213 8fbd 6256 823d 7042 e7be

model.0.bias f4 [128]
0.0062068026 0.47687998 0.4873762 0.35873693 0.30644488 -0.21730328 -0.21781915 -0.36374617
-0.3632458 -0.21254224 -0.24086906 -0.4285815 -0.32699192 -0.29946166 -0.24312222 -0.19996051
-0.002736423 -0.20444143 0.13929524 0.2976217 -0.27949178 -0.18278478 -0.46475694 -0.34812135
0.41340995 0.48200876 -0.29665163 -0.23075038 -0.45500258 0.44887647 0.21191908 0.09620625
-0.39770743 -0.1651642 0.16392027 0.016454086 -0.14095895 -0.30064368 0.41378775 0.048554435
-0.46399033 -0.17349225 -0.1549064 -0.42506814 0.13797545 0.3680316 -0.38530308 0.23928154
0.4271488 0.07206501 -0.023886917 -0.006930939 0.39883164 0.09293017 0.49624825 0.13707444
-0.014143827 -0.101775825 0.2660402 0.13884288 0.4094123 0.15305576 0.04720988 -0.017560713
0.28716677 0.41802418 -0.15545839 -0.08627772 -0.3751988 0.29154438 0.44901094 -0.36316058
0.1630471 0.18601604 -0.07508514 -0.0457799 0.27178696 -0.23825377 -0.49922144 0.2545379
-0.24301851 -0.047780216 0.03523117 0.107941 0.46888706 0.034923345 0.49066356 -0.11104667
-0.3182267 -0.2876912 0.25504097 0.2539492 -0.128923 0.24483494 0.342262 0.3270915
0.31912237 0.33790052 0.13842995 0.052227948 0.33799535 -0.05197054 -0.2712531 -0.46411085
-0.23317784 -0.17699638 0.44983646 0.3222496 0.0085611995 -0.50688165 0.36788243 0.11782083
0.37812266 0.350672 0.34953296 -0.16426708 0.3910057 0.28455636 -0.13942254 0.50389713
-0.0018363146 -0.096607685 0.25819027 0.18296675 -0.22093225 -0.020585837 0.05140942 0.070928335
00000000: 6f62 cb3b 9d29 f43e 6089 f93e 5eac b73e
00000010: 58e6 9c3e c084 5ebe fc0b 5fbe f03c babe
00000020: 5afb b9be aca4 59be 61a6 76be 096f dbbe
00000030: 7c6b a7be 0a53 99be 08f5 78be 73c2 4cbe
00000040: 8f55 33bb 1859 51be 69a3 0e3e df61 983e
00000050: 8c19 8fbe ef2b 3bbe 9ff4 edbe f63c b2be
00000060: 78aa d33e dac9 f63e b9e2 97be d449 6cbe
00000070: 19f6 e8be 23d3 e53e 5101 593e c807 c53d
00000080: 4fa0 cbbe ce20 29be b7da 273e b8ca 863c
00000090: 8b57 10be f8ed 99be fddb d33e 04e1 463d
000000a0: 2490 edbe f4a7 31be c99f 1ebe 88a2 d9be
000000b0: 7049 0d3e a36e bc3e 7246 c5be 3806 753e
000000c0: 3fb3 da3e d296 933d 7fae c3bc ee1c e3bb
000000d0: a933 cc3e 2c52 be3d 4014 fe3e 3e5d 0c3e
000000e0: 83bb 67bc d86f d0bd 6c36 883e d42c 0e3e
000000f0: 7d9e d13e a6ba 1c3e 265f 413d 7cdb 8fbc
00000100: 8607 933e 4407 d63e 7c30 1fbe 60b2 b0bd
00000110: 0f1a c0be 4e45 953e c3e4 e53e 2ff0 b9be
00000120: d2f5 263e fd7a 3e3e 3dc6 99bd b483 3bbd
00000130: a927 8b3e ccf8 73be f499 ffbe cb52 823e
00000140: d8d9 78be 30b5 43bd 8f4e 103d 2c10 dd3d
00000150: f711 f03e c80b 0f3d 4138 fb3e 706c e3bd
00000160: 9cee a2be 434c 93be bb94 823e a105 823e
00000170: 6404 04be 03b6 7a3e f73c af3e 8978 a73e
00000180: 0264 a33e 4c01 ad3e 95c0 0d3e f9ec 553d
00000190: ba0d ad3e 10df 54bd b0e1 8abe f09f edbe
000001a0: 2cc6 6ebe 8a3e 35be f750 e63e e6fd a43e
000001b0: 4644 0c3c ffc2 01bf 165b bc3e 0c4c f13d
000001c0: 4b99 c13e 488b b33e fcf5 b23e a135 28be
000001d0: e631 c83e 5fb1 913e c8c4 0ebe 67ff 003f
000001e0: 7eb0 f0ba 40da c5bd 8431 843e a35b 3b3e
000001f0: 103c 62be a1a3 a8bc af92 523d e042 913d

model.2.weight f4 [1, 128]
-0.07736405 -0.027787415 0.032285962 -0.066456884 -0.013558101 -0.25825542 -0.08410867 0.013084784
0.048948996 0.026349515 -0.07014549 0.09661603 -0.007179376 -0.012283467 0.055997584 -0.038482532
-0.007890101 0.04723794 -0.005310476 0.016957043 -0.03991438 0.15308174 0.032094788 0.15239747
-0.027486298 -0.12913722 -0.016516764 -0.04730365 -0.19820426 -0.17360134 -0.019328516 0.087869294
-0.07728096 -0.03265724 0.048797768 -0.024767479 0.10751432 -0.055395562 -0.094219185 -0.020114
-0.06639099 -0.016127456 0.012422136 0.006805755 -0.0627144 -0.018127134 -0.10879101 -0.022024225
-0.123591565 0.04826794 0.0026029425 -0.08056097 -0.0005011581 -0.038254965 -0.074228115 0.014858459
-0.04068485 0.0015379563 0.088738956 0.01683395 0.0776744 -0.03138217 0.103670344 -0.018335395
0.11815346 -0.030379066 -0.04070694 0.049320415 0.09936532 -0.24804312 0.061254453 0.034725163
0.021885792 -0.13193682 -0.053136323 -0.12076606 0.062026236 0.2335877 -0.025333919 0.0768024
0.020697929 -0.04712349 0.08168956 0.0045120297 0.025058147 0.04569609 -0.068727836 0.022644341
0.084021725 0.02561613 -0.06543962 -0.023502937 0.0694726 0.01747433 0.010928188 0.07794141
0.04288198 0.023245884 0.09125943 0.056316648 0.26274297 0.060943887 0.0615614 0.0040938947
0.07847307 -0.010062006 0.11411903 0.060741924 0.00071054767 -0.20333368 -0.0026229238 0.066205494
0.009853463 0.010298891 0.13901639 0.035329618 0.14350867 -0.0155663695 0.045445077 -0.12873024
0.06550666 0.056181677 -0.089721195 0.013629639 -0.05224619 -0.036584124 -0.02317908 -0.0090933
00000000: 0b71 9ebd 6fa2 e3bc 493e 043d 8c1a 88bd
00000010: cc22 5ebc 0e3a 84be 2b41 acbd 9061 563c
00000020: be7e 483d f0da d73c 70a8 8fbd a0de c53d
00000030: f940 ebbb 9840 49bc b95d 653d dc9f 1dbd
00000040: 7b45 01bc 927c 413d 8003 aebb 7fe9 8a3c
00000050: 437d 23bd 76c1 1c3e d375 033d 150e 1c3e
00000060: f22a e1bc 8c3c 04be 2a4e 87bc 79c1 41bd
00000070: 0ff6 4abe 8dc4 31be d656 9ebc d1f4 b33d
00000080: 7b45 9ebd 99c3 05bd 2be0 473d 2be5 cabc
00000090: 7830 dc3d 75e6 62bd fdf5 c0bd 1ec6 a4bc
000000a0: 00f8 87bd ba1d 84bc 3786 4b3c d002 df3b
000000b0: 6870 80bd 5b7f 94bc d2cd debd 266c b4bc
000000c0: 931d fdbd 9ab4 453d 2196 2a3b 26fd a4bd
000000d0: 2760 03ba 3db1 1cbd e904 98bd e570 733c
000000e0: 28a5 26bd 4095 c93a c5bc b53d 5ae7 893c
000000f0: c113 9f3d 978a 00bd 1e51 d43d 1c34 96bc
00000100: 71fa f13d 85dd f8bc 52bc 26bd 3404 4a3d
00000110: 0b80 cb3d 04ff 7dbe f3e5 7a3d f93b 0e3d
00000120: d549 b33c 721a 07be 79a5 59bd 3254 f7bd
00000130: 390f 7e3d 9d31 6f3e 1489 cfbc 944a 9d3d
00000140: b48e a93c 9004 41bd db4c a73d a6d9 933b
00000150: be46 cd3c d32b 3b3d 2ec1 8cbd a080 b93c
00000160: 9513 ac3d ebd8 d13c 3505 86bd 3b89 c0bc
00000170: a747 8e3d 5326 8f3c 250c 333c bf9f 9f3d
00000180: 04a5 2f3d 276e be3c 39e6 ba3d 49ac 663d
00000190: 3f86 863e 4ca0 793d ce27 7c3d 1426 863b
000001a0: 7db6 a03d 1ddb 24bc 3db7 e93d 86cc 783d
000001b0: 0c44 3a3a b436 50be 5ce5 2bbb bf96 873d
000001c0: 6b70 213c aebc 283c 505a 0e3e cab5 103d
000001d0: f0f3 123e 160a 7fbc 9e24 3a3d dcd1 03be
000001e0: 5b28 863d c21e 663d bfbf b7bd d94e 5f3c
000001f0: 1a00 56bd 3cd9 15bd 0ee2 bdbc 11fc 14bc
