neuralq7.pt (torch, 5208 bytes, 3 tensors)

model.0.weight f4 [128, 4]
00000000: f529 80be 8bfb 72be 3c5b fbbd 3099 e73e
00000010: 6962 73be 8b1d a53e f015 e73e 6808 cf3e
00000020: 749e ddbe 7062 47be 6a9c a0be 7e63 d83e
00000030: 808b ca3c 3cd8 d1be 2091 59be 6065 9e3c
00000040: 73f2 ed3e acfd bdbd 65bb 3ebe bb5b 9f3e
00000050: 2b93 c73e c88c 4d3e f12e 823d e3b9 a6bd
00000060: 5e2c c2be b815 a0bd 00e6 c23d 2ef0 a23e
00000070: 7b6b d33e 3d5e 23bc 11ee 9b3d b519 ca3e
00000080: 14dd 68be 0898 4fbe 6eac a13e 101d d93e
00000090: 7e73 f5be f41e a23e d820 d13e fe2a b7be
000000a0: f890 f63e c9ef b53e 4ee3 ab3e 89cf 41be
000000b0: 94e4 463e e510 1abf 6de8 f83e 5408 afbe
000000c0: fc92 c1be 39d5 ed3e 6af2 4ebe ac83 ed3e
000000d0: 852e ea3e 83e2 083e 434a 65be 5324 f3bd
000000e0: 67ac ec3e 93f0 c73d 6ecf 853e 7c49 1fbe
000000f0: 6445 a9be 6229 c73e f082 fe3e 4b77 bbbe
00000100: bcc5 75be fc09 63be 8e3b febe f434 c0be
00000110: 987a a7be 147e 4a3e 5fe9 86be adb3 89be
00000120: dba3 f4be 659a 5d3e 437b bd3e 9c6d d9be
00000130: 934f 903d d43a 0c3e d463 9e3e 9b08 13be
00000140: 5dad 9bbe 762e 84be e869 c73e 9d0e 2d3e
00000150: 0909 aebe f978 adbe d01c b9bd 0fad 453e
00000160: 4bf9 8a3e 2287 f9be ffd3 9fbe be0b 9a3d
00000170: 1eca c93d b127 9a3e 8502 263e 8b23 bbbe
00000180: 2cdd dfbd a928 bf3e 0c77 c7be 7c99 6fbe
00000190: 34a1 87be 0eba 583e 0b65 d53e c67e dcbd
000001a0: c632 a1be 11f7 b0be 9a24 b7be b477 4abe
000001b0: 8cab 1abe 9cd9 07be 8072 8f3d 22ad babe
000001c0: e92b 673e aa09 57be acbd 04be eccb d9be
000001d0: a56d 743d 6754 ea3e 9534 20be b79b 87be
000001e0: 5800 80bd bcd8 ecbe 606f ad3e 7631 a3be
000001f0: 4e61 a3be 2179 f03e 5aca bc3e 49de e03d
00000200: d047 933e 582a 923e ff72 af3e 4d75 ec3d
00000210: d29b 4e3e a962 e53e 02a3 523e 0b65 943e
00000220: e76d 833e 72c5 b43e c6cf efbb 68d0 d9be
00000230: a8c8 ccbd 10ea a8be 0a2c bdbe 9c32 dfbe
00000240: fed5 efbe 6695 dfbe b8fc 1dbe 682f ef3d
00000250: c473 f03e 0f69 6ebe d5b0 d3bd 6aad 44be
00000260: 7bea a73e c9b2 fc3e dc25 0cbd 8913 013e
00000270: 8d8e bb3e 21ef cebe d59d b7bd 8993 ef3e
00000280: 3fcd fa3e dd5a db3d 8d2c debe d852 c13e
00000290: 249b 8bbe 9899 77be b261 b13e c0d3 b53d
000002a0: e835 2d3e 13c2 f4be e91a 15be a567 25be
000002b0: a097 aebe 0740 873e 2430 0dbe 3d0a adbe
000002c0: 7f62 173e a103 56be 2bd7 be3e a5f6 393e
000002d0: 737a 9ebe 6cc0 e73e 480d 8c3e edd6 76be
000002e0: 2a1b 3d3e e953 c6be 6afd 303e 991b 273e
000002f0: 8abd a7be 2e70 b23e 302a e7be 5646 6bbd
00000300: 26c5 b1be b0c0 a1be f097 63be 8651 d2be
00000310: cb44 bbbd 4cd2 d9be 3006 b5bd 0d3e bbbe
00000320: a0e8 67bd c860 efbe f00b 243e 7836 c83d
00000330: a614 efbe 0090 faba fc1f d23e 8035 68bd
00000340: 8665 f3bd 2409 473c a203 023e cc4d b6be
00000350: 505c 85bd 14ff 58be 1a3e ba3e b63f d1be
00000360: 3822 bb3d e0d1 debe 900e f13d 889f babe
00000370: 0064 293a f8fc 82be 44cf e83e d6dc b9be
00000380: 2be7 c73e 1d2f e5bd ea78 ee3c c516 673e
00000390: 7715 e93e ed5b 0dbe 7668 bebe a1c6 9d3e
000003a0: dfd1 20be 57de 723e c545 a93e d72c 78be
000003b0: 1b67 3ebe 53cb 313e c78f 97be ad24 35be
000003c0: e4af eebe d4b7 a63e c032 b2be 68f3 4c3e
000003d0: 881b 273e f65e 78be fb0a b5be cf19 47bd
000003e0: d657 6b3d 8dcd 89be 06ae d9bd badd b03e
000003f0: c2b6 383e 3045 c7bd 1d8d 393e 36de dcbe
-0.2503201 -0.23728769 -0.12273261 0.4523406 -0.23768009 0.32249102 0.45133924 0.404361
-0.43284953 -0.19471145 -0.31369334 0.42263407 0.024724722 -0.40985286 -0.21246767 0.019335449
0.46474037 -0.092769 -0.18626173 0.31124672 0.38979468 0.20073235 0.063566096 -0.08140924
-0.37924474 -0.078166425 0.09516525 0.31823868 0.4129294 -0.009971199 0.07613767 0.39472738
-0.22740585 -0.20272839 0.31576866 0.42404985 -0.47939676 0.3166424 0.4084537 -0.35774988
0.48157477 0.35534504 0.33571857 -0.18926825 0.19423133 -0.6018203 0.48614827 -0.3418604
-0.37807453 0.46451738 -0.20209661 0.4638952 0.45738617 0.13367657 -0.2239161 -0.11872163
0.46225283 0.09762683 0.2613482 -0.15555376 -0.33060753 0.3889876 0.49709272 -0.3661445
-0.24001211 -0.22171777 -0.49654812 -0.375404 -0.3271072 0.19774657 -0.26349923 -0.26894894
-0.47781262 0.21640928 0.37008104 -0.42466438 0.070464276 0.13694316 0.30935538 -0.14358751
-0.30405703 -0.25816697 0.38947988 0.16900106 -0.33991268 -0.33881357 -0.09038699 0.19304298
0.2714332 -0.4873591 -0.31216428 0.07521771 0.09853004 0.30108407 0.16211899 -0.36550555
-0.10930857 0.3733571 -0.38958013 -0.23398393 -0.26490176 0.21164724 0.41678652 -0.107663676
-0.3148405 -0.34563497 -0.35770112 -0.19772226 -0.15104502 -0.13266605 0.07004261 -0.36460215
0.22575344 -0.2099978 -0.12962979 -0.42538393 0.059674878 0.4576752 -0.15645058 -0.26485988
-0.062500656 -0.46259105 0.33874035 -0.31873673 -0.31910175 0.46967414 0.36873132 0.109798975
0.28765726 0.2854793 0.34267423 0.11545811 0.20176628 0.44801834 0.20569995 0.2898334
0.25669786 0.3530689 -0.0073184697 -0.42541814 -0.0999921 -0.32991076 -0.36947662 -0.435933
-0.4684295 -0.4366867 -0.15428436 0.11678964 0.46963322 -0.23282264 -0.103364624 -0.19206777
0.32796082 0.49355152 -0.034215793 0.12605108 0.36632195 -0.40416816 -0.08965651 0.46792248
0.48984715 0.1071069 -0.43393365 0.37758517 -0.272668 -0.24179685 0.34644848 0.08878279
0.16915095 -0.47804317 -0.14561047 -0.16152819 -0.34100056 0.26416036 -0.13787895 -0.33796874
0.14783667 -0.20899822 0.37273535 0.18160494 -0.30952796 0.45263994 0.27353883 -0.24105425
0.18467394 -0.38735893 0.1728417 0.16319121 -0.32761794 0.3485121 -0.45149374 -0.057440124
-0.34720725 -0.3159232 -0.22225928 -0.41077822 -0.091439806 -0.42543256 -0.08839071 -0.36570778
-0.056618333 -0.46753526 0.16020179 0.09776014 -0.4669544 -0.0019116402 0.41040027 -0.056691647
-0.118845984 0.012148175 0.12696698 -0.3560623 -0.06511748 -0.21191055 0.36375505 -0.4086892
0.09137386 -0.43519497 0.11770356 -0.36449838 0.00064617395 -0.25583625 0.4547063 -0.36301297
0.39043555 -0.11190627 0.02911039 0.2256728 0.4552419 -0.13804598 -0.37189072 0.30815604
-0.1570506 0.23717628 0.33061042 -0.24235855 -0.18594019 0.17362718 -0.2960188 -0.17689772
-0.4661857 0.32562125 -0.34804344 0.20014727 0.16319096 -0.24254975 -0.3535994 -0.048608597
0.057456814 -0.26914635 -0.106288955 0.34544164 0.18038467 -0.09729993 0.18120237 -0.43138283

model.0.bias f4 [128]
00000000: 528b a33e 7354 d8bd e845 ddbd a011 c93c
00000010: 8dce 27bc c6cd 9fbe 1c30 9bbe 34e6 7abe
00000020: 6009 37bd ce51 fdbe 4351 46be 7e53 d9be
00000030: eed6 8ebe c858 8abe 6bf4 693d 1fbd 133d
00000040: 08bc f3be aacf 403e 62d7 ea3e c889 fa3c
00000050: 0389 863e 0c0e 843e d3f1 75be 4b14 2bbc
00000060: eead 853e 6b9e d6bc 5664 883e 74eb e9be
00000070: 9031 92bc 745a 51bd 30db 2c3d f894 5ebe
00000080: 8040 0abe 9df3 913d b3b6 97be 006c be3a
00000090: 2004 21bd 43d6 60be 346b 403e bfcb 2abd
000000a0: c679 7ebe 400a 233d 6874 c9be 3ab7 6c3e
000000b0: e38e a23d 746f 4dbd 1b9f ed3e ab50 3a3e
000000c0: 48ce b13d b7dd a53e 802d 86be f8d4 a6bd
000000d0: 3ce0 403e 8cbc 2fbe f4b6 f4be 9c96 053e
000000e0: 47d4 d6be efc5 a13c 2d76 923e 361c 453e
000000f0: 9ac5 9cbe 0437 e03e 60cd dcbd fe5a 433e
00000100: a808 8c3d 820b 3f3e 0983 bd3d e097 7fbe
00000110: 573d 23be 74f6 56be 4863 8dbe f87e a0bd
00000120: 5814 c0be ca87 b9bd c389 74be 1377 1f3e
00000130: b7c7 de3e 8840 b93e c63c 943d 114f a43c
00000140: 5375 303e e216 903e 2eb2 f3be 0b98 b53e
00000150: bb15 7dbe 05e2 fb3e 709d 67be d035 15be
00000160: 686f fdbd f9aa 193e 90ba 40be 6710 9d3e
00000170: 11e6 423e 7d72 d43e 6d81 a6be f692 eabe
00000180: 1af7 efbe 2f1c 803e acf0 70be a819 74be
00000190: 391b a83e 5a58 debe 74b7 ca3e 3be5 703e
000001a0: a431 043e 6004 dfbe 20cf c23c 3b5e ad3e
000001b0: cb34 7dbe b6ed 8ebe dc4f dbbe bc0d 873e
000001c0: dd64 b03d c960 cebd 7c40 4dbe 78f5 933e
000001d0: 9054 e43d 92af d9be f5be e0bd 141f 17be
000001e0: d6c2 a73d 2b36 f63e b09f a7be 04d5 e0be
000001f0: 9a8a 74be fbcc adbe 1b00 8ebc 5d2e d73d
0.3194223 -0.105629824 -0.10804349 0.024544537 -0.010242117 -0.3121168 -0.30310142 -0.24501878
-0.044686675 -0.49476475 -0.19366936 -0.42446512 -0.27898353 -0.2702086 0.05711786 0.03606903
-0.47604394 0.18829218 0.4586745 0.030583277 0.26276407 0.25791967 -0.2401803 -0.01044185
0.2610926 -0.026198586 0.2663905 -0.4568745 -0.017845899 -0.051111653 0.04220122 -0.21736515
-0.13501167 0.07126544 -0.29631576 0.0014528036 -0.039310575 -0.21956734 0.18790895 -0.041698214
-0.2485114 0.039804697 -0.39346623 0.2311677 0.0793741 -0.050155118 0.4641045 0.18194835
0.08681923 0.32395718 -0.2620659 -0.08146089 0.18835539 -0.17161769 -0.47795832 0.13045734
-0.4195883 0.019747702 0.28605786 0.19249043 -0.30619508 0.43791974 -0.1078136 0.1907768
0.068375885 0.18656734 0.092535086 -0.2496028 -0.15941368 -0.20992452 -0.27614808 -0.07836717
-0.3751552 -0.09059103 -0.23880677 0.15572767 0.43511745 0.36182046 0.07238154 0.020057233
0.17232256 0.28142458 -0.47596878 0.35467562 -0.24715321 0.49195877 -0.22618651 -0.14571309
-0.12374765 0.15006627 -0.18821168 0.30676576 0.19033076 0.41493598 -0.3252062 -0.45815247
-0.4686821 0.25021502 -0.23529309 -0.23837912 0.3283327 -0.43426782 0.3959309 0.23524944
0.12909561 -0.43558025 0.023780406 0.33860955 -0.2472717 -0.27915734 -0.42834365 0.26377666
0.08612988 -0.10077054 -0.2004413 0.28898215 0.111489415 -0.42516762 -0.10973922 -0.14757949
0.08191459 0.48088202 -0.3273902 -0.43912518 -0.23880997 -0.3394545 -0.017334035 0.1050689

model.2.weight f4 [1, 128]
00000000: 40c0 393d c855 36bd 08f0 6f3c 1651 b4bd
00000010: ef8b 7a3d e39e a7bc 3024 a0bd 671a cbbb
00000020: c0a7 28bd 018e 18bd af3b d03c c7e1 0a3f
00000030: df30 45bd f9bb 80bd 6974 453d 8935 a33d
00000040: 68cf 403c c847 863d ea02 9ebc 64a9 6a3d
00000050: 4572 91bd cfcb 953d 75d6 1fbc a96e 863d
00000060: 9506 bf3e 0293 603d 0535 923d 3003 383c
00000070: 1035 9e3d ccce e5bd de66 a7bd a77c 6f3d
00000080: 7af8 79bb cdf9 05bd 22fc 26bd 705a d4bc
00000090: e093 de3c 276a aeb7 c40c 14bd 2b3f 6cbc
000000a0: fcf9 6a3b 3ac4 89bd db28 843e 57ab 67bd
000000b0: 3d60 9a3d 2f45 2cbd 5412 bc3d f233 163d
000000c0: 4b50 933d 786e 98bd b4b4 afbd 57c1 ab3d
000000d0: 2dc0 843d 8460 ecbc 868b 2b3d 5af5 193d
000000e0: f440 55bd 9395 9d3d e6e3 b1bb 9ef2 d93c
000000f0: 8055 f43a 0249 533d 64fb fa3d dc26 2bbd
00000100: 48ad cbbc c208 cbbc a782 553e 23d0 803c
00000110: 7b52 3f3d 9b70 9dbd 35f6 8e3d 4a60 273d
00000120: d41d 053c f304 273d 83ee 82bc 1a73 363d
00000130: 831a 27bd f54e 953d 1dba a7bd 4492 01bd
00000140: 2ee5 4cbd d301 c43c 3a76 3f3d 3b52 8cbd
00000150: 6e1c eabb dab9 b0bd 6ce1 9bbd 00f4 153a
00000160: fdb7 4fbd 6aa0 843d 8631 b0bd 2fb0 be3c
00000170: ceaa a0bd bbf6 a3bc 12de 813d 2062 50bb
00000180: 0848 64bd f9a8 1abc c086 6a3c 08e4 4c3c
00000190: 60a4 b83c 7013 663c 06f2 863d 3846 35bd
000001a0: a35e 99bb 1bcf a63d 68f2 4d3c a5d5 22bd
000001b0: 280a e73c 8aea 13bd 3833 f2bb 1329 26bd
000001c0: 4457 a6bd a506 04bd c3bf b1bd cd2c d5bd
000001d0: 7135 a2bd f29b debc 0b45 02bd b491 f9bc
000001e0: 47ba 17bd 7f1c 4ebd 91f7 abbb a843 37bc
000001f0: d807 b03b 7c1e 903c 31be 3e3d 2e42 90bd
0.04534936 -0.0445154 0.01464463 -0.088045284 0.061168607 -0.020461505 -0.07819402 -0.0061982158
-0.041175604 -0.0372448 0.025419084 0.5425076 -0.04814231 -0.06285853 0.04820672 0.079691954
0.0117681995 0.0655666 -0.019288499 0.05729045 -0.07101873 0.07314264 -0.00975572 0.065640755
0.3730971 0.054827698 0.07139019 0.011231229 0.077249646 -0.11221084 -0.08173917 0.058468487
-0.0038142488 -0.03270893 -0.040767796 -0.02592203 0.027170122 -2.0791847e-05 -0.036144987 -0.014419357
0.0035854569 -0.0672688 0.2581242 -0.056559887 0.07537887 -0.042058166 0.09183183 0.036670633
0.07193049 -0.07442945 -0.08579388 0.08386486 0.06481967 -0.028854616 0.041881107 0.0375875
-0.052063897 0.07694545 -0.005428779 0.026604947 0.0018641204 0.051583298 0.1225498 -0.041785106
-0.0248629 -0.02478445 0.20850621 0.015724247 0.04670952 -0.076874934 0.06980554 0.040863313
0.008124787 0.040776204 -0.015982872 0.044543363 -0.040796768 0.072904505 -0.08189795 -0.03163363
-0.05002325 0.023926651 0.04674361 -0.06851622 -0.0071445024 -0.08629198 -0.07611355 0.0005720258
-0.050712574 0.06475909 -0.08603196 0.02327737 -0.078450784 -0.020015111 0.06341185 -0.0031796768
-0.055732757 -0.0094397 0.0143143535 0.012505539 0.022539318 0.01404272 0.06589131 -0.04425642
-0.004680471 0.08144971 0.012570001 -0.03975453 0.028203085 -0.036112346 -0.0073913597 -0.040566515
-0.08122113 -0.0322329 -0.08679154 -0.10408936 -0.079203494 -0.02717397 -0.031804126 -0.030464984
-0.037042882 -0.050320145 -0.005248018 -0.011185564 0.005372029 0.017592661 0.0465681 -0.07043873
