neuralq5.pt (torch, 5208 bytes, 3 tensors)

model.0.weight f4 [128, 4]
00000000: 874a 35be beda 33be 8b4e 3fbe 476c 19be
00000010: 0ce7 a4be 9066 553e ac3f 27be e0c7 953d
00000020: 9bcf 973e 2e49 a13e d7fd 6b3e eeef 42bd
00000030: a0be 43be 86ad dd3e 143a 08be abd8 fd3e
00000040: d756 6f3e b0a9 d6be e906 a0be 690d 4dbd
00000050: 4703 ff3e f1db a6be 3682 20bc 885a ffbd
00000060: c539 aabe cc9c b6bd dedc 883d 06ed 3fbe
00000070: d8b8 1abe 0272 aabe cc75 fc3e faec c7be
00000080: 53ef ab3e 8398 df3e b1c7 d33e 6454 e43e
00000090: d590 bf3e 2120 e1bd 98e7 55be 191b d0bc
000000a0: 89bd 30be afc0 003e d526 78be cb07 463e
000000b0: 00d9 1cbb 04fe 583e e235 be3e 2879 2dbe
000000c0: 9fa8 f63e ff45 8e3d 4723 4e3d 0afc 68be
000000d0: fa74 373e 862e c1bd fe46 c8be 4d56 573d
000000e0: 3df1 d73e 357d 793e dbb6 e63e ccb8 c13e
000000f0: 163e 653e e78e 013e 4b09 d93e 95a8 eabe
00000100: 71a1 2dbe 5094 4bbd bb57 d4bb a4cc 7b3e
00000110: 4652 b9be d098 dabd f881 633e e82c f4bd
00000120: 809f 1abc 70c3 7cbd f86a b43d 6014 233e
00000130: 1d43 13be 19c5 cc3e 4ac0 743e b212 cdbd
00000140: b227 bfbe 38eb eb3e 41fe b6be eba6 2ebe
00000150: d7ca 8cbe 0b15 54be 46bf a03e 32f6 b53e
00000160: d544 4cbb 5f9b af3e 26a6 d63b 8764 1dbe
00000170: 7009 e43e 779f 403e 74a3 81be face e03e
00000180: b228 94bd b736 e23e 7a24 e4bd f1c6 6cbe
00000190: 4413 6cbe 4891 0a3e fa12 96be 046b 643e
000001a0: c2ab c0bd aa90 4c3e 68d5 90be a183 f13d
000001b0: f409 9bbe c06e 1cbe 58e7 f63d a27e f83e
000001c0: 1e66 b83e e4c8 9d3e 23c7 f7be f777 f73e
000001d0: 00ca c8be ac7b 153e 7639 c2be a0db 7a3d
000001e0: 80ba 73be ac63 86be 1805 9e3d 4cf9 653e
000001f0: 5485 9c3e fafa e5be 5520 8dbe 3693 293c
00000200: 00dc da3a 4c1a 59be 1000 41bd d2a9 91be
00000210: 1d64 97be 52bd febe 62dc 45bc 5926 26be
00000220: 32f6 3d3e 326c abbe 4706 313e e496 67be
00000230: 5400 c63d 10e2 153e 93ab 16bb 711a 863e
00000240: e676 d0be 107a e13e 4c27 b7be 66fd c13e
00000250: b019 f6bd 10be 2cbd b486 ad3e 48c0 a3be
00000260: f02e d7bd 00eb c93d 8634 c83e b637 d6be
00000270: 1961 cabe dd6e e03e ae2d 12be dedf 823e
00000280: 66c9 b4be b36e 6ebe e24a c73c 6f28 8e3e
00000290: 8110 dbbe 843d 8a3d 69d2 c53e 70be c33e
000002a0: 0faf da3e 648d db3d 1f12 c7be b04b 8cbe
000002b0: 63de cabe 658b 4d3c d54a 41bd 4fa7 c7be
000002c0: 1219 d7be 6922 d73e 0ce7 80be f595 813e
000002d0: 406f 463c 5056 5dbd c499 543e 82a3 ccbe
000002e0: 9d24 123e 1d47 eabe b75f e53e b627 fabe
000002f0: 9235 d8be 408d eb3d 7a4a ebbe 7a53 ba3e
00000300: 6959 a93e 3b45 c33e 6394 fdbe 79d3 e13e
00000310: 6498 793e 88f4 00bc a1f0 acbe 424e 0d3e
00000320: ac4b 99be dbf0 98be ac7a bfbe be6d 813e
00000330: 553f 123c 5d66 ec3d 558c c1be 2e64 c7bd
00000340: 413a b13e d928 223e ba3c 9a3d 7a6f d43e
00000350: aa08 533c 0c1f cc3d 13ab 9e3e cfe4 95be
00000360: 9d5b be3e 2396 aabe 7037 bd3c aa1a 93bd
00000370: 1e21 de3e 352e 21be 09f2 a2be e63f c5bd
00000380: 8701 b83e 4a3e 9dbe 8819 a6bd 6a0b b83e
00000390: b4e0 373e c378 e8be 1e41 b33c fcfc eabe
000003a0: 8a06 0d3e a345 88be 6231 8bbe 49ae f73e
000003b0: d654 ddbe 17b8 f9bd 4206 d7be a669 053e
000003c0: 2806 edbe 484a 21be bd43 cd3e b40b f3be
000003d0: 565a 9ebe 730f 103d f002 07bd 00d6 8fbe
000003e0: 4d36 d8be f273 0cbe 4c11 a7bc a5c1 9d3e
000003f0: dd3c f43e e88d ba3e d8c3 dd3d 619d b23e
-0.17704211 -0.17563912 -0.18682306 -0.14982711 -0.32207525 0.20839906 -0.16332883 0.07313514
0.29650578 0.31501144 0.23046051 -0.047592096 -0.19115686 0.4329645 -0.13303405 0.49579367
0.2337297 -0.41926336 -0.31255272 -0.050061617 0.49807188 -0.32589677 -0.00979667 -0.12468439
-0.332472 -0.089166254 0.06682752 -0.18742761 -0.15109575 -0.33290106 0.49308622 -0.39047986
0.33581027 0.43671045 0.4136329 0.44595635 0.37415186 -0.10992456 -0.20889127 -0.025403546
-0.17259802 0.12573503 -0.24233563 0.1933891 -0.0023933053 0.2119065 0.37150484 -0.16940749
0.48175523 0.069469444 0.05032661 -0.22752395 0.17915717 -0.09432702 -0.39116663 0.052572537
0.42176238 0.24364169 0.45061383 0.378363 0.22386965 0.12652169 0.42389902 -0.45831743
-0.16956116 -0.04970199 -0.006480185 0.24589783 -0.36195582 -0.10673678 0.22217548 -0.11922628
-0.009437442 -0.06170982 0.08809465 0.15925741 -0.1438107 0.39994124 0.23901477 -0.100133315
-0.37334973 0.46077895 -0.35740855 -0.17055862 -0.27498505 -0.20711152 0.3139593 0.35539395
-0.0031168957 0.34298226 0.006550568 -0.1537038 0.4453845 0.18810831 -0.25320017 0.4390791
-0.072343245 0.4418237 -0.1113977 -0.23122765 -0.23054224 0.13531983 -0.29311353 0.22306448
-0.0940776 0.1997706 -0.28287816 0.11792684 -0.3028103 -0.15276623 0.12055844 0.48534113
0.3601541 0.3081733 -0.48394117 0.48333713 -0.39216614 0.14597958 -0.37934464 0.061244607
-0.23801613 -0.2624792 0.07715815 0.2245838 0.3057047 -0.44918042 -0.2756373 0.010350039
0.0016697645 -0.21201438 -0.0471192 -0.28449875 -0.29568568 -0.49753815 -0.012076469 -0.16225566
0.18550947 -0.33480984 0.17287551 -0.22616154 0.09668031 0.14637017 -0.002299045 0.26192048
-0.40715712 0.4403844 -0.3577217 0.3788864 -0.12016618 -0.042173445 0.33891833 -0.31982636
-0.105069995 0.09859276 0.39102572 -0.4183938 -0.39527205 0.43834582 -0.14275238 0.25561422
-0.35309905 -0.23284416 0.0243277 0.27765223 -0.4278603 0.067500144 0.38637093 0.3823123
0.42711684 0.107203275 -0.38881013 -0.27401495 -0.39622793 0.012545441 -0.047190506 -0.38994834
-0.42011315 0.4201844 -0.25176275 0.2530972 0.012111485 -0.054037392 0.20761782 -0.39968497
0.1427178 -0.4575738 0.44799587 -0.48858422 -0.4222837 0.11501551 -0.4595526 0.36391813
0.33076027 0.38138756 -0.49527273 0.44106653 0.24374539 -0.007870801 -0.33777335 0.13799384
-0.29940546 -0.29871258 -0.3739828 0.2527904 0.008926232 0.11542962 -0.37802377 -0.09735905
0.34614757 0.15835895 0.07531114 0.414913 0.012880484 0.09966859 0.30989894 -0.2927613
0.3717927 -0.3331767 0.023097724 -0.0718282 0.4338464 -0.15740283 -0.31825283 -0.09631328
0.35938665 -0.30711585 -0.081103384 0.35946208 0.17956811 -0.45404634 0.021881636 -0.45896137
0.13772026 -0.2661563 -0.27186114 0.48375157 -0.43228787 -0.121933155 -0.41996962 0.13028583
-0.4629376 -0.15750992 0.40090743 -0.47469866 -0.30928296 0.035170984 -0.032961786 -0.28092957
-0.42228928 -0.13716105 -0.02039399 0.30811802 0.47702685 0.3643639 0.1082837 0.34885696

model.0.bias f4 [128]
00000000: 7df9 b23e 1c8d 81be f45d f2be d2db fc3d
00000010: 2d04 99be 4dee e6bc 155e ed3e 6cc8 dabe
00000020: f8b1 823e 3fde b83e 8540 2bbd 3090 e7be
00000030: b547 a6be 325e 68be 8719 9b3d 410a d5be
00000040: 5654 bd3e def0 e8be 7461 a3be ce56 a9bd
00000050: b5de f63e 24a9 8a3e 6f4f d93e 5556 933e
00000060: 1855 023e 0af2 c6be 1608 df3e 908e c0be
00000070: 4d9e 9d3d a0b3 97be 385b 18be 450e c53d
00000080: 2497 38be ea03 dc3e 6c46 563e b492 863e
00000090: 76cf e5be a4be 16be 026a ffbe f96b 0e3e
000000a0: e43a 7b3e 5945 093e 4083 9e3e 5de0 f83e
000000b0: 9b80 60be 40a6 c4bd 8a94 c8bd 1e63 f0be
000000c0: 7522 b5be 7e91 a7bd ba82 d43e 5c59 243e
000000d0: 107c e6be a41b af3e 5f09 843d 01bb 36be
000000e0: 22af 9c3e ae9d dfbe 8a57 c4bc 17bd 363d
000000f0: 2c1f f83e 8db4 e33e 0961 c43e 66fa c5be
00000100: 7ac1 e0be a59b 9f3e d2ae a3be d3bc 723e
00000110: 30fe d03e 562d 66bd 4984 d93e d97d 8b3e
00000120: da7d c1be 27c6 c7bd ba0b 4c3e 0adf e33e
00000130: 881a 19be c6c7 e13c 3080 763e ce3b a23e
00000140: 8443 503e 4b1f 24be 47e6 70bb c0d6 903c
00000150: 5871 ffbd 7efa eebe 4021 9a3d 5322 353d
00000160: 6b35 dc3e 2107 c63e 90c4 e1be 3db0 e7be
00000170: a26f dabe 1a7a 84be 415d ed3e 1a58 ea3e
00000180: 6c1c bf3d 6829 8abd dadb 9b3d 909e 063e
00000190: fbf5 ef3e aac9 6fbe 0605 863e 5b43 553e
000001a0: 55e3 f03d 8896 a3be e418 a2be 2b68 023e
000001b0: d5e1 fd3e 221c fdbd 76b8 f2be e20f 6e3e
000001c0: b01f e1be 4387 c9be ba6b df3e cf47 873e
000001d0: 888f a3bd 0ef9 0dbd 6793 9bbe 970c a8be
000001e0: 7a1d 4a3e 8481 a0be 20a0 be3e 8ea4 d13e
000001f0: 89f1 e6be 9bcc c53e 30b2 e8be 7e51 bfbe
0.3495597 -0.2530297 -0.47337306 0.12346615 -0.29885998 -0.028189803 0.4636084 -0.42731035
0.25526404 0.3610706 -0.041809577 -0.45227194 -0.32476583 -0.22692183 0.07573228 -0.41609386
0.36978406 -0.45496267 -0.31910288 -0.0826851 0.48216787 0.2708217 0.42443416 0.28776804
0.12727773 -0.38856536 0.43560857 -0.37608767 0.07696209 -0.2962923 -0.14878547 0.09621862
-0.18026406 0.42971736 0.20925301 0.262838 -0.44884843 -0.14721161 -0.49885565 0.13908376
0.24534184 0.1340536 0.3095951 0.48608676 -0.21924059 -0.09602022 -0.097939566 -0.4695062
-0.3537785 -0.08182047 0.41505986 0.16049713 -0.45016527 0.34200776 0.064471 -0.17844774
0.30602366 -0.43674988 -0.023967523 0.044613924 0.48461282 0.44473687 0.38355282 -0.386676
-0.4389761 0.31173435 -0.31969315 0.23704843 0.4081893 -0.05619558 0.42483738 0.27244452
-0.3779133 -0.097545914 0.19926348 0.44506103 -0.14951527 0.02756108 0.24072337 0.31686252
0.20338255 -0.16027562 -0.003675835 0.017680526 -0.124727905 -0.46675485 0.07525873 0.044222187
0.43009505 0.38677314 -0.44095278 -0.45251647 -0.42663294 -0.25874406 0.4636021 0.4577034
0.09331593 -0.06746179 0.07610293 0.13146424 0.46867356 -0.23416772 0.26175708 0.20826475
0.1176211 -0.31950784 -0.31659615 0.1273505 0.4958636 -0.123588815 -0.47406358 0.23248246
-0.43969488 -0.3936101 0.43636876 0.26421973 -0.07986361 -0.034661345 -0.30385897 -0.32822105
0.19737807 -0.31348813 0.3723154 0.40945858 -0.45106152 0.38632664 -0.45448446 -0.3736686

model.2.weight f4 [1, 128]
00000000: ff25 d7bc 50bc b93c 85b7 af3c 36c3 a83d
00000010: 1df3 99bd ad72 68bd 842f bebd f093 ed3c
00000020: 0ac7 893d 7656 933d 15c2 49bd 74bd 34bd
00000030: 2d76 aebd c901 63bd b6b3 9c3d 3f4a 37bd
00000040: 7d8c 39bd 6401 87bc 40ce 4b3b 99c1 d63c
00000050: 3e13 bc3d 81f8 113d e508 983d 1610 97bd
00000060: 0f08 acbc b2fe 0a3d 3732 6abd 324a 723d
00000070: 5efd 54bd b849 6cbc 24ae d03c fecd a7bc
00000080: b62d 8ebd bf2d 4a3d bad2 58bd 4d6b a73d
00000090: 135c 8c3d 9275 7cbd 0842 c13c f07c 1bbd
000000a0: 833a df3c 8069 73bd d3ad 59bc bb1f 853d
000000b0: b0be 6ebd a465 a4bc 1fb2 a13e 8ba1 9d3d
000000c0: b8c0 a0bd 770a 1a3d 7883 3dbd 7367 0cbd
000000d0: 5d4c 403d ce59 a0bd 7093 cc3d a603 0fbd
000000e0: c3b5 9a3c b59e 0d3e d7a8 a43d 9859 e43c
000000f0: e38f 08bc 4208 643d 2efd 71bc 5fae 5bbd
00000100: 00f8 083d 9a14 8abd d408 3b3d 20af 253d
00000110: 7bf3 1d3d be06 88bd ab00 3a3d 0fd2 9ebd
00000120: 0c1f 2abd d39f 613c ecac 393d b5d3 083b
00000130: 348e b43c 9e8a 883d f3e8 943d 575e 89bc
00000140: 749a 873c 94dc 6cbd e264 acbd e1bb af3d
00000150: 24c7 823d bdb3 aa3d 52b9 2cbd 3be1 9f3d
00000160: d3af 94bd e3a2 cc3d 3c8c 90be a0a7 743e
00000170: 502a 6bbc 5d1a 2abe a847 753c afd6 03bd
00000180: faba abbc 6dca bebd e3c2 55bd c75f 4a3d
00000190: 4c7a 25bd b6ce 9b3d 4678 debc b8c5 d13c
000001a0: d0b9 fcbd 12b3 ecbc f351 913d 983a 203c
000001b0: d564 9b3d 9fdb a03e c68c 2f3d f6ea b4bd
000001c0: c24c 203d 8141 b9bc b2fa 8bbc 96e1 15bd
000001d0: 8051 77bd cecc 11bc 6b1a 2a3d 32f0 9b3d
000001e0: 0e8d 66bd 2d04 9ebd 6339 51bd 5096 9bbc
000001f0: 2c69 82be ad78 fdbb 566c 6b3d 60d5 11bd
-0.026263235 0.022672802 0.021449814 0.082403585 -0.07517073 -0.05674999 -0.09286407 0.029001206
0.06727417 0.071942255 -0.049257357 -0.04412599 -0.08518634 -0.055421624 0.07651465 -0.04474854
-0.045299996 -0.016480155 0.0031098276 0.026215361 0.09183358 0.035637382 0.074235715 -0.07376115
-0.020999936 0.033934303 -0.057176795 0.05915279 -0.051999442 -0.014421873 0.025473662 -0.020483967
-0.069423124 0.049360033 -0.05293534 0.08174763 0.06853499 -0.06163556 0.023591056 -0.037960947
0.02724958 -0.059426785 -0.013286072 0.06500193 -0.058287323 -0.020067997 0.31581208 0.076968275
-0.07849258 0.037607636 -0.046267956 -0.034278344 0.046947826 -0.07829629 0.09989059 -0.03491559
0.018885499 0.13830073 0.08040016 0.027874753 -0.0083350865 0.055671938 -0.014769835 -0.05363309
0.033439636 -0.06742211 0.045662716 0.040450215 0.03856228 -0.06641911 0.045410793 -0.07754909
-0.041533515 0.013771015 0.045330927 0.002087814 0.022040464 0.06667064 0.07270994 -0.016768618
0.016553141 -0.057827547 -0.08417679 0.08580757 0.06385639 0.083350636 -0.042168923 0.07806631
-0.07260098 0.09992006 -0.2823199 0.23892069 -0.01435335 -0.1661162 0.014970697 -0.03218716
-0.02096318 -0.093159534 -0.05218781 0.049407747 -0.040399835 0.07607786 -0.02715696 0.025606975
-0.123401284 -0.028893981 0.07095709 0.009779595 0.075875916 0.31417558 0.04285886 -0.08833878
0.039135702 -0.022614243 -0.017087314 -0.03659209 -0.06038046 -0.008898927 0.0415291 0.07614173
-0.056286864 -0.0771564 -0.05108012 -0.018992573 -0.25470865 -0.007735333 0.057476364 -0.03560388
