neuralq4.pt (torch, 5208 bytes, 3 tensors)

model.0.weight f4 [128, 4]
-0.06980974 0.29211742 0.30976033 -0.1352526 -0.116538815 0.048561443 0.45377362 0.1471396
0.2653967 0.13429792 -0.23432694 0.04912957 0.12864904 0.30255824 -0.12389236 -0.38191256
-0.19896296 -0.06285042 0.030188318 -0.31898317 0.06128061 -0.3828125 -0.18417841 -0.19399542
-0.17587522 -0.31733954 0.116250746 -0.18861823 0.19954407 0.031560034 0.33579364 -0.054180264
0.22795275 0.502405 -0.3294888 0.43864015 0.38836667 0.3137717 -0.08655751 0.33566254
0.4483888 -0.51344633 0.19882393 -0.17747574 -0.18651211 -0.4147809 0.3244375 -0.38085586
0.4689386 0.4033118 0.005093784 0.3260542 -0.093975425 0.31891096 -0.037508607 -0.0999524
-0.043693036 0.36516047 -0.42752898 0.17507541 0.2641007 -0.35841948 -0.008063279 -0.1893173
-0.48754814 -0.41613582 0.09743006 -0.095247395 -0.37716445 0.45242327 -0.27516133 -0.39113072
-0.13398123 -0.42995572 0.30593503 -0.43184108 -0.48972195 0.36601597 -0.17378348 0.25792778
-0.027266001 0.42243233 -0.37786725 0.09632826 -0.2483831 0.25728732 -0.06795102 -0.04576403
0.12416734 0.17642668 0.2918375 0.3235755 -0.28619885 -0.47898448 0.31235534 -0.44385785
0.43692628 0.40619493 -0.44752094 -0.4097502 0.23679467 0.08366738 -0.36442578 0.07098067
0.27114233 -0.5826647 0.27039984 -0.17679526 -0.056550503 -0.16006714 -0.35907096 0.41811252
-0.053677328 0.41749382 -0.28983602 -0.25488162 -0.25684667 0.5054073 0.37530386 0.28044444
-0.1397811 -0.055485565 0.30594534 -0.49619934 -0.020541012 -0.24646306 -0.32923162 0.23562694
-0.24176727 0.4401823 0.45112053 0.15830542 -0.07195614 0.4121468 -0.41117436 -0.36614195
-0.15389812 0.4670732 0.47762325 0.030763688 -0.24584854 0.29972905 0.08422425 -0.41383895
-0.3456475 -0.4595099 0.41728055 0.3544218 0.411727 -0.24415217 0.07554328 0.4048602
0.027278066 0.100735605 0.26207393 -0.19305003 0.13785808 0.3685336 0.38585564 0.34188583
-0.1962415 -0.064380825 -0.39704305 -0.2802555 0.044410862 0.39312643 0.4253196 -0.31845385
-0.24594264 0.12635182 -0.21554562 0.48008215 0.33416626 -0.2897816 -0.3796734 0.14663754
0.0513089 -0.031029254 0.11489063 0.12967059 0.19203097 0.24674734 0.23985977 -0.4970684
-0.043980915 0.21435225 -0.39627358 -0.33316687 -0.036812365 -0.07160264 -0.06924909 0.09271121
0.43400025 -0.43316996 0.35003653 -0.34813938 0.4474019 0.4013914 -0.2369723 -0.18761629
0.028115883 -0.3039078 0.47190192 -0.32368338 0.18491083 -0.38721204 0.4876787 0.41621283
-0.18438298 -0.021397889 0.17968422 -0.014162421 -0.338817 0.4341186 0.13751465 0.48773935
0.09197731 -0.28943697 -0.019656224 0.458132 0.10092932 0.053781606 -0.250958 -0.22776122
-0.17318445 -0.17219198 0.4221763 0.2470823 -0.34620488 0.36653155 -0.17502618 -0.0017900467
0.23608437 -0.07701122 -0.16822407 0.0072004497 0.46821627 -0.110770784 -0.010757969 0.47474486
-0.03603364 0.27303457 -0.32733396 0.3883393 -0.022851527 0.3278581 0.4691462 -0.027817905
-0.21869348 -0.0845238 0.014098598 0.08479358 -0.31213582 0.3309186 -0.299928 -0.11560124
00000000: 69f8 8ebd 6a90 953e e898 9e3e a87f 0abe
00000010: e7ab eebd 5de8 463d 0455 e83e c3ab 163e
00000020: 14e2 873e 6585 093e 67f3 6fbe 173c 493d
00000030: 93bc 033e eae8 9a3e 47bb fdbd 0b8a c3be
00000040: f2bc 4bbe b9b7 80bd 7e4d f73c c351 a3be
00000050: 6001 7b3d 0000 c4be 4499 3cbe bca6 46be
00000060: a218 34be 547a a2be df14 ee3d 2325 41be
00000070: 4855 4c3e 1845 013d 25ed ab3e 20ec 5dbd
00000080: 726c 693e 9d9d 003f c2b2 a8be 7195 e03e
00000090: ffd7 c63e afa6 a03e 1045 b1bd f6db ab3e
000000a0: 3793 e53e 3871 03bf 8098 4b3e 33bc 35be
000000b0: 08fd 3ebe 2a5e d4be ac1c a63e 8aff c2be
000000c0: b818 f03e e27e ce3e c2e9 a63b 93f0 a63e
000000d0: 3076 c0bd 4c48 a33e a0a2 19bd d8b3 ccbd
000000e0: 78f7 32bd 50f6 ba3e 14e5 dabe f846 333e
000000f0: 3538 873e c282 b7be d81b 04bc 65dc 41be
00000100: e99f f9be c10f d5be 6989 c73d 1111 c3bd
00000110: b31b c1be 06a4 e73e f2e1 8cbe 4942 c8be
00000120: 6032 09be 2823 dcbe 84a3 9c3e 461a ddbe
00000130: d6bc fabe 7266 bb3e 4cf4 31be 1c0f 843e
00000140: f35c dfbc 0d49 d83e d177 c1be c047 c53d
00000150: 2458 7ebe 2abb 833e e829 8bbd 1073 3bbd
00000160: 724b fe3d 32a9 343e ba6b 953e b0ab a53e
00000170: a888 92be 743d f5be 0aed 9f3e 5641 e3be
00000180: cdb4 df3e c8f8 cf3e 7721 e5be c7ca d1be
00000190: 4d7a 723e ce59 ab3d 0496 babe 505e 913d
000001a0: 2bd3 8a3e 8429 15bf d971 8a3e d109 35be
000001b0: 80a1 67bd a4e8 23be 26d8 b7be d812 d63e
000001c0: c2dc 5bbd c0c1 d53e 6365 94be d87f 82be
000001d0: 6881 83be 5f62 013f d427 c03e 6a96 8f3e
000001e0: c722 0fbe d544 63bd dea4 9c3e d70d febe
000001f0: a045 a8bc d060 7cbe 0c91 a8be 3048 713e
00000200: d791 77be 935f e13e 45f9 e63e d11a 223e
00000210: be5d 93bd e804 d33e 7285 d2be f576 bbbe
00000220: 7897 1dbe 3824 ef3e 098b f43e 2104 fc3c
00000230: b8bf 7bbe 1676 993e c37d ac3d b3e2 d3be
00000240: b6f8 b0be e244 ebbe cca5 d53e c676 b53e
00000250: e2cd d23e 0703 7abe 6fb6 9a3d d649 cf3e
00000260: 4076 df3c 784e ce3d 8e2e 863e e8ae 45be
00000270: ab2a 0d3e 70b0 bc3e df8e c53e a90b af3e
00000280: 88f3 48be 18da 83bd 3a49 cbbe a67d 8fbe
00000290: 2ae8 353d de47 c93e 7ec3 d93e 620c a3be
000002a0: 63d8 7bbe 5f62 013e feb7 5cbe 54cd f53e
000002b0: d717 ab3e 415e 94be 8d64 c2be 2728 163e
000002c0: 4829 523d 1031 febc c74b eb3d 5ec8 043e
000002d0: c4a3 443e 56ab 7c3e cd9d 753e c07f febe
000002e0: 5525 34bd 287f 5b3e 5fe4 cabe d994 aabe
000002f0: 90c8 16bd 68a4 92bd 78d2 8dbd 60df bd3d
00000300: 4835 de3e 74c8 ddbe fd37 b33e 533f b2be
00000310: dd11 e53e 2c83 cd3e dea8 72be 7c1e 40be
00000320: 4853 e63c ce99 9bbe 219d f13e d4b9 a5be
00000330: 4459 3d3e a840 c6be 06b1 f93e d919 d53e
00000340: e4ce 3cbe a04a afbc 24ff 373e 8009 68bc
00000350: 6c79 adbe cb44 de3e a4d0 0c3e f9b8 f93e
00000360: 9a5e bc3d 1531 94be 1706 a1bc 4790 ea3e
00000370: 08b4 ce3d 1a4a 5c3d 917d 80be 3d3a 69be
00000380: 4457 31be 1853 30be 7e27 d83e 2403 7d3e
00000390: c441 b1be 06aa bb3e 103a 33be 00a0 eaba
000003a0: 1ac0 713e 0fb8 9dbd ee42 2cbe c0f1 eb3b
000003b0: 0bba ef3e cbdb e2bd 3142 30bc c211 f33e
000003c0: 0398 13bd 30cb 8b3e 5198 a7be 69d4 c63e
000003d0: 2033 bbbc 04dd a73e ee33 f03e 60e2 e3bc
000003e0: 2ff1 5fbe d01a adbd cefd 663c 42a8 ad3d
000003f0: 44d0 9fbe 2a6e a93e 2a90 99be 58c0 ecbd

model.0.bias f4 [128]
0.44763127 -0.07979427 -0.26591653 -0.3388564 0.13254072 -0.31298268 0.54287875 0.30191076
-0.3349856 -0.0341216 0.30465534 0.033464193 -0.34364754 -0.38150692 0.0052762046 0.4775871
0.4675142 0.3980946 -0.15827173 -0.33046788 -0.106039874 -0.3849947 -0.42519495 -0.08178115
-0.02820748 -0.029617893 0.031375762 -0.012213647 0.06467448 -0.29578117 0.30931726 0.090334
0.29760063 0.1815099 0.12283569 0.44248462 -0.05071026 -0.19883013 -0.30300516 -0.5283309
-0.16685992 0.056416593 0.44450507 -0.580516 0.18283066 -0.29280815 0.4974966 -0.11710763
0.23116004 -0.24361123 0.04962253 -0.37614852 -0.427549 -0.22177343 -0.24226096 -0.028349338
-0.18089235 -0.40051472 0.09892599 0.2154203 -0.009560413 -0.49602056 0.32744867 -0.46391177
0.02707966 -0.5252212 0.17363657 -0.2510569 -0.37838188 -0.047449227 0.3245922 0.04230549
-0.38415906 0.085285425 0.27072778 -0.025384486 0.018221486 0.40193275 -0.09025271 0.39140376
0.26168513 0.44835648 -0.3780036 -0.31378138 -0.33624056 -0.4227207 0.23895 0.11501963
0.46615192 -0.4630378 0.34848028 -0.15323007 -0.19479266 0.6813961 0.29394504 0.32334548
-0.08159474 -0.14882773 -0.43559903 -0.1296859 -0.3558998 -0.25593466 0.004818928 0.05561647
0.43805942 -0.46497193 0.7128212 -0.08810294 0.32912344 0.13322568 0.51283425 -0.1332069
0.27058557 0.35630846 -0.4387344 -0.35948312 0.3906911 -0.29855448 -0.0048986566 -0.16179907
-0.098051906 -0.40328687 -0.47479987 -0.07250947 -0.1745895 -0.18798326 0.17972599 0.034323696
00000000: ed2f e53e 2e6b a3bd 3626 88be 967e adbe
00000010: c1b8 073e 443f a0be 1afa 0a3f 0c94 9a3e
00000020: 3c83 abbe 17c3 0bbd c9fb 9b3e c011 093d
00000030: 92f2 afbe e054 c3be 03e4 ac3b 4c86 f43e
00000040: 055e ef3e 0ed3 cb3e fc11 22be 1633 a9be
00000050: 6f2b d9bd 061e c5be 27b3 d9be e07c a7bd
00000060: 6013 e7bc 39a1 f2bc df83 003d c01b 48bc
00000070: 0e74 843d a170 97be d55e 9e3e 0801 b93d
00000080: 1c5f 983e bbdd 393e 4791 fb3d 588d e23e
00000090: 90b5 4fbd 209a 4bbe 7e23 9bbe b240 07bf
000000a0: 54dd 2abe 1615 673d 2b96 e33e b29c 14bf
000000b0: f637 3b3e f3ea 95be e0b7 fe3e 20d6 efbd
000000c0: 38b5 6c3e 3975 79be fe40 4b3d 8a96 c0be
000000d0: b4e7 dabe 9318 63be 4213 78be df3c e8bc
000000e0: d83b 39be 4410 cdbe b699 ca3d 2497 5c3e
000000f0: 47a3 1cbc 68f6 fdbe 5aa7 a73e d885 edbe
00000100: 2ad6 dd3c e674 06bf c9cd 313e 888a 80be
00000110: 45bb c1be 1f5a 42bd f330 a63e 8548 2d3d
00000120: 7fb0 c4be 20aa ae3d d59c 8a3e 20f3 cfbc
00000130: 3a45 953c 21ca cd3e 6ad6 b8bd 1366 c83e
00000140: 98fb 853e fb8e e53e b089 c1be f4a7 a0be
00000150: b927 acbe d96e d8be 4faf 743e 698f eb3d
00000160: 77ab ee3e 4a13 edbe 026c b23e 58e8 1cbe
00000170: ba77 47be fa6f 2e3f f77f 963e 8a8d a53e
00000180: 251b a7bd 4c66 18be d606 dfbe 61cc 04be
00000190: 8038 b6be de09 83be 19e8 9d3b 18ce 633d
000001a0: 5349 e03e cd10 eebe 737b 363f 506f b4bd
000001b0: de82 a83e 506c 083e 1b49 033f 6467 08be
000001c0: 318a 8a3e 106e b63e cca1 e0be 2c0e b8be
000001d0: aa08 c83e 22dc 98be e984 a0bb a8ae 25be
000001e0: 70cf c8bd 9e7b cebe f818 f3be d87f 94bd
000001f0: 97c7 32be af7e 40be 170a 383e 0197 0c3d

model.2.weight f4 [1, 128]
0.046890106 -0.027577076 -0.11890052 -0.12662208 0.081010506 0.013334386 -0.30863163 0.024677763
-0.10915652 0.003634525 0.12675421 0.06361178 -0.101426035 0.034793854 0.045104913 0.06301603
-0.024771472 0.0021531435 -0.07206174 -0.06904241 0.028990721 -0.08671989 -0.21024346 0.008567959
-0.0416395 0.024151018 0.24335013 -0.07835199 0.05275431 0.09709752 -0.12836131 0.008439176
-0.25438294 0.05055941 -0.22298066 -0.096405186 -0.08571302 0.08289792 0.04151959 -0.26692504
0.003786832 -0.0036046905 -0.19636966 -0.2872049 -0.03993729 -0.06060885 0.10554832 -0.044975627
0.025707394 -0.037879806 0.07539095 -0.27498087 -0.032789417 0.07887479 0.15714942 0.055157624
0.0054105 -0.06281735 0.08866044 -0.0007008351 0.049917724 -0.020871937 -0.059923053 -0.007888861
-0.055164322 0.55032593 0.12894732 0.04756739 -0.20856936 0.041770473 0.08136064 0.0117077
-0.25372887 0.072478995 0.2927945 0.037613414 -0.08949557 -0.011441837 -0.09281292 -0.21002957
0.06802071 0.30419242 -0.018526077 0.05031445 -0.057108592 -0.07219866 0.054730166 0.05550885
-0.250738 -0.056005068 -0.24844027 -0.08149835 -0.0075327754 0.49308 -0.02710233 0.23546718
-0.010062989 0.0045052543 -0.115676716 0.14525616 -0.27581257 -0.23251915 0.036271945 -0.045037813
0.026486086 -0.12455252 0.5591554 -0.03100718 0.1041063 0.065189525 0.47921494 -0.047783814
0.10233848 -0.25463432 -0.21565545 0.040416844 0.107813954 0.07435354 0.010686837 0.03384108
-0.02170553 0.042353846 0.046791427 0.07612672 0.0567602 -0.03417151 0.039490562 -0.09045455
00000000: d70f 403d 52e9 e1bc 1e82 f3bd 38a9 01be
00000010: d6e8 a53d 7878 5a3c f704 9ebe 0529 ca3c
00000020: 748d dfbd 3631 6e3b dbcb 013e e546 823d
00000030: 74b8 cfbd 0084 0e3d eebf 383d 8c0e 813d
00000040: 8bed cabc c11b 0d3b 1b95 93bd 1b66 8dbd
00000050: f37d ed3c 339a b1bd 104a 57be a060 0c3c
00000060: 2e8e 2abd 5bd8 c53c c730 793e 0277 a0bd
00000070: e714 583d 11db c63d 2671 03be 7844 0a3c
00000080: 7b3e 82be 6217 4f3d 0b55 64be 1570 c5bd
00000090: 4f8a afbd 62c6 a93d 7210 2a3d 66aa 88be
000000a0: 802c 783b ac3c 6cbb 2115 49be 850c 93be
000000b0: 4995 23bd fc40 78bd b829 d83d 5d38 38bd
000000c0: 5098 d23c db27 1bbd 9266 9a3d 4bca 8cbe
000000d0: 324e 06bd 1b89 a13d c7eb 203e f6ec 613d
000000e0: 904a b13b 62a6 80bd 9b93 b53d 3fb8 37ba
000000f0: 8776 4c3d a0fb aabc e071 75bd 4840 01bc
00000100: fcf3 61bd 29e2 0c3f c40a 043e 06d6 423d
00000110: 3593 55be 8417 2b3d 68a0 a63d a7d1 3f3c
00000120: c0e8 81be de6f 943d 29e9 953e 8610 1a3d
00000130: 7449 b7bd 8b76 3bbc b314 bebd fe11 57be
00000140: 714e 8b3d 1cbf 9b3e 00c4 97bc 8616 4e3d
00000150: b3ea 69bd e4dc 93bd bd2c 603d 3f5d 633d
00000160: bb60 80be 9265 65bd 2067 7ebe 9be8 a6bd
00000170: 80d5 f6bb fb74 fc3e b505 debc 4f1e 713e
00000180: 3cdf 24bc d0a0 933b eae7 ecbd 08be 143e
00000190: 4e37 8dbe 8019 6ebe e491 143d 9279 38bd
000001a0: 59f9 d83c 6415 ffbd cf24 0f3f c502 febc
000001b0: af35 d53d 1682 853d a95b f53e f6b8 43bd
000001c0: d696 d13d 6e5f 82be c8d4 5cbe 228c 253d
000001d0: 90cd dc3d ab46 983d d817 2f3c f29c 0a3d
000001e0: cccf b1bc 3a7b 2d3d 5ea8 3f3d 53e8 9b3d
000001f0: 627d 683d 6df7 0bbd dbc0 213d 3c40 b9bd
