neuralq6.pt (torch, 5208 bytes, 3 tensors)

model.0.weight f4 [128, 4]
0.33527905 0.47828823 0.4818407 0.14600103 -0.40756366 0.32018474 -0.2585814 -0.42705074
-0.3728866 0.26073098 0.08788431 -0.46875137 -0.31422865 -0.3909689 0.18297331 0.28202736
-0.3748396 -0.35521764 0.2574042 0.13221484 -0.06138569 0.23727822 0.37891454 0.47938764
0.23179157 0.15874718 0.18362415 0.36755976 0.3452675 -0.07915695 0.04218418 -0.39126706
0.28008866 0.24560641 0.157679 -0.08725379 -0.29020607 -0.33652055 -0.3251058 0.4552617
0.33668 0.19814226 -0.05264777 -0.4946677 -0.043415986 -0.4231023 0.023705456 -0.2095887
-0.07996827 -0.31183305 -0.30356768 0.49763995 0.014793872 -0.12625489 0.37545094 -0.2868937
-0.2662398 -0.17122374 0.13830388 0.3032237 -0.12484085 0.8774313 0.01800118 0.42179295
0.36438522 0.37085295 0.2657943 -0.04367147 -0.41408542 -0.27477273 -0.2870204 -0.24338607
-0.28029734 -0.4389184 -0.39517182 -0.47324008 -0.2902455 0.2085595 0.17714188 0.3597932
-0.2274238 -0.3908984 -0.4078549 0.20939726 0.056923717 0.51112586 -0.09909854 0.13996454
-0.4396221 -0.34307128 -0.03531623 0.05811745 0.0698363 -0.5109364 0.5971034 -0.41867155
0.085234046 -0.0323459 0.4103048 0.22868499 0.050356563 0.26677275 0.14110278 0.09743454
-0.11601758 -0.0343709 0.44449407 0.44921845 -0.44055247 0.2661285 0.2596422 0.095519505
-0.045959294 0.14412534 -0.40020818 0.10356939 -0.49747062 0.010590275 -0.42442062 0.30514884
-0.002406478 -0.2588504 -0.32933474 -0.2706831 0.0928287 0.23255576 -0.38614643 -0.08523703
0.24792069 0.40681124 -0.22109734 0.037073 0.3239424 0.36588028 0.5269389 0.32248923
-0.11828333 0.21170324 0.14865567 0.20700772 0.39143065 -0.023034409 0.027992178 0.15923937
0.4241893 -0.18088627 -0.05149959 0.02409276 0.1693882 0.51586854 -0.44800177 0.44251308
-0.40697506 0.14550374 -0.42501038 0.4837075 -0.040442362 -0.10086031 0.47497633 -0.47517392
-0.013989475 0.06133164 0.44883764 0.30632177 0.2718719 -0.040569853 0.28149453 -0.46505967
0.12664956 -0.41045994 -0.32357883 -0.45518953 0.30393684 -0.21269277 -0.04568374 0.47104964
-0.19014317 0.318776 0.4901682 0.329853 0.105438426 -0.20700432 0.25372878 -0.0020439043
0.20627302 0.23529822 -0.33622035 -0.50864965 -0.36921299 0.1957773 -0.18741566 -0.34046012
0.33971673 -0.91285396 0.36020818 -0.2132707 -0.22880372 0.6000324 0.2729134 0.18320754
0.23846674 -0.51075 0.22124335 -0.33000848 0.21910548 -0.15753733 0.45499983 0.14602832
0.115166515 -0.3931223 -0.45148867 -0.4772094 0.34467083 0.2663872 0.45689213 0.45768327
-0.44874328 0.15831834 0.19567615 -0.28864336 -0.015543342 0.1495167 -0.22891665 -0.4278342
0.1381677 -0.15460406 0.14831011 0.34567955 -0.37517512 0.38929483 0.16985357 0.28427574
-0.43494803 -0.012162209 0.15950191 -0.3289624 0.24063098 -0.203812 0.06566296 -0.4466088
-0.36360508 -0.45498043 -0.31978613 -0.3323744 -0.09486767 -0.06603855 0.35250363 0.21407267
-0.2183646 0.036011636 0.4057114 0.3441481 0.2911896 0.44269106 0.40885964 -0.5026904
00000000: b2a9 ab3e 32e2 f43e d3b3 f63e 4b81 153e
00000010: 2fac d0be 41ef a33e c864 84be 65a6 dabe
00000020: feea bebe 887e 853e b0fc b33d 2e00 f0be
00000030: 94e2 a0be 132d c8be 5b5d 3b3e e465 903e
00000040: faea bfbe 16df b5be 7cca 833e 5463 073e
00000050: 906f 7bbd 10f9 723e 1601 c23e 4c72 f53e
00000060: c55a 6d3e 9f8e 223e f807 3c3e cb30 bc3e
00000070: e7c6 b03e 0a1d a2bd 52c9 2c3d 2854 c8be
00000080: c867 8f3e 3f80 7b3e 9b76 213e 1db2 b2bd
00000090: e495 94be 6c4c acbe 4474 a6be 1018 e93e
000000a0: 5261 ac3e cee5 4a3e 30a5 57bd 1645 fdbe
000000b0: f6d4 31bd dda0 d8be f231 c23c 6c9e 56be
000000c0: 68c6 a3bd 95a8 9fbe 396d 9bbe aaca fe3e
000000d0: ff61 723c f648 01be 1b3b c03e bbe3 92be
000000e0: 9550 88be 4755 2fbe 889f 0d3e 2340 9b3e
000000f0: 8fac ffbd 569f 603f 3677 933c 3ff5 d73e
00000100: b390 ba3e 70e0 bd3e 3116 883e dbe0 32bd
00000110: 0103 d4be 03af 8cbe 56f4 92be 333a 79be
00000120: 2283 8fbe eab9 e0be f653 cabe 864c f2be
00000130: 0f9b 94be 9f90 553e ae64 353e d036 b83e
00000140: c9e1 68be d623 c8be 5cd2 d0be 3c6c 563e
00000150: d828 693d 25d9 023f 2df4 cabd dd52 0f3e
00000160: 2616 e1be 0aa7 afbe c0a7 10bd 900c 6e3d
00000170: 5606 8f3d bacc 02bf c5db 183f 1e5c d6be
00000180: 308f ae3d 227d 04bd 7913 d23e 662c 6a3e
00000190: af42 4e3d 7096 883e 3f7d 103e c38b c73d
000001a0: a09a edbd 80c8 0cbd ba94 e33e f6ff e53e
000001b0: 1890 e1be ff41 883e d3ef 843e bb9f c33d
000001c0: d03f 3cbd 9895 133e 16e8 ccbe 301c d43d
000001d0: 78b4 febe d582 2d3c a94d d9be 783c 9c3e
000001e0: 00b6 1dbb 0a88 84be 909e a8be fa96 8abe
000001f0: f91c be3d 1923 6e3e fcb4 c5be c190 aebd
00000200: ecde 7d3e 9049 d03e 5767 62be dcd9 173d
00000210: c7db a53e a954 bb3e 78e5 063f 4f1d a53e
00000220: 883e f2bd bcc8 583e 3139 183e d5f9 533e
00000230: 9969 c83e a8b2 bcbc da4f e53c a50f 233e
00000240: 572f d93e 403a 39be 3cf1 52bd 2e5e c53c
00000250: 1a74 2d3e f60f 043f 7d60 e5be 1391 e23e
00000260: 095f d0be effe 143e f69a d9be 82a8 f73e
00000270: e4a6 25bd da8f cebd 1930 f33e ff49 f3be
00000280: 1c34 65bc e336 7b3d 0cce e53e 35d6 9c3e
00000290: cb32 8b3e 932c 26bd 0d20 903e 4d1c eebe
000002a0: 6cb0 013e ce27 d2be 20ac a5be 9a0e e9be
000002b0: 9c9d 9b3e 22cc 59be e01e 3bbd 6b2d f13e
000002c0: e4b4 42be 9c36 a33e 54f7 fa3e 7ee2 a83e
000002d0: 1af0 d73d f1f8 53be bde8 813e 06f3 05bb
000002e0: 3c39 533e 04f2 703e 1325 acbe dd36 02bf
000002f0: 7c09 bdbe d879 483e e4e9 3fbe ca50 aebe
00000300: 5aef ad3e ccb0 69bf 356d b83e a263 5abe
00000310: 864b 6abe b99b 193f 4ebb 8b3e c29a 3b3e
00000320: a030 743e 83c0 02bf 9e8d 623e dff6 a8be
00000330: 305d 603e 7751 21be bdf5 e83e 7388 153e
00000340: 6cdc eb3d 5347 c9be 8629 e7be ca54 f4be
00000350: b278 b03e e763 883e c4ed e93e 7655 ea3e
00000360: aec1 e5be 341e 223e 545f 483e 10c9 93be
00000370: 80a9 7ebc e81a 193e 2069 6abe 160d dbbe
00000380: d57b 0d3e 8750 1ebe 9bde 173e e9fc b03e
00000390: f416 c0be a751 c73e 18ee 2d3e 978c 913e
000003a0: 82b1 debe 0044 47bc 7854 233e c26d a8be
000003b0: f867 763e 18b4 50be 4d7a 863d e9a9 e4be
000003c0: 722a babe 32f3 e8be 02bb a3be fa2c aabe
000003d0: fb49 c2bd 383f 87bd 5b7b b43e de35 5b3e
000003e0: f89a 5fbe f080 133d 68b9 cf3e 2e34 b03e
000003f0: ce16 953e 67a8 e23e 0d56 d13e 51b0 00bf

model.0.bias f4 [128]
-0.102165565 0.041962434 -0.24649024 1.1275388 -0.21367753 -0.47095895 -0.61118567 -0.08295117
0.28721884 0.08536881 -1.1061277 0.5675629 0.45106122 0.30158216 0.9471418 -0.27909097
-0.05649645 0.3487999 -0.46717757 0.82369816 0.62778807 0.10415492 0.11495292 0.025158864
0.4560733 0.4478196 -0.37177253 0.17349175 -0.3407293 0.05248035 0.028201163 -0.29275048
0.4159463 -0.41130465 0.26531407 0.026611863 -0.070827134 0.13754699 -0.19875205 0.37510094
-0.056234576 0.42262554 -0.47303224 -0.09837891 -0.4184596 -0.41888115 -0.83156073 -0.26842135
-0.12850821 0.10663816 0.5279108 0.44098464 -0.01457331 0.15623575 -0.35195488 -0.2371766
0.21466614 0.33669907 -0.057772636 -0.68030906 -0.16072923 0.49429938 -0.10428703 -0.22998607
-0.13244276 -0.37602586 0.47231138 0.2973018 0.055305745 0.021026501 0.03616854 -0.028363151
-0.038593836 -0.2750178 -0.59653527 -0.18983904 0.27608746 0.08283462 0.06849604 0.0912474
0.35949147 0.117101826 0.13110223 -0.12761417 0.52668184 0.24285127 0.16266213 -0.20227838
0.4024063 0.049858395 0.0024653673 0.046570156 0.3780501 -0.004559166 0.37794116 -0.27556872
-0.3001849 0.09411389 0.11519944 -0.41069824 0.3466222 -0.4630168 -0.19243006 -0.050877664
0.3266142 0.15093389 0.44923884 -0.15272179 -0.4278685 0.17749205 0.110481024 -0.13587818
-0.008643757 -0.072813906 0.10966292 0.5355008 0.46217552 0.20212321 -0.11507778 -0.61529225
-0.36349732 0.32908365 0.4024909 0.14597416 -0.059998214 0.45095086 0.050023664 0.07140255
00000000: 2e3c d1bd cde0 2b3d f067 7cbe 3153 903f
00000010: 48ce 5abe 8821 f1be aa76 1cbf 4ee2 a9bd
00000020: 590e 933e d8d5 ae3d 9895 8dbf cd4b 113f
00000030: 7ff1 e63e fa68 9a3e e377 723f 03e5 8ebe
00000040: d268 67bd e795 b23e e631 efbe e2dd 523f
00000050: b8b6 203f 2d4f d53d 706c eb3d f619 ce3c
00000060: 7182 e93e 9c48 e53e f858 bebe d2a7 313e
00000070: 1274 aebe a3f5 563d 2006 e73c 64e3 95be
00000080: eaf6 d43e 8696 d2be 3fd7 873e 1f01 da3c
00000090: d10d 91bd 1ed9 0c3e a885 4bbe 3b0d c03e
000000a0: 3a56 66bd 6062 d83e 4831 f2be e27a c9bd
000000b0: 5640 d6be 9777 d6be 2ae1 54bf 866e 89be
000000c0: a897 03be 1c65 da3d 2a25 073f bdc8 e13e
000000d0: e4c4 6ebc 44fc 1f3e 6e33 b4be 6cde 72be
000000e0: 71d1 5b3e d263 ac3e 00a3 6cbd bc28 2ebf
000000f0: 3496 24be cf14 fd3e 7094 d5bd 7881 6bbe
00000100: 139f 07be 7686 c0be ccd2 f13e f137 983e
00000110: 4788 623d c53f ac3c 7725 143d d759 e8bc
00000120: 9214 1ebd 22cf 8cbe 89b6 18bf 2a65 42be
00000130: 565b 8d3e 32a5 a93d a747 8c3d ebdf ba3d
00000140: 440f b83e 15d3 ef3d aa3f 063e 4aad 02be
00000150: 9fd4 063f 01ae 783e e790 263e 1022 4fbe
00000160: 3308 ce3e 5138 4c3d 0092 213b 59c0 3e3d
00000170: c88f c13e 0e65 95bb 8181 c13e 5817 8dbe
00000180: d6b1 99be c8be c03d afed eb3d 0a47 d2be
00000190: 7778 b13e 8a10 edbe 630c 45be 1965 50bd
000001a0: fa39 a73e 6a8e 1a3e a202 e63e 1a63 1cbe
000001b0: 9411 dbbe 7ac0 353e e043 e23d a623 0bbe
000001c0: 8b9e 0dbc 751f 95bd f496 e03d 9516 093f
000001d0: 45a2 ec3e 63f9 4e3e e6ad ebbd cb83 1dbf
000001e0: 521c babe a77d a83e 4a13 ce3e 407a 153e
000001f0: b0c0 75bd 08e3 e63e 9de5 4c3d 803b 923d

model.2.weight f4 [1, 128]
0.20259954 -0.1437995 -0.03894924 1.0877388 -0.021539427 -0.082779825 0.39333624 0.004845664
0.087037876 0.065736465 0.91572136 -0.3349634 0.46079418 -0.06543244 0.89542496 -0.65852445
0.19687262 -0.06326129 0.025647424 0.5527736 0.21921709 0.23345758 0.021815874 -0.5177973
-0.14674148 -0.009313654 -0.06310401 -0.006609461 0.08641162 -0.101716734 0.040532015 0.18063736
0.104503244 0.26580468 0.1646033 0.08091935 -0.09680638 0.14862289 -0.029847806 -0.20433077
-0.095229134 -0.013812453 0.025658198 -0.03908095 -0.086924426 0.08041376 0.7971662 -0.06293771
-0.6363778 -0.3797171 -0.26209798 -0.16293916 -0.22499292 0.08984805 0.023413852 -0.008653738
-0.056937773 -0.05586291 0.013812609 0.47086668 -0.012071282 -0.15802905 0.08341975 0.27519107
-0.06235335 0.0425506 0.012090146 -0.06968656 0.009651673 0.24198344 -0.08629028 -0.016642092
-0.6229302 0.012273498 0.6872015 0.14880082 0.05919655 -0.092538424 0.19267017 -0.71902394
-0.2641171 -0.40499258 -0.37198734 -0.529436 -0.2656805 0.13266046 0.16034912 -0.023028605
0.03495632 -0.11276705 -0.04750384 -0.059545394 0.025790911 -0.07389133 -0.20400622 0.21186584
0.026815481 -0.016311862 -1.0269572 0.062264837 -0.12526295 0.036414042 -0.13747308 -0.055126395
0.04456495 -0.41219854 -0.12571767 -0.09961016 -0.04002546 0.071731776 -0.23159859 0.2937508
-0.11873862 -0.06673166 -0.12300866 -0.28426662 0.08474636 0.14350435 0.14182623 0.32186645
0.06227068 0.024589032 -0.23368305 -0.71712786 -0.059568815 -0.113238856 -0.041460242 0.07173612
00000000: 4176 4f3e 2d40 13be 3d89 1fbd 063b 8b3f
00000010: 7473 b0bc 7888 a9bd 5e63 c93e 60c8 9e3b
00000020: ea40 b23d d7a0 863d b76c 6a3f 5380 abbe
00000030: 37ed eb3e 7101 86bd 923a 653f 0f95 28bf
00000040: fa98 493e 238f 81bd 8c1a d23c 9282 0d3f
00000050: 727a 603e 810f 6f3e 34b7 b23c 5d8e 04bf
00000060: 6643 16be 4c98 18bc ad3c 81bd 2d94 d8bb
00000070: 93f8 b03d dd50 d0bd e604 263d 00f9 383e
00000080: cc05 d63d 8d17 883e c48d 283e 0bb9 a53d
00000090: 6c42 c6bd 9930 183e 6383 f4bc 163c 51be
000000a0: 7e07 c3bd a04d 62bc 2431 d23c 5913 20bd
000000b0: 6f05 b2bd f8af a43d 1613 4c3f 7ce5 80bd
000000c0: a8e9 22bf 486a c2be b531 86be 86d9 26be
000000d0: 8b64 66be 4102 b83d 68ce bf3c 68c8 0dbc
000000e0: 9537 69bd 82d0 64bd 484e 623c 7015 f13e
000000f0: a0c6 45bc 5ed2 21be f9d7 aa3d d8e5 8c3e
00000100: 3a66 7fbd 8a49 2e3d bf15 463c d4b7 8ebd
00000110: 0d22 1e3c 82ca 773e f5b8 b0bd ff54 88bc
00000120: 5b78 1fbf c816 493c 70ec 2f3f 3e5f 183e
00000130: 1578 723d c984 bdbd 544b 453e f411 38bf
00000140: 5b3a 87be 305b cfbe 2075 bebe 1e89 07bf
00000150: 4607 88be 25d8 073e 8f32 243e 7ca6 bcbc
00000160: 5c2e 0f3d 69f2 e6bd 6393 42bd dfe5 73bd
00000170: 7647 d33c 5654 97bd 02e7 50be 5cf3 583e
00000180: 24ac db3c 74a0 85bc 5573 83bf 6a09 7f3d
00000190: ee44 00be e426 153d bec5 0cbe 37cc 61bd
000001a0: bd89 363d b00b d3be 22bc 00be 6900 ccbd
000001b0: bdf1 23bd 1ce8 923d 2e28 6dbe 8166 963e
000001c0: 3c2d f3bd 9caa 88bd f7eb fbbd 658b 91be
000001d0: 808f ad3d cef2 123e e53a 113e aecb a43e
000001e0: 8a0f 7f3d f06e c93c 9c4a 6fbe b195 37bf
000001f0: 6efe 73bd c6e9 e7bd 37d2 29bd 63ea 923d
