neuralq4.pt (torch, 5208 bytes, 3 tensors)

model.0.weight f4 [128, 4]
00000000: 1429 67be 5322 3a3e 54db 883e a3a4 ef3e
00000010: 64bf f9be 461a b43e f47f 583e a048 d1be
00000020: 7065 a8be 6092 c1be a4d6 5fbe 982a fb3d
00000030: c360 00bf 09e9 b9be 4cb8 7cbd 6e89 8dbe
00000040: 53ce e2be 3813 a93d ad43 f83e 6f81 77bd
00000050: 802a 673e 164a c43e 89ec d83e d704 debe
00000060: f305 38bd 314f 30bc cdbb e63e 6977 43be
00000070: f2fe c83e 15ef cebe 1755 243d ba46 bebe
00000080: 02f8 b43e 7104 c33e b7f6 a73c 52ed 86be
00000090: df5e c33c 63a4 f53e 96f4 c9be 56f7 c7be
000000a0: 61fb 1b3e 1760 03bf f018 aebe 6d33 11be
000000b0: d004 013e fd93 7b3e a267 d23e e561 7abe
000000c0: d522 9d3e 6db6 de3e ea43 ad3e 5d61 b2be
000000d0: 88d4 ee3d a8f7 c5be 3ad6 93be a0ad 53bd
000000e0: a03d eabd 744e d5be 2a59 a2be 447c c6be
000000f0: b040 f2be 9bba 26be 5720 80be 3dfe 62bd
00000100: ba60 183e 8c8c 96be 7a7a e73e 4106 143e
00000110: acc3 403e 3460 1d3e 08fc 433d 498e 24be
00000120: a343 80bd 87a8 e03d 6bf7 9cbe 78cf 2cbe
00000130: 4eb7 edbe 583c 9dbd 3872 f3bd 98b6 d63e
00000140: 7a46 3f3e f619 903e 4a29 423e beb5 1abe
00000150: ce45 f5be 5e8f a6be f4c1 4e3e 9814 c0bd
00000160: 798e 323d 5a2e aebe 39b8 89be a928 2cbe
00000170: 6ac2 e43e cabe bd3d cf6d 5e3e 4431 d33e
00000180: eb79 af3e 544e e13e 09c2 363e 63d9 cebe
00000190: 48b4 6a3e bf2b bb3e 7c24 85be 292e febd
000001a0: 6ecd b53e 35a5 2bbe 5a5d e93d fc6e 8fbe
000001b0: 5018 c5bd c065 55bd 28ea 4d3e bc69 96be
000001c0: 2ea7 c13d 4944 343e dbb7 d23e 96df c03d
000001d0: 6e70 42be c56d 0dbd e7cc c53e 6e41 ebbd
000001e0: c10b a13e 1022 63bc 7f24 ef3e 49f7 aebc
000001f0: 1a9b 1f3e 5fe5 c8bd 6144 ccbe 86fd bfbe
00000200: 8130 123e 7e7d e43e b942 943e 138b 85be
00000210: dd05 9e3d 2ef4 823d b77b a23e cd40 50be
00000220: 9a9f bb3e 18df 073e 6df1 03bd f02b 823d
00000230: 790e af3e 78cf b2be a316 9f3d a483 ecbd
00000240: 503f e6be c0a7 50be b4e5 bbbe 007b 62bc
00000250: 1974 663e c045 233d ae35 8ebd 2f03 45bc
00000260: 1a1e acbe f9f3 513e 37a6 e2be 4402 cabe
00000270: c0e3 82bc e082 2cbd 001d 7e3e 50b1 523d
00000280: 3589 083e e9f5 de3d 3e03 adbe b850 083d
00000290: 0051 033e 81f4 f6be a63c b63e 12e5 9cbe
000002a0: fa40 babe f4bf c13e c0f2 37bc feef cdbe
000002b0: 8c5f 373e 597f 5e3e a8d2 e43e 8a42 78be
000002c0: 6e14 a4be c609 c4be be01 cb3e 4c9b 803e
000002d0: 8cf3 6fbe f003 d9be 9ae9 9e3e 28b8 513e
000002e0: 81fb d3be ce34 213e 17a6 f73e 2d53 60be
000002f0: 00d8 6abd 58d1 143e 8a26 e73e dcd5 b0be
00000300: 606d 0e3d 60e3 90bd 7cd7 f5be 0227 8e3e
00000310: 9086 59bd 9012 d73e f87f 953e 0ec9 e13e
00000320: 2f88 b1be 3203 d83e e3e7 41be 0eae dcbe
00000330: f8fd 8cbd 98ae f8be 16d4 f23e c482 0b3e
00000340: 0ba0 dd3e 3815 35be 6cea 54bb 1666 8f3e
00000350: fc14 31be e495 31be 3e9b 973e 04bc eebe
00000360: 27be 8cbe 3b45 503e 0852 27be 56d8 fabe
00000370: c0f6 5fbe 7030 aa3e a6e7 89be 0c02 cd3e
00000380: 608d cb3e c0f2 b03e 163b 1bbe 89d6 883e
00000390: db54 7b3d a2e3 033e a3c7 0abc 14ae e23e
000003a0: 6ea7 223d 87ff d33e 1c4f 9a3e a037 ef3d
000003b0: 1aae fcbe 2e2a abbe 8074 d63c fa6f e5be
000003c0: d0ee a73e 3836 053e 31a0 e83e a27a 773d
000003d0: 6ff5 f23e f8c7 b13e a72d 9cbd 269d b83c
000003e0: d9eb 673c eb60 febc 5c9c b23e 0525 da3e
000003f0: 91ce 5abd 7648 c13e bba6 e13e 32fb dc3e
-0.22574264 0.18177156 0.26729834 0.46805295 -0.48778832 0.35176295 0.2114256 -0.4087572
-0.3288989 -0.37806988 -0.21859223 0.122639835 -0.50147647 -0.36310604 -0.061699197 -0.27643913
-0.44298038 0.08255619 0.48489133 -0.060426172 0.22574806 0.38337773 0.42367962 -0.43363068
-0.04492755 -0.010761068 0.45065156 -0.1908852 0.39257008 -0.4041678 0.04012021 -0.37163335
0.35345465 0.38089326 0.020503385 -0.26352936 0.023848949 0.4797698 -0.39444417 -0.3905589
0.15232612 -0.51318496 -0.340034 -0.14179774 0.12599492 0.24568172 0.4109469 -0.24451406
0.30690637 0.43498555 0.33840877 -0.34839907 0.11661631 -0.3866551 -0.2887438 -0.051679254
-0.11437535 -0.41661417 -0.31708652 -0.38766682 -0.47314978 -0.16282122 -0.25024673 -0.05541824
0.14880648 -0.29404104 0.4521063 0.1445551 0.18824643 0.1536873 0.047847778 -0.16069902
-0.06262901 0.10969644 -0.30657515 -0.16876018 -0.46428913 -0.07677525 -0.1188702 0.41936183
0.18679228 0.28144807 0.18961063 -0.15108392 -0.4790482 -0.32531255 0.20191175 -0.09378928
0.043592904 -0.34019738 -0.26898363 -0.16812386 0.44679576 0.09264906 0.21721576 0.41248524
0.34272704 0.44005072 0.17847456 -0.40400228 0.22920334 0.36556813 -0.26004398 -0.12411148
0.35508293 -0.1676224 0.113947585 -0.28014362 -0.09623778 -0.05209899 0.20108855 -0.29377544
0.09455715 0.17604174 0.41155896 0.09417646 -0.18988201 -0.034528513 0.3863289 -0.11487089
0.3145428 -0.013863102 0.46707532 -0.02135815 0.1558651 -0.09809374 -0.3989592 -0.3749811
0.14276315 0.44626993 0.28957155 -0.26082668 0.07715962 0.0639423 0.31735012 -0.2033722
0.36645204 0.13268697 -0.032212663 0.06356037 0.3419073 -0.3492391 0.077679895 -0.11548546
-0.4497018 -0.20376492 -0.36698687 -0.013823271 0.22505225 0.03986144 -0.06943832 -0.012024685
-0.33616716 0.20503224 -0.44267437 -0.39454854 -0.01597774 -0.042117 0.2481575 0.05143863
0.1333359 0.108867474 -0.33791536 0.033280104 0.12823868 -0.48233417 0.35593146 -0.30643517
-0.36377698 0.3784176 -0.01122731 -0.40222162 0.17907542 0.21728267 0.44691968 -0.24244133
-0.32046837 -0.38288707 0.39649767 0.25118482 -0.2343275 -0.42385817 0.310376 0.20480406
-0.4140282 0.157428 0.48368904 -0.21906729 -0.0573349 0.14532983 0.4514659 -0.34538162
0.034772277 -0.07074618 -0.48015964 0.27764136 -0.053106844 0.4200635 0.29199195 0.44098705
-0.34674212 0.42189938 -0.18936114 -0.43101543 -0.06884378 -0.48570704 0.47427434 0.13624102
0.43286166 -0.17683876 -0.003248836 0.28007573 -0.17293161 -0.17342335 0.29610628 -0.4662782
-0.27488825 0.2033891 -0.16339886 -0.48993176 -0.21871471 0.3324008 -0.26934546 0.40040624
0.39756298 0.34560204 -0.15159258 0.26726177 0.06136022 0.12879804 -0.008470449 0.44273436
0.039710455 0.4140589 0.3013848 0.116805315 -0.4935158 -0.33430618 0.026178598 -0.44811994
0.32799387 0.13008964 0.45434716 0.060419686 0.47452876 0.34722877 -0.07625895 0.022535872
0.014155352 -0.031052073 0.34884918 0.4260637 -0.053419653 0.37750596 0.44072518 0.43160397

model.0.bias f4 [128]
00000000: 4ed3 1d3f acc2 8cbe 0094 333a 76ae f23e
00000010: 584f ae3e 6991 d53c 612c d33e 301d ea3e
00000020: 58d7 f13e b8be 863e 53bc e13e 1437 a7be
00000030: 03a6 adbd b6f4 e5be f03c 283d c8ec 053f
00000040: 5799 bcbd 469f 4e3e fdb8 193e c059 ddbc
00000050: 796d eabe 6068 b0bc 46cf d83d 60fb 563d
00000060: 5baa 993e 9507 a03e b1fa 31bf fc60 6fbe
00000070: 37f0 a83e 14f1 7f3d 6596 37be a88b 00bf
00000080: 9353 cbbe 693c 503e 2981 07be 71d8 1abf
00000090: 0058 58bc f296 4ebd afc4 013f 3a57 8cbe
000000a0: fe04 163e c658 bbbd 8a9b dabe 1549 893d
000000b0: 2afb a73e 50c3 73be 5b26 0b3f 74a3 6cbe
000000c0: 1ce0 efbe 7e96 e0be 26a8 323e 2cef 6b3e
000000d0: ab50 a63e 682f 2abe 5f18 243e 0221 fcbe
000000e0: 1e68 dd3e 97fb 293e 213c e7be 2075 f7bc
000000f0: 4a7a bf3d ad3c 1bbe 2e55 943e f213 ff3d
00000100: 60a6 ffbd d83f 9fbe 5fda ba3d 502e 97bc
00000110: 4887 0abe dc5c cbbe f9b6 beba 8cc5 59be
00000120: 18db 963e 8caf a4be a4ba 5f3e 1816 22bd
00000130: 877b c63d de5f 8d3e 97b5 7abe d41e eabd
00000140: 5289 113f a95f 203f 3c3c 673b e4b2 c9be
00000150: e244 bf3e 0edc bb3e 5b19 ed3c 743b 80be
00000160: 40b7 2bbd a0b8 413e d7af 35bf d5e5 563f
00000170: 202e aebd 845d bfbe bd8b 43be e0aa 8fbd
00000180: 2e6d 6b3e c1b3 bfbe f46e 083e c8a3 94be
00000190: a0a7 27bd 1000 6bbd c015 9bbe 0f29 9ebe
000001a0: 8782 e33e 5568 83be 43ac 2f3e 8edb c7be
000001b0: 8749 d03e ee88 5abd 5db4 873e 3bd9 46be
000001c0: e9ed b53c f045 5d3d e591 4d3e 7c25 043d
000001d0: 8479 44be 6004 27be a260 093f 8510 8b3e
000001e0: e445 d5be 4d70 8e3e cd4a 183e 6ae7 b33e
000001f0: 56a4 dcbe c625 3fbc 6b35 e63d d95f 95be
0.6165055 -0.27492273 0.0006850362 0.47398728 0.3404491 0.026070314 0.41244796 0.45725393
0.47234607 0.26317382 0.44088992 -0.3265921 -0.0847893 -0.44913262 0.04107374 0.52314425
-0.09208935 0.20177945 0.15011974 -0.027020335 -0.45786646 -0.021534145 0.10586409 0.052485824
0.30012783 0.31255785 -0.6952315 -0.2337684 0.3299577 0.06248577 -0.17928465 -0.502131
-0.397122 0.20335545 -0.13232864 -0.60486513 -0.013204575 -0.05043692 0.5069074 -0.274103
0.14650342 -0.091477916 -0.42696792 0.067033924 0.3280881 -0.23804975 0.543554 -0.23109227
-0.4685067 -0.43864816 0.17446956 0.23040456 0.3248342 -0.16619647 0.16024922 -0.49243933
0.43243498 0.1659988 -0.45163062 -0.030207217 0.09349497 -0.15159865 0.28971237 0.12454976
-0.124829054 -0.31103396 0.09123682 -0.0184547 -0.13528168 -0.39719284 -0.001455038 -0.21266764
0.2946403 -0.32165182 0.21848541 -0.03957185 0.0969153 0.27612203 -0.24483334 -0.11431661
0.5685016 0.62645966 0.0035283705 -0.39394295 0.3735724 0.36691326 0.028942754 -0.2504536
-0.041922808 0.18918085 -0.70971435 0.83944446 -0.085048914 -0.37376034 -0.19096275 -0.07015014
0.22990867 -0.3744183 0.13323575 -0.29031205 -0.040931344 -0.057373106 -0.3029003 -0.308907
0.44435522 -0.25665537 0.17155556 -0.39034694 0.40681097 -0.053353243 0.26504794 -0.19418804
0.022208171 0.054021776 0.20075186 0.03226231 -0.1918698 -0.16310263 0.53663075 0.2716104
-0.41654885 0.27820054 0.14872284 0.35137492 -0.43094128 -0.011666721 0.112406574 -0.29174688

model.2.weight f4 [1, 128]
00000000: c086 233f eaf7 94bd 42f9 743d 8ff0 f63d
00000010: 989e 19bd 902e 8ebd 8b27 ba3d b88e 423e
00000020: 9c2e 893d 5e3d dfbb a583 193e 8846 e1bd
00000030: 429d 7bbd 3121 67bd 0985 8cbd 41b3 72bd
00000040: 9ead 193e 1ac2 96bc ebbc abbd f873 b8bc
00000050: 1954 50be 029c 493d 7ee1 97bd 1cfb 1cbb
00000060: b408 7c3d 3166 88bc a754 dbbe be06 a5bd
00000070: 7b5a b93d a87d 983c 9550 ab3d 77be 0d3f
00000080: 7264 4cbe 67bf a73c 4c93 77bd 80a7 b7be
00000090: 4b9e 5dbd e6d3 99bb d041 9ebb e1e9 8c3d
000000a0: 2b29 89bc 198a 69be 54ec e03c f159 91bd
000000b0: 3e7c d5bd d872 79bd d3e6 3bbe 5028 7dbc
000000c0: 2a89 703d 86e2 5c3d 4d94 4d3d f35b 8f3d
000000d0: 63fb c83d aa59 4b3d 0fde 523d 7c8f b8bc
000000e0: b9ba 683d 1f38 2d3c 49d0 3b3e 0fa2 9f3d
000000f0: 4296 eabc 801b 2abe fe01 e83d 23e8 98bb
00000100: 5f5b 213e 2b63 68bd 24b7 ccbd 3c75 7a3d
00000110: a474 5fbd b5d0 9fbd 8fa5 f93b 2bf7 9c3d
00000120: 4b50 2f3e c0f3 e7ba a0fb 3e3c 61ce 5dbd
00000130: 65ab 793c 51cf ae3c 28a8 7dbe ebfa 84bd
00000140: a6cc 84be 99b3 aebe 443f 2dba 7a0b 5c3d
00000150: 43c7 83be edf7 b63d 8667 31be 2ce3 83bc
00000160: 6f44 31bd 501a f0bb 308c 123f 58de 0e3f
00000170: e2c2 4f3d c043 7f3c 7e4e 61bb 2952 80ba
00000180: 97df 053e e099 debd 3110 093d 4899 54bd
00000190: 7dd6 b13d 7269 453d 39ef 983d 3270 b4be
000001a0: c12a 183e 076f 67be 9dcd 02bc 85a7 3bbd
000001b0: 777a c8bd e63d 903c e9cb 9f3d 2bda 593e
000001c0: 770c c2bb 70fc cf3c b534 39be 0910 083d
000001d0: b0f0 c4bb 008e 8cbc 3cc9 f8bd 32b9 1e3d
000001e0: 2411 7bbe 1764 183e 4bb2 8e3c 99b4 0cbd
000001f0: c0d2 bcbe 19cd 3d3e 715b cebd 3893 60bd
0.6387749 -0.07273848 0.059808023 0.12057602 -0.037504762 -0.06942475 0.090895735 0.18999755
0.06698343 -0.0068127355 0.14991625 -0.10999781 -0.06142927 -0.05642814 -0.06861312 -0.05925298
0.15007636 -0.018403102 -0.083856426 -0.022516236 -0.2034458 0.049221046 -0.07416056 -0.0023953384
0.061531737 -0.016650291 -0.42838022 -0.080579266 0.09050461 0.018614605 0.08364979 0.5536875
-0.19960192 0.02047701 -0.060443208 -0.3586998 -0.054106038 -0.0046944497 -0.004829623 0.06880546
-0.016743263 -0.22806586 0.02745644 -0.07097233 -0.10424088 -0.06090054 -0.18349771 -0.015451506
0.05872456 0.053926967 0.05019026 0.0699996 0.09813573 0.049646057 0.051481303 -0.022529356
0.056818698 0.010572462 0.18341173 0.07794582 -0.028636102 -0.16612053 0.11328505 -0.0046663447
0.15757512 -0.0567352 -0.09995869 0.06114696 -0.054554597 -0.078034796 0.007618613 0.07664331
0.17120473 -0.0017696545 0.011656672 -0.054151896 0.015238618 0.02133909 -0.24771178 -0.06493171
-0.25937384 -0.34121397 -0.00066088536 0.053721882 -0.25737962 0.08934007 -0.17324647 -0.016099535
-0.043278154 -0.0073273554 0.5724516 0.5580802 0.050722964 0.015580118 -0.003437906 -0.0009790111
0.13073574 -0.10869193 0.033462707 -0.051903993 0.086834885 0.048196264 0.07467503 -0.35241848
0.1486006 -0.22600947 -0.007983592 -0.045814056 -0.09788983 0.01760764 0.07802565 0.2127463
-0.005921896 0.025388926 -0.18086512 0.033218417 -0.0060101375 -0.017157555 -0.121477574 0.038750835
-0.24518257 0.14881931 0.017419001 -0.03435192 -0.3687954 0.1853527 -0.10076035 -0.0548279
