neuralq3.pt (torch, 5208 bytes, 3 tensors)

model.0.weight f4 [128, 4]
00000000: 82e9 ce3e c12b d8be b4b0 bd3d a437 943e
00000010: 82a8 d4be 58dd c73e ca6b a5be 665f fdbe
00000020: 2a90 9dbe 94a6 b93e 26de 8abe 98bb 08be
00000030: 94b3 7ebe 4420 5bbe 5854 78be 9043 943e
00000040: 8f5b eabe b489 003f f0d6 dbbe 2447 b6be
00000050: 80fc e2bc f2ed 94be 861c bc3e d05c e7be
00000060: 42c9 85be 01b0 b53e 3f61 2dbe 6aca 01bc
00000070: f3eb 5b3e 1645 273e 8cef b1be eeae bcbe
00000080: 641d 863e 18d2 5e3e bf2c 66bd 4628 be3e
00000090: a0c9 e6bc 4f0b 603e a85b 8b3e df2d 763e
000000a0: 222d 683e 7081 c83e fbf3 7a3e b71d e1be
000000b0: e0f3 5dbd 1451 9cbe 8a99 f53e b063 05be
000000c0: ec77 833e fc6b e3be 295a 4bbc 8c0c 163d
000000d0: 9648 adbd 8032 9b3e b8ba 82bd c520 42bd
000000e0: 7e01 e93e a790 febd 7723 5e3e 7ae4 28bc
000000f0: 08a3 d63e c590 cebe 56ec 7dbe 2631 b03c
00000100: 506e fc3c 783a f13e fad6 a2be f4f2 973e
00000110: 189a 76be 7044 adbe 2a22 b6be ac3b a53e
00000120: a112 e53e 312c e9be b145 a53c 8d2c 083d
00000130: 1287 93be c093 f6bc ee92 fb3e 0033 db3c
00000140: 90b7 eebe a5e4 26be 42f6 2bbe 8685 303e
00000150: ccec 03be 108c 3abd 90ca 4bbd 905b f03d
00000160: 20ac c53c 7863 a9bd 6021 ac3c 34d5 153e
00000170: 56ba f6be b0c2 cdbd d0de 383e 98c8 05be
00000180: 3c39 7fbe 74ee 483e 9038 ee3e 30ac 38bd
00000190: 8e30 b4be ddbc dd3e ff4f a4ba 7791 d83e
000001a0: 69f0 ab3e 01d2 2a3e 7af6 2abc 85b3 bdbe
000001b0: 5e7d cbbe 065f 893e 8e59 973e 680c 2bbe
000001c0: 78dd fdbe 28e8 63be f4ce 603e ee6d c4be
000001d0: 0229 65be 1b06 99be 4c80 993e e356 8fbd
000001e0: f2fb e53d 7755 c33d 34cf 3e3e a883 113e
000001f0: 8b8f 63be 5cc9 db3e 37d0 b83e 2e01 7e3e
00000200: f5c7 c23e 6b0c f23e 2565 f1be 1aff aa3e
00000210: 1392 a33e 982c 02bf f6a0 a03e 633b 7c3e
00000220: a757 073e 366f 82be 3b8f d4be 94bd e33e
00000230: 0023 e73b 80d6 d3bb 6027 cebd 86fb b0be
00000240: 77b3 0a3b aa31 bf3d 9731 2fbe b897 0a3e
00000250: 923d da3e 0468 98be 466f a5be 66c0 56be
00000260: bb73 aa3d 1f8e 80be 4a15 d6be 8f59 cabe
00000270: 8a0b 103e 304b e6be f4b2 233e 10fd fcbe
00000280: d136 d6be 961c c03d ab87 373e 73e1 e6be
00000290: c0a5 dabe 1808 dabd e0a9 2a3d c07c 32be
000002a0: 4c0d babb 8b62 d23e 0bc0 b13e 3f45 26be
000002b0: 0d99 97be 88c0 fd3e 5c0f f0bd f404 abbd
000002c0: 802f b03e 1fcd f73e 77eb cf3e 55e6 f13e
000002d0: f016 6fbd bc5d a8be 8c1e 9c3e 60d0 c53c
000002e0: 216a 963e 9bc8 e73e bb6e d03e 9df2 18be
000002f0: 5073 40be 5c60 773e 4227 e33e c0ed 4a3d
00000300: 8ce7 2dbe 801b 21be 92ba 833e 00b1 8bbe
00000310: 302c cebe 15c3 e83e bd1e 18be 0786 5f3e
00000320: dea5 edbe 007d 2a3c 18be 1bbe 0a46 f1be
00000330: e3d0 d93e aaca c83e e8c5 10be aca3 1a3e
00000340: 8248 093e 2418 ec3e f183 c93e 25b6 c33d
00000350: 7183 fbbe 791c d4be 30f8 0dbe a627 ef3e
00000360: 8aaa bbbe 1840 df3e 14f1 b83e 9236 c3be
00000370: f456 d83e 1e35 c83e 940e 483e b98d 8fbe
00000380: 5cb6 4dbe 4e76 eabe a02f 6b3d 7c88 8d3e
00000390: bd5e 123e d3f5 793e 7202 2cbe 2f80 c63e
000003a0: f280 de3e bc53 fdbe f055 e0bd b2bd 9cbe
000003b0: d413 fcbc d01f d23d 8ab6 c53d dd8b 63be
000003c0: f4d7 bebe 7e9e d5be 64a4 103e 5a33 debe
000003d0: c065 fcbc d0cf 57bd 8ced 68be 0894 023e
000003e0: c2fd 443e 49dc df3e 60b0 9ebe c5c0 3fbe
000003f0: 5f95 a33d 87a3 1fbc 4730 063f 159d af3e
0.40412527 -0.42220882 0.09262219 0.289487 -0.4153481 0.3903606 -0.323088 -0.49486846
-0.3077405 0.36259902 -0.2712261 -0.13352811 -0.24873191 -0.21399027 -0.24250925 0.28957796
-0.4577298 0.5021012 -0.42937422 -0.3560115 -0.027708292 -0.29087788 0.36740512 -0.45187998
-0.2613011 0.35485843 -0.16931628 -0.007921794 0.21476726 0.16334948 -0.34753072 -0.3685221
0.26194298 0.21759832 -0.056195017 0.371401 -0.028172314 0.21879314 0.27218366 0.24040936
0.22673467 0.39161253 0.24507134 -0.43967983 -0.054187655 -0.30530608 0.47968704 -0.13026309
0.2567743 -0.44418323 -0.012411633 0.03663306 -0.0846111 0.30311966 -0.0638327 -0.047394533
0.4550895 -0.12429934 0.21693216 -0.010308379 0.41921258 -0.40344825 -0.24797186 0.02150781
0.03081432 0.4711492 -0.3180464 0.29677546 -0.2408222 -0.33841276 -0.3557294 0.3227209
0.44740775 -0.45541528 0.020174833 0.033245612 -0.28813988 -0.03009975 0.49135536 0.026757717
-0.46624422 -0.16298158 -0.16793159 0.17238435 -0.128833 -0.04554373 -0.049753726 0.11736214
0.024129927 -0.08270925 0.021012008 0.14632112 -0.48189038 -0.10046899 0.18053746 -0.13064802
-0.24924177 0.19622213 0.4652753 -0.045086086 -0.35193294 0.43308154 -0.0012536048 0.4229848
0.33581856 0.16681673 -0.010434741 -0.37051025 -0.39744085 0.2683031 0.29560512 -0.16703951
-0.4958303 -0.2225653 0.21953946 -0.3836512 -0.22378924 -0.2988747 0.29980695 -0.06998994
0.112296954 0.095377855 0.18633729 0.14210379 -0.22222726 0.42927063 0.36096355 0.24805138
0.3804318 0.472751 -0.4714748 0.33397752 0.31947383 -0.50849295 0.31372803 0.24632029
0.1321703 -0.25475472 -0.41515526 0.44480574 0.007053733 -0.0064647794 -0.10066104 -0.34566897
0.0021164098 0.093356445 -0.17108761 0.13534439 0.426251 -0.29766858 -0.32311457 -0.20971832
0.08322855 -0.2510843 -0.41813117 -0.39521453 0.14066902 -0.4497924 0.15986234 -0.4941182
-0.41838697 0.09380452 0.17922847 -0.4509388 -0.42704582 -0.10646075 0.04166591 -0.17430401
-0.0056778546 0.41090807 0.3471683 -0.16237353 -0.29608956 0.49560952 -0.117216796 -0.08350554
0.3441124 0.48398682 0.40609333 0.47246042 -0.058371484 -0.32884014 0.30492055 0.024147213
0.29377845 0.45270237 0.4070948 -0.149363 -0.18793988 0.24157852 0.4436589 0.049543142
-0.1698286 -0.15733147 0.2572828 -0.27283478 -0.40268087 0.45461336 -0.14855476 0.21828471
-0.4641561 0.010405779 -0.15209234 -0.47123748 0.4254218 0.3921712 -0.14137995 0.15101498
0.13406566 0.46112168 0.39358476 0.09556226 -0.4912372 -0.41427973 -0.13864207 0.46709937
-0.36653548 0.43603587 0.36121428 -0.3812757 0.4225384 0.39103025 0.19536811 -0.28037813
-0.20089096 -0.45793384 0.057418466 0.27643192 0.14293952 0.24410181 -0.16797808 0.3876967
0.43457752 -0.49477947 -0.10953891 -0.30613476 -0.030771174 0.10259974 0.09653957 -0.22221322
-0.37274134 -0.41722482 0.1412521 -0.43398553 -0.030810237 -0.05268842 -0.22746867 0.12751782
0.19237426 0.43722752 -0.30993938 -0.1872588 0.07987475 -0.009743578 0.52417415 0.34299532

model.0.bias f4 [128]
00000000: 6115 d6be f1ef 993e 4cc2 acbe 00f9 6fbc
00000010: e361 363e f681 a1be 427c 89bd 8d09 bcbd
00000020: 3ee6 6bbc 8752 39be 72ee 40be 0013 cfbc
00000030: 1519 ffbd fe2b 52bd 3e14 173e 750b ec3e
00000040: 6df9 c23e ea58 83be 31fc 3bbe 18f6 9ebd
00000050: 0d63 a03e 0085 46be 8027 f7bd 607f e53c
00000060: 26d2 c6be eabe eabd e920 bebe a4b5 dbbe
00000070: 0870 f9be 6053 383e 8346 913e 2af1 e23e
00000080: 4c13 a1bc ba2f a9be 0aec 74be c0f8 59bd
00000090: 81ab 76bd 0539 d73e 0ec8 63be e57a 5abd
000000a0: a5e7 223e d05f 64bd 1063 7dbd f23d 9f3e
000000b0: b2ab 0d3e 0055 383b 1f7d ed3d 8447 77be
000000c0: 281b 59be 9a46 943c f488 63be 66ad cd3b
000000d0: 0034 753e da2e 933e 9c72 c8be a410 473e
000000e0: 8a13 92be f245 fc3d d666 303e 717e b53e
000000f0: aac5 853e f47f 6cbe ca8d 083d abff 84be
00000100: 6f6b 993e fcd8 11be 77cd ce3e e4e3 173d
00000110: 487e e5bd 604b e3be 3b8c 553e 0435 ffbe
00000120: 99ef 3dbd 9064 e7bd 9608 fcbe 38f0 3c3e
00000130: e583 813e 5323 2bbd 0dcc 263e 12ae e8be
00000140: 428d eabe c04c 0dbc 860c cb3e 13ae c73e
00000150: 80bd 1b3c 788b 92be e916 053e 72e3 d6be
00000160: a072 ebbd 0f28 ed3e 3ca1 00bf 57f6 cb3d
00000170: b0e3 de3d bf70 b3be 45f3 cf3e a291 d4be
00000180: 603f e83e 036e 8f3d 6dc1 aa3e e85b c7be
00000190: a0da 38be aa8d 793d 5368 e33e d054 2dbe
000001a0: 2944 e1be 2886 303c eaa0 d03e be1c 91be
000001b0: 186b a33d 02d2 6fbe 38b7 b33e b324 ccbe
000001c0: 32e0 d43e c5db 05bc 1067 d9be 095f 60be
000001d0: 2a2e 913e ae67 603e c036 a8be 5488 31be
000001e0: 642d 04be 9265 dcbd 44ad 9b3e f208 043e
000001f0: c471 c73d c4f8 44be e94f e83e b543 a03e
-0.41813186 0.30065873 -0.33741987 -0.014646769 0.17810778 -0.31544465 -0.067131534 -0.09181509
-0.014398156 -0.18097888 -0.1884096 -0.025277615 -0.12455956 -0.051311485 0.14753816 0.4610249
0.38080922 -0.25653774 -0.18357922 -0.077617824 0.3132557 -0.19386673 -0.12068081 0.028014839
-0.38832206 -0.11462195 -0.37134483 -0.42912018 -0.48718286 0.18000555 0.2837411 0.4432462
-0.019662522 -0.33044225 -0.23918167 -0.053215742 -0.060222153 0.4203569 -0.22244284 -0.053339858
0.15908678 -0.055755436 -0.06186205 0.31101948 0.13835028 0.0028126836 0.115961306 -0.24148375
-0.21201766 0.018100072 -0.22220212 0.006276774 0.23945618 0.28746682 -0.3914994 0.19439942
-0.28530532 0.123180285 0.17226729 0.3544803 0.26127368 -0.23095685 0.033338346 -0.2597631
0.29964778 -0.14242929 0.40391132 0.037082568 -0.11205727 -0.44393444 0.20854275 -0.49845135
-0.046371076 -0.11298478 -0.492253 0.18451011 0.2529594 -0.041781735 0.16288777 -0.45445305
-0.45810896 -0.008624256 0.39657992 0.38999996 0.00950563 -0.2862203 0.12997021 -0.41970402
-0.11496472 0.46319625 -0.50246024 0.09959095 0.10883272 -0.35046956 0.40615287 -0.4151736
0.4536085 0.07003405 0.33350697 -0.38937306 -0.18052149 0.060926117 0.4441553 -0.16926885
-0.43997315 0.010774173 0.40747768 -0.2834224 0.07979411 -0.23419955 0.35100722 -0.3987175
0.41577297 -0.008170073 -0.42461443 -0.21911253 0.28355533 0.2191455 -0.3285427 -0.17337161
-0.1290794 -0.107615605 0.3040563 0.12894037 0.09738496 -0.19235522 0.45373467 0.31301656

model.2.weight f4 [1, 128]
00000000: 0570 eebc 6a9f 7dbd dfa8 a93d d0cb bf3c
00000010: 57a3 c4bd 1bc4 963d ce3a 733c 2082 cb3d
00000020: 267f 153d f188 0bbd 1ad4 d8bb dbb6 843d
00000030: 9a2f 65bc 40c1 ddbb b6b1 093d 6a69 613d
00000040: b4e9 adbc 18d3 943c b0e9 873d c376 a7bd
00000050: 595e 95bd 3ec4 77bd 80a0 c93b 5245 37bd
00000060: dd1f 9fbd d2c3 a3bd fe4c 833d 6341 863d
00000070: 323c 82bd 16be 7b3d 5e25 6b3c 6041 e73d
00000080: 508c 493c fd02 01be 231a c33d 848c 91bd
00000090: b9f0 bf3d f6c5 7f3c c25f 89bd f601 3cbe
000000a0: 5793 a8bc c03b ac3c ede2 0e3d 5562 69bd
000000b0: 84f7 1abe a20c 163d a8c2 65bd 8605 733d
000000c0: 5c3e c63c 6f90 593d 0f76 23bd ce6b a43d
000000d0: 08de 47bd cfd2 9cbd 131f ac3d cef8 e8bd
000000e0: 501e 3cbc d134 72bd 3ec3 a33d 222a d8bd
000000f0: 0930 a03d 4a66 443d a26e 603d e753 48be
00000100: d057 e63d 722f a3bd 7993 903b dcc6 2bba
00000110: e84c c93c 324e 153d a8d6 523d 4d16 06bd
00000120: ae8c 7dbd 7d2c 2bbd 8b39 813d e066 b93b
00000130: 04a2 59bd b81a 25bd 8386 b03d ad50 ac3d
00000140: 16d9 123d 0004 49b9 aabb 653c c6c1 3bbc
00000150: 9b79 8fbd b843 aebc 0682 88bc 3fee 54bd
00000160: 00c0 4dbc a811 2d3d 3acf 2a3e 896c 3abd
00000170: 3825 2ebd a897 013e 33dc a2bd 5e22 a4ba
00000180: b5f2 1dbc fe6b 88be 9941 3abe a5a1 0abd
00000190: ff56 043e c613 c73c bc4d 003e ace2 0f3d
000001a0: a08d aa3c 8298 093d cbce 0c3d aa89 76bc
000001b0: 3125 893d 11d8 323d 4ca1 40bd f506 a9bd
000001c0: e8de 3c3b bc5d 81ba e34e a5bd 9262 933d
000001d0: ea8b 2c3e fc32 4abd 0349 0c3d aad9 523d
000001e0: fdb3 b5bd d12c 9a3c 4896 3c3c 5ea5 fe3c
000001f0: 5637 453d 8eb5 9abd 5fbd 073b 8d1f 453e
-0.02910615 -0.061919607 0.08284163 0.023412615 -0.09601467 0.07361623 0.014845563 0.09936929
0.03649821 -0.034066144 -0.0066170814 0.064801894 -0.0139884 -0.006767422 0.033616744 0.05503217
-0.021229602 0.018167064 0.06636369 -0.08176949 -0.07293386 -0.060489886 0.0061531663 -0.044743843
-0.07769749 -0.07996334 0.064111695 0.0655544 -0.063591376 0.061460577 0.014352171 0.11291766
0.0123015195 -0.12598796 0.095264696 -0.07106879 0.09372086 0.015611162 -0.067077175 -0.18360123
-0.02057807 0.021024585 0.034884382 -0.056978542 -0.15133482 0.03663314 -0.05609384 0.05933144
0.024199657 0.05311626 -0.03990751 0.080283746 -0.04879573 -0.07657396 0.084043644 -0.11375581
-0.011481836 -0.0591324 0.07996224 -0.10554911 0.07821662 0.047949113 0.054793008 -0.19563256
0.11247218 -0.07968034 0.0044121114 -0.00065527647 0.024572805 0.036451526 0.051474243 -0.03273611
-0.06190174 -0.041790474 0.063098036 0.0056580156 -0.053133026 -0.040308684 0.08619406 0.08413825
0.03585156 -0.00019170344 0.014021793 -0.011459773 -0.07005616 -0.021272525 -0.016663563 -0.05198502
-0.012557983 0.042253166 0.16680613 -0.045513663 -0.042515963 0.12655509 -0.07952156 -0.0012522449
-0.009640385 -0.26644892 -0.18189086 -0.033845562 0.12923811 0.02430142 0.12529653 0.03512828
0.020819485 0.03359271 0.0343769 -0.01504747 0.06696547 0.04366309 -0.047028825 -0.0825328
0.0028819386 -0.0009869854 -0.08071687 0.07196535 0.16850248 -0.04936503 0.034249317 0.051477112
-0.08872221 0.018820198 0.011510439 0.031084713 0.048148476 -0.0755416 0.002071224 0.19250317
