neuralq2.pt (torch, 5208 bytes, 3 tensors)

model.0.weight f4 [128, 4]
-0.024390614 -0.4743544 0.40594646 0.44579545 0.1005308 -0.18288624 0.36586475 0.24677444
-0.30030018 -0.47817832 -0.4790644 -0.41956472 -0.44812852 0.31456804 -0.46914163 -0.007799637
-0.06317944 0.0052602156 0.22384682 -0.19722123 -0.4762594 0.21635416 -0.40195855 -0.16504888
-0.19013962 0.3452304 -0.06677506 0.1801512 -0.3416388 -0.42924112 -0.3615073 0.13395435
0.074889965 0.44592974 0.22403628 0.2582093 -0.07617953 0.45700696 0.28136972 -0.37953758
-0.4359987 0.15988746 0.18813065 0.37760574 -0.10021764 -0.3663965 -0.30040616 -0.24896592
-0.2376984 0.44478446 0.14706506 -0.19201107 -0.20332026 -0.48481792 0.29134256 0.23523271
-0.32505256 0.40878862 0.3898254 0.0063343644 -0.32350284 -0.37245375 -0.027804792 -0.41191667
0.007335456 -0.11333158 0.15821393 -0.41182318 0.31534204 0.22609524 0.5005608 0.0029950242
0.28731355 -0.4482146 -0.12440292 0.18322472 -0.08361226 0.26091677 -0.3529083 -0.029489398
0.37360182 0.3315514 -0.24840869 0.27178884 -0.383914 -0.024508357 0.4181044 -0.27311164
-0.044221103 -0.48340374 0.066483915 -0.2708385 0.32164443 0.018471139 0.38759094 -0.323777
0.083727114 -0.047377765 -0.27949506 0.1348694 -0.11736362 0.43639436 0.42033228 -0.24099974
0.20731725 0.064083904 -0.29504454 0.34866384 0.45646992 -0.09412434 -0.0012492301 0.3065484
-0.04797184 0.39618695 -0.30010265 -0.17010151 -0.06662621 0.278403 0.28715193 -0.30743405
-0.26668394 -0.37772733 -0.35965466 -0.07295579 0.21293609 -0.03264066 -0.2721915 -0.33404744
0.05194521 -0.26215392 0.44786298 -0.45361382 0.36676404 -0.07950404 -0.2855884 -0.3647548
0.06029562 0.43617547 0.3081296 -0.3248265 0.29457688 0.35019788 -0.27448577 0.33105773
-0.44542563 -0.13861328 0.18225682 -0.380049 0.190101 -0.5258157 0.24608824 0.072480544
-0.007823849 -0.0016532538 -0.091319814 0.126075 -0.116909675 0.29165474 0.1353034 0.35175282
0.3095537 -0.057434365 -0.0463492 -0.38167864 -0.19799179 -0.29538152 0.215329 0.46239215
0.33791366 0.053332087 0.12793967 0.15710315 0.13881065 -0.12071368 -0.4561149 -0.11028821
0.08721286 -0.3883829 -0.25100142 0.4593767 -0.2064848 -0.08323842 -0.24484801 0.26091743
-0.36241913 -0.20038669 0.2915548 0.43712592 -0.07039494 0.45020202 0.30347192 0.0900479
-0.36026543 0.058457434 -0.026910067 -0.30913633 0.40063143 0.022359615 -0.029811492 0.24031104
-0.45797187 -0.28288972 -0.14056718 0.3725034 -0.49217224 -0.17166686 -0.45918065 0.48314983
0.36536738 -0.48393548 -0.21331969 0.09401921 -0.39535832 -0.27898234 0.11626227 -0.014085606
-0.43880814 0.2797645 -0.29421496 0.4635499 -0.4713449 0.32714614 0.063266866 -0.40527406
0.20215082 -0.48335034 0.4052762 0.0474142 0.11326555 -0.009232557 0.10189513 -0.19277856
-0.13576333 -0.09164812 -0.10837634 0.40681475 0.06958002 -0.31076187 0.09623754 0.40617603
-0.047321104 -0.018181188 0.406154 -0.26200807 -0.18967718 -0.42447817 0.23660702 0.038452506
-0.50629985 -0.07854303 -0.1351205 -0.10477374 0.15929395 0.27802134 0.21006869 0.40570992
00000000: d3ce c7bc 94de f2be 37d8 cf3e 4d3f e43e
00000010: 18e3 cd3d 8846 3bbe a052 bb3e 70b2 7c3e
00000020: f2c0 99be cad3 f4be ee47 f5be 30d1 d6be
00000030: 1a71 e5be 100f a13e 5533 f0be 1994 ffbb
00000040: 3964 81bd e35d ac3b 1a38 653e 5df4 49be
00000050: 46d8 f3be f28b 5d3e 83cd cdbe 9302 29be
00000060: f6b3 42be 0ac2 b03e 5dc1 88bd 8e79 383e
00000070: 48eb aebe 7ec5 dbbe 7c17 b9be 542b 093e
00000080: e95f 993d e750 e43e c469 653e 0234 843e
00000090: 0304 9cbd d1fc e93e b10f 903e c052 c2be
000000a0: 393b dfbe 8ab9 233e 52a5 403e 8a55 c13e
000000b0: e83e cdbd 5298 bbbe d6ce 99be ecf0 7ebe
000000c0: 3667 73be caba e33e 3998 163e 8d9e 44be
000000d0: 3033 50be 0e3a f8be da2a 953e d8e0 703e
000000e0: 4a6d a6be be4c d13e 3297 c73e 8090 cf3b
000000f0: 2aa2 a5be 42b2 bebe e0c6 e3bc bee6 d2be
00000100: 445e f03b 631a e8bd d502 223e 7dda d2be
00000110: 8374 a13e 8385 673e c124 003f 2b48 443b
00000120: c31a 933e 627c e5be f5c6 febd 439f 3b3e
00000130: e83c abbd e296 853e 66b0 b4be c093 f1bc
00000140: bd48 bf3e 1bc1 a93e d95e 7ebe e827 8b3e
00000150: 6090 c4be c0c5 c8bc c811 d63e 4ad5 8bbe
00000160: 3021 35bd b280 f7be b828 883d 58ab 8abe
00000170: 94ae a43e c950 973c 5272 c63e 19c6 a5be
00000180: 1f79 ab3d 300f 42bd fa19 8fbe 341b 0a3e
00000190: 565c f0bd 156f df3e cb35 d73e a3c8 76be
000001a0: f94a 543e 6c3e 833d 1410 97be 1184 b23e
000001b0: 6db6 e93e 43c4 c0bd 35bd a3ba e9f3 9c3e
000001c0: 1f7e 44bd 04d9 ca3e 0ea7 99be 172f 2ebe
000001d0: 5373 88bd d78a 8e3e 9405 933e ff67 9dbe
000001e0: cc8a 88be 7a65 c1be a824 b8be d869 95bd
000001f0: eb0b 5a3e 36b2 05bd af5c 8bbe 4408 abbe
00000200: 80c4 543d 0a39 86be 4c4e e53e 1240 e8be
00000210: 7fc8 bb3e 04d3 a2bd a538 92be 24c1 babe
00000220: 8af8 763d 6452 df3e 2ac3 9d3e a94f a6be
00000230: c8d2 963e 234d b33e 6689 8cbe 6680 a93e
00000240: d40e e4be a4f0 0dbe 88a1 3a3e c895 c2be
00000250: d6a9 423e dc9b 06bf 8efe 7b3e ae70 943d
00000260: 9a2f 00bc feb1 d8ba e205 bbbd ce19 013e
00000270: 576e efbd c553 953e f98c 0a3e f218 b43e
00000280: d37d 9e3e 4c40 6bbd a9d8 3dbd 626b c3be
00000290: 5cbe 4abe 3f3c 97be 357f 5c3e aabe ec3e
000002a0: 0503 ad3e bf72 5a3d 9e02 033e a6df 203e
000002b0: 6124 0e3e bc38 f7bd e487 e9be c9de e1bd
000002c0: a89c b23d 20da c6be 4283 80be 6c33 eb3e
000002d0: c070 53be e878 aabd 70b9 7abe f896 853e
000002e0: 008f b9be 2b32 4dbe ac46 953e f8ce df3e
000002f0: 392b 90bd e180 e63e ac60 9b3e 096b b83d
00000300: b674 b8be 1071 6f3d 8072 dcbc 1e47 9ebe
00000310: 901f cd3e 832b b73c 3b37 f4bc 1914 763e
00000320: 4a7b eabe ecd6 90be d8f0 0fbe c4b8 be3e
00000330: 00fe fbbe 70c9 2fbe ba19 ebbe 6a5f f73e
00000340: 6f11 bb3e 64c6 f7be 7a70 5abe 258d c03d
00000350: 686c cabe c6d6 8ebe ea1a ee3d 50c7 66bc
00000360: 76ab e0be 4b3d 8f3e 58a3 96be 6a56 ed3e
00000370: 1e54 f1be b37f a73e 0f92 813d 1580 cfbe
00000380: a000 4f3e b279 f7be 5d80 cf3e 6435 423d
00000390: c5f7 e73d 2744 17bc 65ae d03d be67 45be
000003a0: 8b05 0bbe 02b2 bbbd 6af4 ddbd 064a d03e
000003b0: f87f 8e3d 2e1c 9fbe 3018 c53d 4ef6 cf3e
000003c0: c6d3 41bd b7f0 94bc 6bf3 cf3e ec25 86be
000003d0: bc3a 42be 3455 d9be 1c49 723e 6080 1d3d
000003e0: de9c 01bf 2bdb a0bd 075d 0abe 9d93 d6bd
000003f0: f41d 233e d058 8e3e 3f1c 573e 36b9 cf3e

model.0.bias f4 [128]
0.44298437 -0.44842768 0.13841772 0.2097036 0.13643485 0.1457905 0.1944079 0.07787043
0.24121656 0.442232 0.0063249627 -0.15494794 -0.16237052 -0.40434277 -0.43240678 0.15732414
0.48299932 -0.3341882 0.4352142 -0.25526285 -0.19533564 -0.3764673 0.06318313 0.46816647
0.45405352 0.33348528 -0.32567358 -0.1883468 -0.24940744 0.026482726 -0.47748733 -0.41656616
-0.11157602 0.3671074 -0.09576969 -0.07745716 -0.19681525 -0.03779021 0.4069389 0.039798506
0.13803977 0.2375409 -0.32368338 -0.06101537 -0.47076285 -0.2619775 0.20571092 0.04344046
-0.43549657 0.25184667 -0.08404207 -0.13562894 -0.5499657 0.49369153 0.38741472 0.12119188
-0.18894498 -0.23830141 0.3319086 -0.43881822 0.39647052 -0.36669248 0.3583841 0.31970325
0.12587819 0.03799506 0.30466238 0.35889155 -0.0011724446 -0.27227825 0.23669723 -0.33079165
0.17608006 0.0184512 0.2600871 -0.18099143 0.4814956 0.06613375 -0.4746418 0.14546949
0.18771935 -0.032378748 0.20793234 -0.25703382 -0.09668116 -0.48137122 0.49481058 0.34979224
0.4416302 -0.13360119 0.4124704 -0.10451955 -0.008888602 0.30981117 -0.5011458 -0.21142685
-0.48766464 0.45668674 0.40122247 -0.14840624 0.44272688 0.34333888 -0.46146095 0.15228896
0.011065372 0.5661829 0.15609454 0.11633435 -0.5037511 -0.18588059 -0.3315615 0.04286784
0.1908102 0.5004709 -0.065801844 -0.15810359 -0.316478 -0.40463245 0.1888307 0.3501141
-0.093758434 0.40941963 -0.15033959 -0.18187179 -0.17674851 -0.20362675 -0.31015068 -0.07959092
00000000: d9ce e23e 5098 e5be 60bd 0d3e 8abc 563e
00000010: 94b5 0b3e 1b4a 153e dd12 473e 887a 9f3d
00000020: 7901 773e 3c6c e23e a241 cf3b acaa 1ebe
00000030: 7544 26be 0406 cfbe 6c64 ddbe 9419 213e
00000040: b04b f73e b71a abbe 65d4 de3e d0b1 82be
00000050: 1106 48be 52c0 c0be 2866 813d 84b3 ef3e
00000060: b479 e83e 95be aa3e b0be a6be fcdd 40be
00000070: aa64 7fbe 4df2 d83c 3879 f4be 2948 d5be
00000080: f881 e4bd 80f5 bb3e e622 c4bd dca1 9ebd
00000090: f089 49be e8c9 1abd 4c5a d03e c203 233d
000000a0: 4c5a 0d3e ec3d 733e d4b9 a5be 41eb 79bd
000000b0: d407 f1be ea21 86be e2a5 523e a0ee 313d
000000c0: 68f9 debe 0cf2 803e 401e acbd 50e2 0abe
000000d0: 8dca 0cbf 23c5 fc3e 395b c63e 7333 f83d
000000e0: cb7a 41be 4905 74be edef a93e c8ac e0be
000000f0: 2ffe ca3e 1ebf bbbe 1f7e b73e 25b0 a33e
00000100: 36e6 003e b5a0 1b3d b5fc 9b3e a2c0 b73e
00000110: b6ac 99ba 0e68 8bbe c260 723e 865d a9be
00000120: 554e 343e f926 973c 232a 853e d155 39be
00000130: 9786 f63e 2271 873d 4004 f3be f4f5 143e
00000140: 8039 403e 949f 04bd 37ec 543e f099 83be
00000150: c600 c6bd 4a76 f6be d057 fd3e f817 b33e
00000160: 5b1d e23e c0ce 08be 522f d33e 590e d6bd
00000170: 80a1 11bc 929f 9e3e 174b 00bf 4880 58be
00000180: 2eaf f9be d8d2 e93e 086d cd3e cef7 17be
00000190: 19ad e23e 1dca af3e 9c44 ecbe a3f1 1b3e
000001a0: 894b 353c 5df1 103f 3fd7 1f3e b440 ee3d
000001b0: d5f5 00bf 7b57 3ebe 6ec2 a9be 3096 2f3d
000001c0: c063 433e dc1e 003f 1ec3 86bd e8e5 21be
000001d0: 6809 a2be fc2b cfbe d65c 413e 2842 b33e
000001e0: 6c04 c0bd 739f d13e 9ff2 19be 993c 3abe
000001f0: 90fd 34be 8883 50be 12cc 9ebe 9000 a3bd

model.2.weight f4 [1, 128]
0.053679455 -0.03167972 -0.06798953 0.06142732 -0.12223416 -0.01018984 -0.17747165 0.010715164
0.091054216 0.038054302 0.063748635 0.083364375 0.025078654 -0.033548985 -0.061343558 0.044595607
0.112651885 -0.06338741 0.17098081 -0.023335353 -0.008234698 -0.0716543 -0.056754336 0.09984152
0.18134306 0.01767343 -0.05614163 -0.0150257675 -0.026456544 -0.11629377 -0.020558864 -0.12976791
-0.02209495 0.012298991 -0.10987443 0.09230769 0.023141287 0.022776008 0.10682279 -0.06850598
0.020303173 0.07408659 0.0010420511 0.044170637 0.0055976585 0.035660796 0.008018041 0.060788874
0.0044663996 0.13961704 -0.04193486 0.054687835 -0.30375594 0.031406898 0.11273235 -0.00021721868
-0.15561445 -0.13740696 -0.09099672 -0.011450119 0.1160079 0.06333078 0.047734227 0.087805964
0.08036431 0.02675071 0.044502567 0.08505399 0.017289171 0.021967653 -0.027613064 -0.028248988
0.024950264 0.11081392 0.07434023 0.034423653 0.046534233 0.039953977 -0.040758226 0.0064786696
0.073662 0.07109213 -0.032070126 -0.014876552 0.10250061 -0.0010221675 0.16303134 0.008101168
0.057308856 -0.037782498 0.01950222 0.06455931 0.061112545 0.054531787 -0.28180498 0.016755298
-0.06466974 0.08591279 0.090610534 -0.019291459 0.06645235 0.014836147 -0.004293181 0.0047949622
0.041986838 -0.1841586 0.113917045 0.0008471101 -0.12976804 -0.19718812 -0.005872771 0.062430374
0.062748335 0.12821212 -0.02530776 -0.031218065 -0.019596428 0.06392911 0.030094326 0.04814172
0.012074219 0.09443217 -0.104327016 0.0163345 -0.038987406 -0.059313614 0.06775364 0.083512776
00000000: fdde 5b3d 98c2 01bd 183e 8bbd 379b 7b3d
00000010: e755 fabd 49f3 26bc 21bb 35be a88e 2f3c
00000020: a27a ba3d d4de 1b3d a58e 823d f1ba aa3d
00000030: c071 cd3c a96a 09bd 6243 7bbd e2a9 363d
00000040: 08b6 e63d 42d1 81bd 9815 2f3e c829 bfbc
00000050: d4ea 06bc 7dbf 92bd 3c77 68bd b679 cc3d
00000060: ffb1 393e dec7 903c c4f4 65bd a32e 76bc
00000070: 65bb d8bc 6e2b eebd 106b a8bc e1e1 04be
00000080: 7800 b5bc b581 493c d805 e1bd d00b bd3d
00000090: cc92 bd3c c094 ba3c e8c5 da3d dd4c 8cbd
000000a0: d752 a63c b6ba 973d 6f95 883a 45ec 343d
000000b0: 906c b73b 0e11 123d 1a5e 033c c1fd 783d
000000c0: e05a 923b c5f7 0e3e e3c3 2bbd 5a00 603d
000000d0: e685 9bbe 85a4 003d 38e0 e63d 32c5 63b9
000000e0: 6559 1fbe 69b4 0cbe 7d5c babd 4899 3bbc
000000f0: 8d95 ed3d 91b3 813d f784 433d 9dd3 b33d
00000100: 0b96 a43d 4e24 db3c 5348 363d c930 ae3d
00000110: 05a2 8d3c 82f5 b33c cb34 e2bc 6c6a e7bc
00000120: 7f64 cc3c 69f2 e23d b13f 983d d1ff 0c3d
00000130: ae9a 3e3d c8a6 233d 19f2 26bd 054b d43b
00000140: 1adc 963d c098 913d f75b 03bd c8bc 73bc
00000150: d7eb d13d 40fa 85ba b0f1 263e c3ba 043c
00000160: b1bc 6a3d d2c1 1abd 1fc3 9f3c ac37 843d
00000170: 2651 7a3d b95c 5f3d be48 90be 6842 893c
00000180: 9271 84bd 0bf3 af3d 0492 b93d 1f09 9ebc
00000190: 2b18 883d 5013 733c d0ad 8cbb 0f1f 9d3b
000001a0: 64fa 2b3d 1294 3cbe 574d e93d 9910 5e3a
000001b0: eae1 04be afeb 49be 6070 c0bb feb6 7f3d
000001c0: 3382 803d 0a4a 033e 3852 cfbc 07bd ffbc
000001d0: b088 a0bc 44ed 823d 6088 f63c 4130 453d
000001e0: f2d2 453c a765 c13d 67a9 d5bd eecf 853c
000001f0: 42b1 1fbd d5f2 72bd 6cc2 8a3d bf08 ab3d
