neuralq3.pt (torch, 5208 bytes, 3 tensors)

model.0.weight f4 [128, 4]
00000000: ff0c 36bd d181 973e 91a5 c83c d87b f33d
00000010: 797a 71be b4bb 923e ce38 5e3d b8f1 eb3d
00000020: 3f1c 2abe 6bca 133e 1850 033e 2657 27be
00000030: ea6e 213e f43e adbe 2647 513c a748 af3d
00000040: c018 b03c c092 b23c d491 ae3e b89a a5bd
00000050: e68a 5bbe 3b57 20bd 46c3 233e ba3f d1be
00000060: 5f00 e73e b068 61be fdcd c33e c795 50be
00000070: 0d06 fd3e e064 be3e a221 48be c373 5cbe
00000080: 8c34 f0be 2875 c0be 0000 01be b6e1 bebe
00000090: eb8b ed3e 9689 943e 257c c3bd 4cb9 afbe
000000a0: 0093 e4bc 7cb4 8ebe 3094 773d e8d5 edbd
000000b0: 71cb bcbe 4e6e 983d 49f2 7d3e 4f4b a6be
000000c0: a861 efbe d523 b13e eb7d 9cbe b807 0dbe
000000d0: 0629 b6be 76cf 92be d470 643e 148c 4e3e
000000e0: 2ee4 e4be 206e 88be a8d0 a53d 00a3 f93d
000000f0: 9f10 22be e999 e13d b465 17be d87e e33e
00000100: 4c0f babe 5c85 b4be f29d c9be 1084 6ebe
00000110: 937c e8bd 7d50 b03e 93d1 cabe c970 91be
00000120: b422 4ebe b4a2 cf3e cc31 d0be 26fe 28be
00000130: cbeb ea3e b584 533c 103c 44bc 130b 713e
00000140: 5823 383e 2f2d d5bd 051d 8cbe 5278 38bd
00000150: bc9c f13e f67d d73e d0d5 c93e 2721 76bd
00000160: a428 933e db4e 9b3d a4f4 1e3e 2747 f0be
00000170: 131f ef3d 07a7 82be c909 43bd d43b b3be
00000180: 5e4d 4c3e 567b 843e 99e7 f3be bbd4 9d3e
00000190: c502 f93e a12b 25be cded d4bd 74ee e23e
000001a0: 5e73 d2be 000c 8cba a275 bcbe c076 613c
000001b0: 8bee b6be 0772 e23e e249 ccbe 037a 40bd
000001c0: 7472 2b3e 0082 963e e313 75be f445 953d
000001d0: d86e b7bd 4659 bfbe 60d2 60bd 1e94 a83e
000001e0: b2bd 0ebd 2027 be3e c12b 003f 42c6 c23e
000001f0: 05d1 303a 6e0d 783d 4a1a 18be 8205 393d
00000200: 2fad d73e 959f d63e d2d5 4f3d e463 f7be
00000210: e55f 563e 298a dd3e 15d1 f13e bff0 62be
00000220: f602 cd3e 60bb cbbe cf58 963e ef52 d03e
00000230: 0e99 683e 9310 f0be 571f d83e acb5 b23e
00000240: 92eb 853e bc17 da3d a756 ebbe eeb1 95be
00000250: d097 923d 29cc 493e 5e32 d5bc 973a 6bbe
00000260: c325 84bd 672b 9b3e 1ab5 6b3d c8e8 f43d
00000270: 1d49 dfbe 0705 c23e 2ac0 c5be 5661 f5be
00000280: f790 c03d 3a9a 2cbc 63fd a93e e95e 98be
00000290: aa24 d1be 309b e5be 5289 b13e 9ce0 a4be
000002a0: a06f 30be defa adbe f075 37bd a007 cebd
000002b0: 7a10 503e b77f 583e cb40 a13e 3b0a a43e
000002c0: 6a05 8e3d a2b6 09be 38cc 26be 5527 b03e
000002d0: 0ed5 52be 8f34 b03e 0bba 9cbe 7542 aa3e
000002e0: 24a7 55be f8c2 92be 5604 dd3e ea6f a13e
000002f0: ad08 6b3e e488 a33e 2f48 1ebe 6387 0dbe
00000300: bda3 e5be 42a8 87bd ca0e 9fbe da47 a93e
00000310: 0b5e 8f3e c41e c03d 8d59 c4be bb48 60bd
00000320: 1479 533d c0fa b53e d497 a5be 942d 10be
00000330: e113 4dbe 78eb 473e 7b9d c3be ce5a ba3e
00000340: 0c94 14bd 2f20 b73d da4b 65be b0b8 1b3d
00000350: c234 dabe 7ef0 e1be 12e1 b8be 5c6c 70be
00000360: f4e0 9f3e 5bc4 c53d fa1c 6a3e d045 973d
00000370: 0f78 aebe 4fa2 943b 271d 8b3e 2570 c23d
00000380: 8e6f 3a3e daef 81be e761 103e ac94 eebe
00000390: 87bf e43e a14f fa3e 079c e53e 1446 d93e
000003a0: 9fe3 a6be 3299 593d dbb8 bbbe f2d9 c33d
000003b0: 16e3 1b3d 1547 82be 0d12 ea3e d172 ccbe
000003c0: c2bc 663e 8a69 ae3b 9f18 70be a022 fa3e
000003d0: 9c36 d4be 5534 ed3e 2f71 c83e 57c9 47bd
000003e0: 304d 36be bc96 3f3e 10a7 47bd 2e54 e8be
000003f0: 13e5 58be 5289 f03e 3e1d 9abd 4c96 a0bd
-0.044445988 0.2959123 0.02449301 0.11888856 -0.23581876 0.2865883 0.054253392 0.115207136
-0.16612338 0.14432685 0.12823522 -0.16341838 0.15764967 -0.33837092 0.012773311 0.08558779
0.021496177 0.021798491 0.34095633 -0.08086151 -0.21439704 -0.03914569 0.1599246 -0.40868932
0.4511747 -0.22012591 0.38243094 -0.20369636 0.4941868 0.37186337 -0.1954408 -0.21528535
-0.4691509 -0.37589383 -0.12597656 -0.3728158 0.4639581 0.2901122 -0.09545163 -0.34321058
-0.027902126 -0.27872074 0.060444057 -0.11613065 -0.36873963 0.07442914 0.24799456 -0.3247933
-0.46754193 0.3459765 -0.30564818 -0.13772476 -0.35578173 -0.28673905 0.22308666 0.20170623
-0.44705337 -0.2664652 0.08096439 0.12189293 -0.15826653 0.11015684 -0.1478489 0.44432712
-0.36339796 -0.35257995 -0.39378315 -0.23292565 -0.11351886 0.34436408 -0.39613017 -0.2840636
-0.20130426 0.4055382 -0.40662992 -0.165032 0.4588302 0.012910058 -0.011977211 0.2353938
0.17982233 -0.10409009 -0.2736589 -0.04503662 0.4718989 0.42088288 0.39420938 -0.06009021
0.28741944 0.075834 0.1552301 -0.46929285 0.11675849 -0.25518057 -0.047616754 -0.35006583
0.19951388 0.25875348 -0.47637632 0.30826363 0.48634925 -0.16129924 -0.103969194 0.4432255
-0.41103643 -0.0010684729 -0.36808497 0.013761222 -0.3572887 0.4422762 -0.39900118 -0.04699136
0.16742879 0.29396057 -0.23933367 0.07288733 -0.08956689 -0.37372798 -0.05488813 0.32925504
-0.034848876 0.37139225 0.50066763 0.38041884 0.00067450135 0.060559683 -0.14853778 0.04517127
0.42124316 0.41918626 0.050741024 -0.48318398 0.20935018 0.4326947 0.4722983 -0.2216215
0.40041322 -0.39791393 0.2936463 0.40688273 0.22714636 -0.46887645 0.4221141 0.3490423
0.26156288 0.10649058 -0.45964548 -0.29237312 0.07157862 0.19706787 -0.026024994 -0.22971569
-0.06452515 0.3030655 0.05754576 0.11958462 -0.43610469 0.3789446 -0.38623172 -0.47925824
0.0940265 -0.010534817 0.3320113 -0.2975991 -0.40848285 -0.4484496 0.3467508 -0.32202613
-0.17230082 -0.3398046 -0.04479021 -0.10060048 0.20318785 0.2114247 0.31494746 0.32039055
0.069346264 -0.13448575 -0.16288841 0.34405008 -0.20589086 0.344151 -0.3061069 0.33253828
-0.2086454 -0.28664374 0.4316737 0.31530696 0.22952528 0.31940377 -0.15457223 -0.13821177
-0.44851485 -0.066238895 -0.3106597 0.3306263 0.28001437 0.09380868 -0.38349572 -0.05475686
0.05162914 0.3554287 -0.32342398 -0.14079887 -0.20027114 0.19523418 -0.38206086 0.36397403
-0.036274 0.089416854 -0.22392216 0.03801793 -0.42618376 -0.44128793 -0.36109215 -0.23478836
0.31226313 0.096565925 0.22862616 0.073863626 -0.34075972 0.0045359503 0.2717068 0.09494046
0.18206617 -0.25378305 0.14099847 -0.46597803 0.44677374 0.48888877 0.44845602 0.42436278
-0.32595536 0.053124614 -0.3666447 0.09563054 0.038058363 -0.25444856 0.45716897 -0.39931348
0.22532943 0.00532264 -0.23446892 0.48854542 -0.41447914 0.4632899 0.39148852 -0.048775997
-0.17802882 0.18709844 -0.048743308 -0.45376724 -0.21181135 0.46979767 -0.07525109 -0.07841167

model.0.bias f4 [128]
00000000: 825f 713d 44b6 cc3e b368 fc3e 9ebe bdbe
00000010: 4cc5 ecbe b502 af3e 5c13 063d 2711 97be
00000020: 2c7a 583e f971 e93e d898 d2bd bc59 923e
00000030: 69ce 1ebd 666a 9ebe 40a7 a33c 6a0e 823c
00000040: 983e c43d 53eb 26be cdd0 6f3e e740 d7be
00000050: 276f 69be b590 d5bc ffa3 183e 3c1e a1bd
00000060: 8fb4 ecbd 7b13 4bbe 186d 3cbe 420e 5f3e
00000070: 0b95 c33e f040 0dbe 3618 853e a5c8 f73d
00000080: 3ffa 1fbe 90bf 06be 8073 9a3e abed cbbe
00000090: 5f2c 853e 1a15 3e3e 12a7 77be 8ea3 823e
000000a0: 4ecd 873e 9820 243e 1a00 b4be f03f aabd
000000b0: 3988 9bbe d120 013e 5e1f c6be f534 acbc
000000c0: fd34 aa3c 125f 9abd f4a7 bcbe b117 f83d
000000d0: 9f01 2c3d e010 64bd e288 b5bd 1c9a f93d
000000e0: 4da0 8d3e 8c73 8b3e 6388 383e e639 a33d
000000f0: 8146 e73e da51 1e3e 2440 61be 9c11 3e38
00000100: 0e9a 1c3d ca93 27bd 266f b0be 8952 d03e
00000110: 6651 93be 89c2 ec3d bea0 0cbd 71c0 bc3e
00000120: 3076 78bd 7e42 33be 3be7 fa3e 57fe 803e
00000130: 2ddc ef3e 87c1 1b3e 2de3 5abc b5c4 c1be
00000140: 1c89 3b3e b856 9abd ae72 753e ff00 d53e
00000150: bcc5 c83e 6d8d 563e 5186 1dbe 42c5 f23e
00000160: 7373 e03e 40b9 853d ff7d 683b d738 e3bc
00000170: c472 edbe 73d9 373e ee54 e2be 20ab d03c
00000180: 402e dcbd f6a4 d73e 3d04 a03e eb87 f63e
00000190: 8003 cdbd 74ef 963e 8c01 e3be 168f a4bd
000001a0: 411c e93e b02d 333e f79f 85bc ad0f 8dbe
000001b0: 2301 cc3e 8a14 6a3e 2507 acbe f590 0abd
000001c0: e014 ecbd 97bc c5bd 98d0 9cbe 8e91 a1be
000001d0: 8f4a d53e 8439 953e 4004 c13e 781f a0be
000001e0: ae82 36be 14b5 3abe 0a00 a2be 1c16 5e3e
000001f0: 0170 cdbe 2d14 b6be 6cac 3cbe 701c 093f
0.058928974 0.39982808 0.4929863 -0.37059492 -0.46244276 0.34181753 0.032733306 -0.29505274
0.21140355 0.45594767 -0.10283059 0.28584087 -0.038771067 -0.3094055 0.019977212 0.015876014
0.09582251 -0.16300707 0.23419495 -0.42041704 -0.22796308 -0.026069978 0.1490631 -0.07867095
-0.11557876 -0.1983165 -0.18400991 0.21782783 0.38199648 -0.13794303 0.25995034 0.12098817
-0.15622805 -0.13159013 0.30166245 -0.39829764 0.26010415 0.18562737 -0.24184826 0.25515407
0.26523823 0.16028059 -0.35156327 -0.08312976 -0.30377367 0.12610175 -0.38695806 -0.021021346
0.02077722 -0.075376645 -0.36846888 0.12113894 0.041993733 -0.055680156 -0.08863999 0.12187597
0.27661362 0.27236593 0.18020777 0.079700276 0.45170978 0.15460911 -0.21997124 4.531593e-05
0.038232855 -0.040912427 -0.344598 0.4068797 -0.2877304 0.11560542 -0.034332983 0.3686557
-0.060659587 -0.17505834 0.4900454 0.25194046 0.46847668 0.15210544 -0.013359827 -0.37845388
0.18314022 -0.075360715 0.23969528 0.41602322 0.3921336 0.20952387 -0.15383269 0.4741612
0.4383808 0.06529474 0.003547549 -0.027737064 -0.46376622 0.17954044 -0.4420542 0.025472224
-0.10751009 0.42118043 0.31253234 0.48150572 -0.10010433 0.29479563 -0.44337118 -0.08035104
0.4552937 0.17497897 -0.016311629 -0.27551022 0.39844617 0.22859398 -0.335992 -0.033829648
-0.11527419 -0.09655111 -0.30627894 -0.31556362 0.41658446 0.29145443 0.37698555 -0.3127401
-0.17823288 -0.18233138 -0.31640655 0.21688122 -0.40124515 -0.35562268 -0.18425149 0.5355902

model.2.weight f4 [1, 128]
00000000: 4fab 68bd 59cd e13d 60e4 af3d 50d6 143d
00000010: 03e7 a53d af81 153d 5b10 a2bd 3f0f 2f3c
00000020: 12aa 203d 47c6 4d3c 2ca2 e83c 2efa 33bd
00000030: d532 513c e3a8 99bd 475b 803d ecc4 95bd
00000040: 2801 a3bd ec3f 843d a3f6 03be 843b fabc
00000050: 55f9 bf3c 2c1c 013c 4cf6 96bd a939 c03b
00000060: deb1 ad3d d89b aebd e699 253d f552 81bc
00000070: 245a c93d 9a58 9bbd caec 0ebd 7b78 a03c
00000080: 009e 8e3b 2198 48bd a74f b1bc 7a23 25be
00000090: 2d56 703d 9eec 2dbd 5dbd 5fbd e285 5dbd
000000a0: 92e8 3e3d 89da af3d 29e9 69bd 0556 4fbc
000000b0: 4027 18bd 475c cbbd aa85 2e3d e6a4 673b
000000c0: 5202 5fbd 926e 2a3d af92 293e 1c6b 93bd
000000d0: 9d96 edbd 4b52 65bd 956b da3c 290d 88bc
000000e0: b495 903c aab0 a2bd 01bf fa3c 28a9 1dbe
000000f0: d9e0 d63d 4a15 bb3d 9416 0a3d b976 a7bb
00000100: b5b1 7cbc 75f0 f2bc bf2a a5bd ef42 323e
00000110: d767 ae3d 17a2 153d 96eb 46be 9638 0abd
00000120: 3d8f a4bd f677 89bc d1de 06be 2d5d 9bbc
00000130: 0f1f b53d aec6 a73c be98 373e c079 3b3d
00000140: fc08 0e3e 2d83 8b3d fdcc debc ec23 99bd
00000150: c83c ee3d a335 7bbd c456 16be 7436 38bc
00000160: 8406 bc3c 28d8 e3bc da25 aa3d 7669 e0bb
00000170: 18b1 86bd 891a 5e3c 1401 b3bc 3cf7 ff3c
00000180: 19e7 9f3d b972 64bc 54c9 073d c9c9 253d
00000190: 79f6 893d 8ced 9fbd 6ca6 46bd 68c6 f9bc
000001a0: f8e7 83bc 7ed5 0fbd 06ed a0bd a2c3 713d
000001b0: 9c47 e8bd d2ee 5dbd c6f5 a43d 87c6 0a3d
000001c0: f822 ae3c 0831 8b3c 605c bb3c dca6 afbd
000001d0: bd72 4ebd d4b9 573d 7fd2 813d aae7 0bbd
000001e0: 2c6e 993d afb0 a23d 8864 4e3d 8dea 00bc
000001f0: 5772 8abd 07ea c23d b424 8b3c 80b2 033e
-0.056803998 0.11025495 0.08588481 0.036337197 0.081007026 0.03650063 -0.07913276 0.010684787
0.03922469 0.01255948 0.028397642 -0.04393976 0.012768467 -0.07502916 0.0626741 -0.073129505
-0.07959205 0.06457505 -0.12887053 -0.030545957 0.02343432 0.007880252 -0.07371196 0.0058662486
0.08481191 -0.085258186 0.040429972 -0.015786627 0.09831646 -0.07585259 -0.03489379 0.0195887
0.004352331 -0.048973206 -0.021644427 -0.16126814 0.058675934 -0.042461984 -0.05462395 -0.05408276
0.046608515 0.08586604 -0.057107124 -0.012654786 -0.037146807 -0.0992971 0.04260794 0.003534609
-0.054445572 0.041609354 0.16559862 -0.07198164 -0.11600993 -0.055986684 0.026662627 -0.016607838
0.017649509 -0.07943852 0.030608656 -0.15396559 0.10492105 0.0913492 0.03371294 -0.0051105884
-0.015423228 -0.029655674 -0.08064794 0.17408346 0.085159 0.036531534 -0.19425806 -0.03374537
-0.08035133 -0.016780835 -0.13170935 -0.018965328 0.088438146 0.02048048 0.1792936 0.045770407
0.13870615 0.06812129 -0.027197355 -0.07477555 0.11632687 -0.06133045 -0.14681536 -0.011243451
0.022952326 -0.027813032 0.08308001 -0.0068485094 -0.06576747 0.013556131 -0.0218511 0.03124582
0.0780775 -0.013943368 0.033150986 0.04047564 0.06736464 -0.0780898 -0.048498556 -0.030490115
-0.016101822 -0.03511571 -0.07857709 0.05902446 -0.113417834 -0.054182835 0.0805469 0.033880737
0.021256909 0.016991153 0.022871196 -0.08576748 -0.05040239 0.052667454 0.06338977 -0.03415648
0.07491717 0.07943856 0.050388843 -0.007868421 -0.0676009 0.095172934 0.016985275 0.12861061
